Assets/Scripts/3.3 Dragons vs Tennis/BallEngineAI.onnx (onnx, 142180 bytes, 11 tensors)

69 f4 [10]
000000 8f a6 58 40 00 fb 2d 40 fa 58 47 40 e2 8e 5e 40
       3.385166 2.7184448 3.1148057 3.4774709
000010 eb 1f ad 40 f4 c4 5d 40 63 fa b8 3e 09 1a af 3e
       5.410146 3.465146 0.3612853 0.3419955
000020 9c 91 81 3e 92 cb 7f 3e
       0.25306404 0.2498

action_model._continuous_distribution.log_sigma f4 [1, 3]
000000 cb f5 f1 bf 25 2d 90 bf ea 08 ae bf
       -1.8903135 -1.1263777 -1.359647

action_model._continuous_distribution.mu.bias f4 [3]
000000 ec a8 88 3b 4d 2b fd bc db 61 ba bd
       0.0041705277 -0.030904436 -0.09100696

action_model._continuous_distribution.mu.weight f4 [3, 128]
000000 ac 7f bf bb 55 90 fb bc bf 64 68 bd dc f4 16 bc
       -0.005844077 -0.030708471 -0.056736704 -0.009213652
000010 31 24 04 3d c3 80 c3 bc b1 77 3b bd 8c 61 34 3c
       0.032261077 -0.02386511 -0.045768443 0.011009585
000020 d6 1d ef 3c f9 5f 34 bb 08 69 de 3a 0d c2 6d 3d
       0.029189032 -0.0027523024 0.0016968558 0.05804639
000030 50 ce a2 3d 33 d2 8a 3c 2d 2f c9 3b fa 93 6a bd
       0.07949507 0.016945934 0.006139657 -0.057270028
000040 17 49 2c bd 07 69 11 bd d5 e2 03 3c a8 76 9b 3d
       -0.04206189 -0.035500553 0.008049686 0.07590991
000050 bd ec 1f 3d a6 46 18 ba 13 90 92 3d fa 8a 47 3d
       0.03904413 -0.0005808867 0.07156386 0.048716523
000060 68 67 b8 bc bf 6a 03 3d 5c 0f 8e 3d 58 e2 23 3d
       -0.022510245 0.032084223 0.06936523 0.04001078
000070 ab e7 a2 bc 61 07 a4 3b b4 17 f8 ba 34 1e 03 3c
       -0.019885859 0.0050057624 -0.0018927963 0.008002806
000080 4d e3 fc bc 0b 10 40 3a 5a e9 a8 3d 63 53 b3 3c
       -0.030870104 0.00073266093 0.08247633 0.021890348
000090 ec f8 07 3c a6 ae b4 bd 44 18 26 3a 74 d5 ab 3c
       0.008299094 -0.08822374 0.00063360133 0.020975806
0000a0 ad 94 81 bc c2 58 d1 bc c1 63 a9 bc a5 02 b5 bd
       -0.015817964 -0.025555018 -0.02067745 -0.08838395
0000b0 bc 20 e6 bd fd ca 21 3c 35 01 9c bc e0 2a 0d 3b
       -0.11236712 0.009875056 -0.019043544 0.0021540448
0000c0 ff a7 f8 3c 78 55 bf bb 71 a2 3a bc fc 37 6e 3a
       0.030353544 -0.005839046 -0.011391268 0.0009087322
0000d0 88 d6 35 3b 7a 99 07 bd cd 81 cf b9 a6 e4 9b 3d
       0.0027746279 -0.03310535 -0.00039578826 0.076119706
0000e0 0a ae ec 3c 2c ad 14 3d 00 ee 13 bd 26 4c 7b 3d
       0.028891582 0.036297962 -0.036115646 0.061351918
0000f0 44 bf 6f 3c 23 c6 45 3d 38 fb ae bd ad 7b 13 3e
       0.014633004 0.04828466 -0.0854401 0.14402647
000100 35 2a b2 bd b2 e7 6c 3c 52 eb a5 3d 3b 3d 55 3d
       -0.086994566 0.014459537 0.081015244 0.052060347
000110 5f 67 85 bc 5c 25 0e 3d 1f cb a9 bc 4e fd 09 bd
       -0.016284643 0.034703597 -0.020726738 -0.033688836
000120 eb 7f 3f bd 8e 15 d4 3b ca df 02 bd 9c ec a3 bc
       -0.04675285 0.006472296 -0.031951703 -0.020010285
000130 c3 4f 47 3c 9f 8a 5e bd 1b 6f 28 3d 3f d1 30 3e
       0.012165013 -0.054331418 0.041121583 0.17267321
000140 4d 6a 00 be 07 a2 e6 3d 79 d4 19 3d 1b 13 57 3d
       -0.1254055 0.11261373 0.037556145 0.052508455
000150 fa 70 63 bb c1 f7 77 3d 97 0b 3a 3b db 05 33 3d
       -0.003470479 0.06053901 0.0028388256 0.043706756
000160 52 a0 47 bd 98 f0 67 bd b1 56 c9 bc 6d 30 c4 3c
       -0.048736878 -0.056625932 -0.02457747 0.023948872
000170 23 66 62 3d d1 69 b4 3b 60 81 8a bc 2d 26 a9 3d
       0.055273186 0.0055057784 -0.016907394 0.082592346
000180 c9 9c 3c bd f6 87 ab bd 52 4b 03 bd f8 c4 54 bd
       -0.04604796 -0.08375542 -0.032054253 -0.051945657
000190 39 cf 67 3d 27 cd 01 3d ef 00 2c bd c8 cb 82 3c
       0.056594107 0.03168979 -0.041993078 0.015966311
0001a0 8b 18 c4 bc d9 51 45 3d fd 2e a9 bd 6f c7 95 bc
       -0.023937484 0.04817376 -0.082609154 -0.018283574
0001b0 a0 b3 b9 bc 10 04 83 3c a8 1e 9c bd 20 ff fa 3b
       -0.02266866 0.015993148 -0.07623035 0.007659808
0001c0 2e c0 a8 bc b7 b0 45 3d a4 42 31 3d 97 e6 b2 bc
       -0.02059945 0.04826423 0.043276444 -0.02183847
0001d0 47 97 a8 bd bc c4 9b bc 15 e4 da 38 ab 9d ea bc
       -0.08231979 -0.019014709 0.00010437534 -0.028639635
0001e0 61 15 90 3c 4b 0e 0a bc f0 f7 8d 3d 57 e4 38 bb
       0.01758832 -0.008426259 0.06932056 -0.0028212273
0001f0 cf 63 92 3d e1 55 02 3d b6 4c ae bc 1d 36 46 3c
       0.07147943 0.03182018 -0.021276813 0.012097863
000200 33 19 2c bd 46 e4 ff 3b 24 bf 72 bd b0 84 5b 3d
       -0.04201622 0.0078091947 -0.059264317 0.053593338
000210 bf ca ba bc 83 42 7d 3b 2e 78 d8 bd 9c f2 e9 3d
       -0.022801755 0.003864438 -0.105697975 0.11423227
000220 de a8 a6 bd 6f 61 fb ba 49 22 3b bb 2e 29 4e 3d
       -0.081376776 -0.0019178818 -0.002855437 0.05033224
000230 94 49 21 3d 55 2d 2c bd 2c 1f 53 bc 4c 2b 92 3d
       0.03937681 -0.04203542 -0.01288585 0.071371645
000240 ad 35 df 3d 39 dc a8 bd d7 b5 a1 3c 50 59 b8 bd
       0.1089891 -0.08245129 0.019740028 -0.0900141
000250 a3 86 53 3d 4f 22 ce bd 65 1f 84 bb 71 26 e5 bb
       0.05164207 -0.100651376 -0.004032063 -0.006993108
000260 0c ee c4 3d 4d b2 c5 3d b2 e3 26 3e 82 43 c6 bd
       0.09615716 0.09653149 0.16297796 -0.09680845
000270 78 4c a0 bd 2c 1f 47 bd 05 d9 e4 bd 84 12 1c 3e
       -0.07827085 -0.048613712 -0.11174206 0.15241438
000280 38 c5 eb bd c0 a0 d3 bc 4a 71 ae 3d a0 86 e0 bc
       -0.11512226 -0.025833488 0.08517702 -0.027407944
000290 d0 0b ac 3b 37 cc cf 3d 3d e2 d4 3c 8b b8 89 3a
       0.0052504316 0.10146373 0.025986785 0.0010507269
0002a0 b9 c6 02 be 80 69 f1 bb 32 3b d6 3d 8b 9e c3 3d
       -0.12771119 -0.007367313 0.10460509 0.09551724
0002b0 5d b0 14 3c d6 ad 20 be 9e 0a 92 bc 81 8c a0 3c
       0.009075251 -0.15691313 -0.017827328 0.019598247
0002c0 b7 fa 6f bd 52 f5 12 3b 25 fb 42 be 5d 18 13 3c
       -0.05858871 0.0022424054 -0.19041117 0.008977977
0002d0 da 8e 06 3a 79 66 37 bd 12 dc 2d bc 51 2c 02 be
       0.0005132981 -0.04477546 -0.010611551 -0.12712218
0002e0 ef 15 a6 bc 5f 56 04 3e 4c 23 df 3c 16 d5 65 3d
       -0.02027413 0.12923573 0.02723851 0.056111418
0002f0 24 cc 6c 3d a6 c0 21 3d b9 90 3c 3d 55 c8 fe bd
       0.05781187 0.039490364 0.046036456 -0.12440554
000300 fe 26 55 bd de 47 48 bd 3e 16 bd bd 35 4b 15 3e
       -0.05203914 -0.048896663 -0.09232758 0.1457947
000310 31 e1 d5 bc f3 e3 f8 3d dd 11 c6 3c c2 cd 44 bd
       -0.026108356 0.12152853 0.02417844 -0.04804779
000320 cb 67 cc 3d f8 e3 23 3e 8f 88 07 3e c6 1b 42 bc
       0.099807344 0.16004932 0.13235687 -0.011847442
000330 2d 58 1e bd ee 7e a0 3d ba 7d d5 3d 7a a2 0f bd
       -0.03865831 0.0783671 0.10424371 -0.03506706
000340 e2 f9 85 3a d2 6c a0 3d 59 5c 3f bd f0 fc cf bd
       0.0010221566 0.07833256 -0.04671893 -0.10155666
000350 a3 9e e9 3c f3 75 43 bd f6 38 b9 3d 20 c9 2c bd
       0.028518027 -0.047719907 0.090440676 -0.042183995
000360 a6 b8 8b 3d fe 1f c4 bd 4f ce ba bd 77 a4 9b 39
       0.06822328 -0.095764145 -0.091213815 0.0002968644
000370 c0 be bf bd 06 f8 e3 bb d7 6b 1a 3e f8 47 2d bc
       -0.093625546 -0.006957057 0.150802 -0.010576241
000380 d4 44 8e 3d 3a dc 00 3e b2 b2 0e 3e ff 8a 99 3d
       0.06946722 0.1258401 0.13935354 0.074972145
000390 ac c3 3e bd 95 6d 14 bc ea 5c 54 bd f6 1e 12 bd
       -0.046573326 -0.0090593295 -0.051846422 -0.035674058
0003a0 d2 8d b8 bd 7e f0 18 bc 49 35 1d bd c5 f0 f6 3d
       -0.09011425 -0.009334682 -0.038380895 0.12057642
0003b0 ce 15 08 bd d7 54 68 bd be 61 ea bc fe 3c 3a be
       -0.03322392 -0.056721535 -0.02861106 -0.18187329
0003c0 6b c4 47 be 84 eb 07 be 50 88 29 3e d0 b3 3c 3e
       -0.19508521 -0.13273436 0.16555905 0.18427968
0003d0 8d ee 74 3e 7e 15 89 bd 9e fc a1 bc c0 60 93 bd
       0.23919125 -0.066935524 -0.019773778 -0.07196188
0003e0 27 1c 1b 3e 1f 11 c7 3c 6c e6 10 3e 9f 72 6e 3b
       0.15147458 0.024300156 0.14150399 0.0036384237
0003f0 a0 54 01 3e 6e cd da 3d 22 fc db 3b b0 a0 1c bd
       0.12629938 0.10683714 0.006713406 -0.03823918

network_body.linear_encoder.seq_layers.0.bias f4 [128]
000000 c9 ec 78 3d d7 19 67 3b 1a f1 87 3d eb eb e6 bd
       0.06077269 0.0035263204 0.06637783 -0.112754665
000010 dd a9 48 be fb 53 04 3d 61 0e a8 bd a9 7c 2e bd
       -0.19596048 0.032306653 -0.082058676 -0.042599354
000020 0f 95 01 bd c6 e6 1e bd 7e 5e 39 bd c7 07 0a 3e
       -0.031636294 -0.0387943 -0.04525613 0.1347953
000030 93 e0 9e bd ad 0f cd ba 67 ea 78 bc 64 b1 11 be
       -0.07757678 -0.001564493 -0.015192605 -0.14227825
000040 69 39 0d 3e 59 29 70 bb 30 15 16 3d 17 f6 9f 3d
       0.13791431 -0.003664574 0.0366413 0.0781061
000050 6c 77 a8 bd 81 72 d5 3d 21 3f 5f 3d 9e b4 cb be
       -0.08225903 0.104222305 0.054503564 -0.39786237
000060 a8 fd 88 bd bc d6 1b bd 04 5f de 3d 2e 16 1f 3b
       -0.06689006 -0.038046584 0.108579665 0.0024274695
000070 27 b3 d3 3d 38 42 9c 3b 9b 4a e2 bd d1 80 a0 bd
       0.10336905 0.004768636 -0.11049386 -0.0783707
000080 f5 4a 86 bd 63 48 33 3c be ea b3 3d 47 12 af 3c
       -0.06557266 0.010942551 0.08785008 0.02137102
000090 eb 8d b8 3c 92 43 02 3d 38 cf 8f 3d d7 df e9 bd
       0.02252861 0.03180272 0.07021946 -0.11419647
0000a0 12 04 80 bc c3 6a 0d 3e 82 7a 26 bd 92 58 15 3e
       -0.01562694 0.13810258 -0.040644176 0.14584568
0000b0 61 3a c8 3d 21 05 cb 3c fd 87 c6 3d fd ef 8a 3d
       0.0977676 0.02478272 0.096939065 0.067840554
0000c0 2a 0d 34 3c 5e 14 3c 3e 0a 8f 7b 3e aa e4 87 3d
       0.010989467 0.18367144 0.24566284 0.06635411
0000d0 fe 7c 5f be 69 74 78 be d1 52 b2 3d 0f bc 00 3d
       -0.21825024 -0.24263157 0.08707202 0.031429347
0000e0 7c 5d 8f bd 1e 32 f6 3a 33 de bf 3d d3 79 e6 bd
       -0.070002526 0.0018783247 0.09368553 -0.11253705
0000f0 a5 3e b8 3c 18 f7 9c be 9d 85 65 3e a2 25 09 bd
       0.022490809 -0.30657268 0.2241425 -0.033483155
000100 89 ee fb bd a0 f7 20 3e 54 c1 2c 3e 75 e9 a9 3d
       -0.12301356 0.15719461 0.16870624 0.082964815
000110 1f 6c 10 bd cd 87 19 be 31 53 d8 bd 46 21 f3 bd
       -0.035259362 -0.1499321 -0.105627425 -0.11871581
000120 97 ff 0c be cd c7 7f bd 42 41 d9 3c 38 f5 86 bc
       -0.13769375 -0.062446404 0.026520375 -0.016474351
000130 78 64 9f be 3b 56 6e ba 4f 52 e3 bd 4b dd ca bc
       -0.3113134 -0.0009091829 -0.110996835 -0.024763724
000140 53 c9 c0 bd 15 cc 5a be 3c ca a7 be 1d 83 79 bd
       -0.094133995 -0.21366914 -0.3277148 -0.060916055
000150 f1 55 b3 bd 35 2b c5 bd f5 5a 85 bc c7 3a 61 3d
       -0.087566264 -0.09627382 -0.016278723 0.054987695
000160 e2 92 87 bd 5c 2f ac 3d 2d ac 41 3e 2c 94 1e bd
       -0.066198125 0.084074706 0.18913336 -0.038715526
000170 87 75 05 be 8f e9 81 bd 6d 1c 17 bd 14 8e 1c 3c
       -0.13033114 -0.06343376 -0.036892343 0.009555358
000180 ac 9b b5 3c 42 75 6d 3d 93 c3 31 be 17 f6 b7 3c
       0.022168957 0.057973154 -0.17359762 0.022456212
000190 f6 49 28 3d a9 47 a2 be c8 40 14 3e 44 f0 ce 3d
       0.04108616 -0.31695297 0.14477837 0.10104421
0001a0 fa f2 68 bd 8d 97 55 be 85 80 e5 3d e1 f3 36 bd
       -0.056872346 -0.20858593 0.11206154 -0.044666175
0001b0 8b 23 70 3e 3a 6b 08 be e2 9c a6 bd a0 e4 0b 3c
       0.23451059 -0.13322154 -0.08135392 0.008538395
0001c0 e6 49 17 be d9 90 4e be 06 c5 65 3d 0d f9 03 39
       -0.14774284 -0.20172442 0.0560961 0.00012585912
0001d0 52 57 3b bd 86 50 9f 3d 93 01 0d 3c 35 b2 4e 3e
       -0.045737572 0.077790305 0.008606332 0.20185168
0001e0 4f 90 25 be 2f dc 91 3c cc 4c ad 3c 34 c7 22 3e
       -0.1616833 0.017805187 0.021154784 0.15896302
0001f0 91 5e 68 be 75 be 8d 3d 64 cc 05 be 09 cd 36 3e
       -0.22692324 0.069210924 -0.1306625 0.17851652

network_body.linear_encoder.seq_layers.0.weight f4 [128, 10]
000000 20 0a 17 3d 75 e8 68 be 23 ad 4a be 8c 4f 0c bf
       0.03687489 -0.22744925 -0.19792609 -0.5480888
000010 89 6c d3 bc 1c b6 8c be 56 1c 0e bf b7 25 5c 3e
       -0.02580859 -0.27482688 -0.5551199 0.21498762
000020 7f 8e 2f bf c0 67 36 3f 13 3b f6 3e ed 23 a6 bc
       -0.68576807 0.7125206 0.48091945 -0.020280803
000030 82 ed bb be 85 ba bc 3e cb 77 5d bd 20 34 0b bd
       -0.36704642 0.36861053 -0.05406932 -0.033985257
000040 41 4b d8 be 33 10 c9 be 6f 8f 3e 3f 8f 07 02 bf
       -0.42244914 -0.39270172 0.7443761 -0.50792783
000050 fe a5 17 bf 31 ee 00 bf ec f3 6a be e1 87 e3 be
       -0.5923766 -0.5036345 -0.22944611 -0.44439605
000060 2d 9a c1 3d ac f9 64 3f 2a 21 89 3e 7e 3d d4 ba
       0.09453235 0.8944347 0.26783115 -0.0016192643
000070 93 53 04 be 0d 56 a5 3d f9 97 14 3d b8 ed c2 be
       -0.12922506 0.080730535 0.036277745 -0.3807199
000080 c1 7a e8 3e 08 12 73 3f df 08 ed be 67 c4 ab bd
       0.45406154 0.9494939 -0.4629583 -0.0838707
000090 f4 7f 6f 3e e1 d9 c8 be 84 30 e8 bc ca 58 ec 3e
       0.23388654 -0.39228728 -0.028343447 0.4616149
0000a0 b3 b4 0c 3e 6c 2b af 3e 73 6b 3a be 16 ac 4f 3d
       0.13740806 0.34212816 -0.18205051 0.050701223
0000b0 64 13 53 be 76 66 d3 be a2 2a e8 3e 1a aa 94 3d
       -0.20612866 -0.4128911 0.45345026 0.07259007
0000c0 1f 0c 02 3f ec 95 e0 3c a2 3b ed be d7 7c bd be
       0.50799745 0.027415238 -0.4633456 -0.37009308
0000d0 52 8c 40 bd 3d fa 78 be d6 e8 39 be 32 f0 1e 3e
       -0.04700882 -0.24314208 -0.18155226 0.15521315
0000e0 73 4f bb 3e 30 ba c7 be 0f 98 df be 28 1e 9d be
       0.36584052 -0.39009237 -0.436707 -0.3068707
0000f0 34 89 07 bf 98 eb 9e 3e 01 17 e4 be c7 a4 0a bf
       -0.5294373 0.3103912 -0.445488 -0.5415768
000100 45 ab 15 bf 67 5f 2a be 00 dd 07 3f ae b7 92 3d
       -0.5846446 -0.16637956 0.53071594 0.0716394
000110 83 2d c0 bc 17 3d c8 be 1d 38 51 be 0f 53 ba 3e
       -0.023459202 -0.39109108 -0.20431562 0.36391494
000120 ac cd be be 35 ed 14 3c 4b c8 b8 3e 25 5c 92 be
       -0.3726629 0.009089758 0.3609031 -0.28585926
000130 3e 0f 68 be 0e bd 53 be bf ba e5 3e 6c 4e 85 bd
       -0.22662064 -0.20677587 0.44869038 -0.065090984
000140 10 3b 14 be ba 0c 51 3d 8e b9 69 3e 3b 0f 75 bd
       -0.14475656 0.051037528 0.2282469 -0.059828978
000150 d0 75 0c 3d 31 86 1c 3f bb dd d2 be 56 2b ab be
       0.034292042 0.6114226 -0.41184792 -0.334315
000160 fd d0 f9 3e c0 b8 4e 3d 2a 5e 85 3e 9c 8c 77 3b
       0.48792258 0.05046916 0.26048404 0.0037773019
000170 cd c1 8a bd 37 b0 32 be 36 77 2e 3e 41 c7 8a 3d
       -0.06775246 -0.17450033 0.17037663 0.06776286
000180 58 82 e7 3e 4b 0c c3 be 7d 95 72 be e3 59 c9 be
       0.45216632 -0.38095316 -0.23689838 -0.3932639
000190 5f dc fc 3e 4f 29 7e be 7d ad 61 be e5 6b a7 be
       0.4938688 -0.24820445 -0.22038837 -0.32699504
0001a0 54 16 a1 be 25 74 99 3d 47 3e cb 3b 05 69 df be
       -0.31462348 0.07492856 0.0062024924 -0.4363481
0001b0 57 07 5f 3e 08 e2 b7 be f8 68 9d be 0f f6 54 be
       0.21780144 -0.35914636 -0.30744147 -0.20796989
0001c0 9f b9 b6 3c 35 e5 f0 bc 42 aa af 3e d8 b2 80 bf
       0.022305308 -0.02940617 0.34309584 -1.0054579
0001d0 06 69 85 be cd b0 8d bd 1b 72 9d 3e 69 80 1c bd
       -0.2605669 -0.06918488 0.30751118 -0.0382084
0001e0 c4 d9 30 3d 41 a4 ee 3e 28 05 e5 bc 61 05 b8 3e
       0.043176427 0.4660969 -0.02795656 0.35941604
0001f0 7a 20 87 bd f0 a5 01 be 74 61 1d 3e 27 db b5 bd
       -0.06597991 -0.12660956 0.15369207 -0.088796906
000200 12 cd 11 bf b8 1b 45 3f b8 77 60 ba 12 5b a0 be
       -0.5695354 0.7699542 -0.00085627614 -0.3131948
000210 57 0f 0c 3f a7 af 08 bf 75 1d 8c bd ad 94 18 bf
       0.54710907 -0.53393024 -0.06841556 -0.5960186
000220 ff 34 12 bf 38 a4 3e be f3 46 31 be a2 f6 21 3e
       -0.57112116 -0.18617332 -0.17312221 0.15816739
000230 51 59 0b 3e d8 da 88 3d a2 98 13 bf bd cb 5a 3f
       0.1360829 0.06682366 -0.57654774 0.8546713
000240 cf 48 d6 3d d3 95 ef be eb 43 08 bf 64 14 1f bf
       0.10463106 -0.46793994 -0.53228635 -0.6214049
000250 8c 6f 06 ba 9b e9 d3 be 33 68 e0 3d 9f 31 1c bf
       -0.0005128316 -0.41389164 0.109573744 -0.61013216
000260 7e 9b 0c be fc 93 48 3f 3f b9 fe be dd 7a 98 bd
       -0.1373119 0.78350806 -0.49750707 -0.07445309
000270 af 04 34 bf 07 56 8b 3c 14 f4 00 bf 28 6e 2d 3e
       -0.70319647 0.017008794 -0.50372434 0.16936553
000280 1d d4 0f 3e 58 a9 18 be 20 e9 92 3d 8f fe 2f bf
       0.14045759 -0.1490835 0.07173371 -0.687478
000290 2b e7 9c 3d ba 30 02 3f e9 d7 a4 3e a1 65 9a be
       0.07661279 0.508556 0.32195976 -0.30155662
0002a0 23 bc fc 3e ba 12 e0 3e e9 b8 06 be d1 41 83 3d
       0.49362287 0.43764287 -0.13156475 0.06409038
0002b0 42 91 54 bd b9 3d 44 bc 8a e6 a0 3e 33 92 cc bd
       -0.05189634 -0.011977606 0.31425887 -0.09988823
0002c0 da 14 d9 be a7 d4 a5 bd 39 12 e3 be 8d 3f 44 bf
       -0.4239872 -0.08097201 -0.4434984 -0.7665947
0002d0 fb e7 71 3e da 98 fb 3d 15 21 df bd c9 58 22 3f
       0.2362365 0.122850135 -0.10894982 0.63416725
0002e0 b6 e2 35 3d c9 b8 11 3e 6c e9 df bd 14 cf f8 3e
       0.04440566 0.14230646 -0.109331936 0.48595488
0002f0 b6 1b 35 be a0 cb 8b be 80 d9 c4 be b7 4f 79 be
       -0.17686352 -0.2730379 -0.3844719 -0.24346815
000300 2f 5c 8c 3e ed e3 1e 3e 02 7c 0e 3f 07 64 66 be
       0.2741408 0.15516634 0.5565797 -0.22499095
000310 57 cd 1b 3f 27 38 5e 3e a2 9a ee be 0d d9 00 3f
       0.608602 0.21701108 -0.4660235 0.50331193
000320 ea 5c fe 3d a0 67 04 3f d1 85 58 bc 9d dd 8d 3e
       0.12420066 0.5172062 -0.013215498 0.2770814
000330 45 4b cf be 5b 57 18 bf ea ae 9a 3e 42 80 b5 3e
       -0.40487114 -0.59508294 0.30211574 0.35449415
000340 b5 a6 1d bf f4 29 6a 3e 4e 49 11 bd 7b cf 23 3f
       -0.615825 0.22867566 -0.0354703 0.63988465
000350 47 2e ee 3c 75 fa 03 3e 40 1a 48 3f 72 4c 99 be
       0.029074801 0.1288851 0.78165054 -0.29941136
000360 b6 f6 6d 3e 67 70 27 be 9e 78 fc 3e 94 54 76 be
       0.23238644 -0.16351472 0.49310774 -0.24055701
000370 17 ed 39 3e 0e b1 45 bd 39 a8 2c 3d 03 5f 78 3e
       0.18156849 -0.048264556 0.042152617 0.24254994
000380 a3 d5 8d 3e 04 bc 00 3e 7a 0b 16 be 11 c1 5c 3d
       0.27702054 0.12571722 -0.14652815 0.05389506
000390 94 cf cb 3e 07 f0 02 be 74 8f 4b 3e e4 a4 84 3e
       0.39806807 -0.12786876 0.19878942 0.25907052
0003a0 f6 3a 2f be f8 52 34 3e 07 ae 35 bf 10 14 42 bc
       -0.17112336 0.17609775 -0.7096867 -0.011845604
0003b0 83 63 2b be 9f 58 01 bd 3e 35 35 3c fc 9d da bd
       -0.1673718 -0.031578656 0.011060057 -0.106746644
0003c0 d5 f1 59 be eb c5 ce be 7c 93 0e be d6 e4 5c 3f
       -0.21283658 -0.40385374 -0.13923448 0.86286676
0003d0 33 c8 fb 3d 1e 4f 51 bf 6d b9 b9 3d 91 08 16 bc
       0.12294044 -0.8176135 0.0906857 -0.009157316
0003e0 a1 0a c2 3e 59 63 0a 3e 9f 90 d5 be 63 7a e3 be
       0.37898734 0.1351446 -0.417119 -0.4442931
0003f0 14 d2 54 bf e3 d2 02 be 59 f6 b3 3e e1 b3 83 bd
       -0.83133054 -0.1277576 0.35148886 -0.064307936

network_body.linear_encoder.seq_layers.2.bias f4 [128]
000000 93 4b 12 be d3 0b 79 be 23 f0 88 bd c4 8d f5 bd
       -0.14286642 -0.24320917 -0.066864274 -0.1198993
000010 63 9a bb bd 92 92 12 be 73 d8 38 bd 63 24 a5 bd
       -0.09160306 -0.14313725 -0.045128297 -0.08063581
000020 fe bc 9c bd 4a 08 d3 bd 86 11 14 be 41 41 f3 bb
       -0.07653235 -0.103043154 -0.1445981 -0.0074235504
000030 de b0 04 be d6 91 dd bd eb 28 d7 bd 10 68 c0 bd
       -0.12958094 -0.108188316 -0.10505851 -0.09394848
000040 1b 69 85 bd 5d da 6c bd 30 a2 df bd c0 db 06 be
       -0.06514188 -0.057825435 -0.10919607 -0.13169765
000050 3c 46 78 bb f2 77 93 bd 54 39 ac bd 10 78 fa bd
       -0.003788366 -0.07200612 -0.08409372 -0.12229931
000060 5b fd cd bd a6 2d a5 bd 7a 0b e7 bd e7 4f 99 bb
       -0.10058089 -0.080653474 -0.11281486 -0.0046787146
000070 0e 87 14 be ef 12 38 3e be 5e 89 3d f0 fe 05 3e
       -0.14504644 0.17975973 0.06707524 0.13085532
000080 da 8e 19 be 07 9d e2 bd a6 8f 7d bd 8a 85 10 bd
       -0.149959 -0.11065107 -0.061904572 -0.035283603
000090 93 90 62 bd 04 0f 82 bd e2 8f 9b 3d 29 02 b2 bc
       -0.055313658 -0.0635052 0.07595803 -0.021729546
0000a0 4d d6 e6 bd 53 8e 92 3c f3 8d ec bd cd 90 e9 bd
       -0.112713434 0.017890131 -0.11550512 -0.11404572
0000b0 e5 75 dc bc 65 a7 37 bd 21 cd b8 bd 40 7f a7 3c
       -0.026911685 -0.044837374 -0.090235 0.02044642
0000c0 76 c4 67 be a1 03 8b be 05 d8 c9 bd 14 44 c0 3d
       -0.22633538 -0.27151206 -0.098556556 0.09387985
0000d0 0d b5 0c be 82 19 27 be 57 c7 9f 3d 33 43 ed bd
       -0.1374094 -0.16318324 0.07801693 -0.11585083
0000e0 44 66 ca bd e5 aa aa 3b 00 46 07 be 4b fc 14 be
       -0.09882787 0.0052083605 -0.13210297 -0.14549367
0000f0 61 ca ba bd f3 bd 2d be a0 ee 06 be 4c d8 08 be
       -0.09120632 -0.16966991 -0.13176966 -0.1336376
000100 3d 38 35 be 55 51 0d be 4d 87 79 bd 71 c8 65 bd
       -0.17697234 -0.13800557 -0.06092005 -0.05609936
000110 c0 aa 1b be f3 3d c9 bd e5 88 03 be 50 5c 08 bd
       -0.15201855 -0.09826269 -0.1284519 -0.03329116
000120 a5 0c e0 bd 25 3c 8f bd f8 a2 bc bd ce 2a 46 bd
       -0.10939912 -0.069938935 -0.09210771 -0.048380665
000130 5b 90 eb bd 17 48 2e bd 56 aa 9f 3a 0e 91 d3 3d
       -0.11502143 -0.04254922 0.0012181501 0.10330401
000140 1d a9 9b bd 11 10 7a bd 3a e7 19 be 99 6a c7 bc
       -0.07600615 -0.06105048 -0.15029612 -0.024342822
000150 6f f3 c4 bc c7 43 fa bd 01 d4 3a bc e9 36 12 be
       -0.02404186 -0.12219959 -0.011403085 -0.14278759
000160 6a d4 93 bd 87 26 9a bd 6b 3a 1d 3c 9c 03 c6 bd
       -0.07218249 -0.0752688 0.009596447 -0.09668657
000170 04 bc 89 bd dd 98 05 be 13 28 71 be 42 b0 4f be
       -0.06725314 -0.13046594 -0.23550443 -0.20282081
000180 bc 19 0c be 42 09 ae bd d1 9f bc bd a7 7b 48 be
       -0.13681692 -0.084978595 -0.0921017 -0.1957842
000190 ad 18 e0 bc 33 69 84 3d 1e b8 0d bd 90 ff 33 be
       -0.027355516 0.06465378 -0.034599416 -0.17577958
0001a0 bd 7f a6 bd 40 96 21 be 2f 01 1d be db 7c ed bd
       -0.08129833 -0.15779972 -0.15332483 -0.1159608
0001b0 45 63 89 bd 86 54 ab bd e1 53 8b bd 51 e0 41 39
       -0.06708387 -0.08365731 -0.06803108 0.00018489479
0001c0 bf 5b 3e bd 77 9f 71 bd 8c cf 96 3c a1 4a 68 bb
       -0.046474215 -0.05898997 0.018409513 -0.0035444873
0001d0 47 32 fb bc 16 a5 3f bd 52 4e 36 3e 9c 14 bf bd
       -0.030663623 -0.046788298 0.17803314 -0.09330103
0001e0 05 76 b2 bd ae 9e 90 bb 4f 5c c6 bd 01 04 33 be
       -0.08713917 -0.0044134473 -0.09685575 -0.17481996
0001f0 64 f6 10 be 69 5e 57 be c3 47 8e bd 7f 21 40 bc
       -0.1415649 -0.21032108 -0.06947281 -0.011726736

network_body.linear_encoder.seq_layers.2.weight f4 [128, 128]
000000 8a 1a f5 be 03 47 f4 3d 19 4d 7e be 12 31 e4 bd
       -0.4787181 0.11927607 -0.24834098 -0.11142172
000010 94 f1 ad 3d f1 6f 5b bc 59 c8 2d bd c6 85 9d bd
       0.08493343 -0.013393388 -0.042427395 -0.07691531
000020 8c 37 26 bc 96 85 9a bd 82 60 a4 bd c7 c7 d1 bd
       -0.010145079 -0.07545011 -0.0802622 -0.10243183
000030 25 0a 11 bb 5e 34 21 be 77 e8 5c 3e 15 df 87 be
       -0.002213129 -0.15742633 0.21573053 -0.26537386
000040 b7 34 85 be 3e af ab 3d 87 f3 0a bd 4a 3b 8f 3d
       -0.2601678 0.08383034 -0.033923652 0.0699373
000050 b4 d7 09 3d 63 50 ee bc 96 d4 4b be d4 05 7a 3d
       0.033652976 -0.029091066 -0.19905314 0.061040714
000060 5f c1 36 3e 82 7f c8 3c 64 98 af bc f4 44 87 be
       0.17847203 0.024474863 -0.02143497 -0.26419795
000070 7f bd 47 be 6a c2 2b be de 7d e9 bd 79 e6 67 bd
       -0.19505881 -0.16773382 -0.114009604 -0.05661628
000080 11 ac 9b bd 2b 76 68 be c8 b1 31 be 74 75 f4 bd
       -0.076011784 -0.22701328 -0.17352974 -0.11936465
000090 1d 53 fd bd de 37 25 3e 1b a9 46 be 00 d0 9b 3d
       -0.12369368 0.16134593 -0.19400446 0.07608032
0000a0 93 04 81 be 36 23 f4 bc 84 e3 81 3e 36 c4 33 be
       -0.25198802 -0.029801946 0.25368893 -0.17555317
0000b0 0a f6 6d be 90 e8 f1 3d fe a6 a1 be d7 71 7c bd
       -0.23238388 0.11811936 -0.31572717 -0.061632004
0000c0 b2 e4 55 3d 8d 04 d6 bd 54 52 ba be f8 3e a1 be
       0.052220054 -0.10450087 -0.36390936 -0.31493354
0000d0 8d ef a9 bc 52 84 93 bd 1d 05 09 3e 1a c2 65 be
       -0.02074411 -0.072029725 0.13380857 -0.22437325
0000e0 95 81 b7 3b 4d eb 56 3e 46 f9 32 3e 95 f8 dc 3c
       0.005600164 0.20988198 0.17477903 0.026974002
0000f0 b2 07 81 bc 9c de 39 bd 60 fd 0b be 58 b8 57 3d
       -0.01575074 -0.045378312 -0.13670874 0.05266604
000100 b7 0b 3a 3d 27 84 d3 bd 5d 60 be be be 42 8d 3d
       0.04542133 -0.103279404 -0.37182894 0.06897496
000110 13 9d 11 be 05 48 00 be e0 d3 a8 bc 25 cc ef bd
       -0.14220075 -0.12527473 -0.020608842 -0.11708859
000120 57 95 d8 3d 8a a5 29 be 4f 71 62 3e df df d5 3c
       0.10575359 -0.16567054 0.22113536 0.026107727
000130 9a 15 db bc 12 48 96 bd 9f af 49 be b2 e8 04 be
       -0.026743699 -0.07337965 -0.196959 -0.12979391
000140 76 89 e3 bd 95 c5 17 3d 5f 64 1d 3d e5 37 0d 3c
       -0.11110203 0.037053663 0.0384258 0.008619283
000150 ed 59 86 3d f1 dd c8 bd 67 d6 8d 3d bb 7e 31 be
       0.06560121 -0.09807957 0.069256596 -0.173335
000160 a9 d1 27 be 17 99 6e be 02 af 4a bd 3b 5c 82 be
       -0.16388573 -0.23300587 -0.049483307 -0.2546099
000170 dd 8d 34 3d 1b 13 57 3d 2e 3d ba be 5c 09 3c be
       0.044080604 0.052508455 -0.363748 -0.18362945
000180 8a 4b a2 be b7 c6 cf 3d c4 07 43 be a8 d8 c5 be
       -0.31698257 0.10145324 -0.19045931 -0.38641858
000190 aa 6b 60 be 52 27 43 ba af 8e 58 bd bc e6 72 be
       -0.2191607 -0.0007444519 -0.05287045 -0.2372083
0001a0 9c 6a 2c 3b d3 82 5c bd c9 e5 d3 bd ff 3b 1a 3b
       0.0026308661 -0.0538357 -0.103465624 0.0023534296
0001b0 f0 4c 75 bb 44 2f 1d 3e 7c 60 21 be d4 bd 66 be
       -0.0037429892 0.15350062 -0.15759462 -0.22533351
0001c0 14 08 62 bd ab b7 a5 bd 85 b3 77 bd 5a f6 62 be
       -0.055183485 -0.080916725 -0.060473938 -0.22164288
0001d0 eb 60 a0 3c b0 b7 9e bc 25 a8 f2 3d c9 7d 69 be
       0.019577464 -0.019374698 0.11848477 -0.2280189
0001e0 13 5c 03 3e 4d 46 3e be b0 99 c8 bd 5e 4e 49 be
       0.12828092 -0.18581505 -0.097949386 -0.19658801
0001f0 47 c7 cd bc 62 f3 09 3e 3d 8e c1 bc a8 bd b0 bd
       -0.025119437 0.1347175 -0.023627395 -0.08629924
000200 fe d1 cf bd df a9 52 3e aa cb b5 bd 46 9a 02 be
       -0.10147475 0.20572613 -0.088767365 -0.12754163
000210 dd bd eb 3c ca 7c 1e 3e 9a e5 10 3c 10 77 7f bc
       0.028777057 0.15477291 0.008843804 -0.015592352
000220 1e 79 2c be e5 06 b2 3d 50 1c 14 be 94 50 86 bc
       -0.16843078 0.08692721 -0.14463925 -0.016395845
000230 af a7 3e be 8b d5 04 be 1a d7 0d bb 92 f3 67 3e
       -0.18618654 -0.12972085 -0.0021643103 0.22651508
000240 74 2d 84 be 5b fc 4d 3e aa 44 bf bd 1a 0a 7b 3b
       -0.25815928 0.20115797 -0.093392685 0.0038305582
000250 30 ef 52 be bb 6b 3c be 2f 43 95 3d 77 a5 a5 3e
       -0.20599055 -0.18400471 0.07288205 0.32352802
000260 31 fe 9c bd 87 02 8f 3d d2 5d 42 be 37 aa 08 be
       -0.07665671 0.06982904 -0.18981102 -0.13346182
000270 4f 41 dd bd fe 7b 06 be 4e 4a a7 3c 85 f7 93 bd
       -0.10803472 -0.13133237 0.020421173 -0.07224945
000280 e2 f3 88 3d 40 2a 19 be c4 1a 00 be 88 47 45 be
       0.06687142 -0.14957523 -0.1251021 -0.19265568
000290 89 b4 93 3c b6 8f cc be 6c f0 0c be f0 04 d5 bd
       0.018030422 -0.39953393 -0.13763589 -0.104013324
0002a0 17 cc e2 3c 5d 56 93 bd f7 de 0f bc 0d 0c 95 bd
       0.027685208 -0.07194207 -0.008781186 -0.07277689
0002b0 ba ff 40 be af 93 9e be 24 c0 60 be 97 1e 30 bb
       -0.18847552 -0.3097205 -0.21948296 -0.0026873702
0002c0 31 29 59 be 2f f6 b8 3d f2 2e c4 bd f8 74 07 be
       -0.2120712 0.09031331 -0.095792666 -0.13228214
0002d0 d4 c3 33 ba 0c 20 b8 bd 9d 4a 5f be 7a 9c bd bd
       -0.0006857489 -0.089904875 -0.21805806 -0.09258361
0002e0 ab 3d e7 3d d1 1a e8 bd 00 d1 35 be b8 30 07 be
       0.11291059 -0.1133324 -0.17755508 -0.13202178
0002f0 3b 4c ab be ed 36 57 3d 1f 33 7a be cd 7c a4 3b
       -0.33456597 0.052542616 -0.24433564 0.00501976
000300 07 dc 54 be 87 5e 9d bd 5f 5e b2 bd c8 f9 4d 3e
       -0.20787059 -0.07684045 -0.08709406 0.20114815
000310 93 06 d6 bd a7 bf 44 bd 1d 39 4e 3d 5c 5b 21 3d
       -0.10450473 -0.048034336 0.050347436 0.039393768
000320 ab d0 42 be bf 59 b6 bd f6 22 02 be 07 e5 15 be
       -0.19024913 -0.089038365 -0.12708649 -0.14638148
000330 fd 55 1e 3e 4d 50 2b be 13 a8 30 3d 97 05 85 be
       0.1546249 -0.16729851 0.043129038 -0.25980827
000340 bf 28 f2 3d 83 2c 16 3e df 5e ab 3d 33 5e 87 be
       0.11824178 0.14665417 0.083677046 -0.26439056
000350 72 6e 60 be bb 58 91 be 68 1c 59 bd 74 05 3c be
       -0.21917132 -0.28388008 -0.053005606 -0.18361455
000360 45 60 b9 3c 4b 85 f9 bd e3 05 2e be f5 32 5e be
       0.022628913 -0.12183627 -0.16994433 -0.21699126
000370 9e 5f 8c 3e a0 5a f8 3d 77 5a 8b 3c 31 80 b9 bd
       0.274167 0.1212666 0.01701091 -0.09057654
000380 ce e1 e5 bd 38 14 ed bd 33 e6 30 be 57 2e 9d be
       -0.112247095 -0.11576122 -0.17275314 -0.30699417
000390 9f ed 9f bd 74 2d 35 be f1 29 a1 be 23 b4 4b be
       -0.078089945 -0.1769312 -0.3147731 -0.19892935
0003a0 4d bb 1d 3e 87 75 7d ba ee 66 9b be 42 68 9e bd
       0.15403481 -0.0009668697 -0.30351967 -0.07734729
0003b0 d5 0b d6 be 4a a9 ea bd c8 2a 8d 3b 02 e0 85 bd
       -0.41805902 -0.114580706 0.0043080784 -0.06536867
0003c0 ed fb 98 3d 01 29 5e bc fd 96 96 bd 23 5a 8c bd
       0.07469926 -0.013559581 -0.073530175 -0.0685313
0003d0 36 dd 4e bd 70 d3 c7 bc e8 5f 0c bc a8 96 60 bd
       -0.050503932 -0.024392813 -0.008567788 -0.054831177
0003e0 33 5e 3a be 6d 51 94 be a1 a4 de 3a 9b 08 28 bd
       -0.18199997 -0.28968373 0.0016986319 -0.04102383
0003f0 69 00 76 bd c3 b8 45 be 5c ac b8 3d 75 d5 20 be
       -0.060058985 -0.19308762 0.0901725 -0.15706427

network_body.linear_encoder.seq_layers.4.bias f4 [128]
000000 7a ac cb bd ec a2 69 bd ed 62 82 bc 67 f9 1e be
       -0.09945007 -0.05704014 -0.015916312 -0.15524827
000010 c7 c2 18 be 88 c7 4b bd ff d1 aa bd 33 b9 2e bd
       -0.14918052 -0.049750835 -0.08340835 -0.04265709
000020 c5 fe d9 bd c1 f6 cb bd e9 b6 31 3b 9b 56 be bd
       -0.106442966 -0.09959174 0.002711708 -0.092938624
000030 ab a4 9d bd f8 c1 9f bd 5b 34 2c be 66 1a 3a bc
       -0.076974235 -0.078006685 -0.16816847 -0.011358833
000040 ef 39 52 bc 12 21 17 be 35 a4 14 be db ac b9 bd
       -0.012831195 -0.14758709 -0.14515765 -0.09066173
000050 a3 c7 03 bd 95 8c 38 be 5a 33 21 be 89 ab 2c be
       -0.03217281 -0.18022378 -0.15742245 -0.1686231
000060 c9 52 04 3d 90 1b a2 bd e6 d7 f0 bb e3 e5 0b be
       0.032305513 -0.079154134 -0.007349956 -0.13661914
000070 6e d7 b2 bd 4b 3c 6d 3d 47 ca 3a bd e6 8a 04 bc
       -0.08732496 0.057918828 -0.045603063 -0.008089757
000080 7d b4 5c be a0 9f 09 be d5 b1 ba bd 53 b8 23 be
       -0.21553226 -0.13439798 -0.0911595 -0.15988283
000090 77 1e b3 bc 6e 71 cb bd 96 1c 1f be 3d c0 b1 be
       -0.021865113 -0.09933744 -0.15538248 -0.3471698
0000a0 08 95 7b be e7 db 7b be 67 2e e4 bb ad 24 ca bd
       -0.2456857 -0.24595605 -0.0069635394 -0.098702766
0000b0 da a6 bd bd f6 a2 86 bd 04 7c 43 be cc a6 28 be
       -0.0926034 -0.06574051 -0.19090277 -0.16469878
0000c0 a7 ae b3 bd f7 85 a2 bd b5 b7 3b bd 5e 3c 03 bd
       -0.08773547 -0.07935708 -0.045829494 -0.032039993
0000d0 86 63 4d bc d8 51 26 bd e5 32 0a bd 97 ea 09 be
       -0.012535935 -0.040605396 -0.033739943 -0.13468395
0000e0 12 bb eb bd 9a 9d 49 bd c5 81 0b be 14 d6 9b bd
       -0.1151029 -0.049222566 -0.13623722 -0.076091915
0000f0 19 8b 93 bd d5 e0 52 bd 9a f3 8d bc f0 42 aa bc
       -0.07204265 -0.051483948 -0.017328072 -0.020783871
000100 b4 b9 96 bd e3 8c 00 be d7 aa a5 3a b7 f2 b6 3b
       -0.07359639 -0.12553744 0.0012639415 0.005583133
000110 ba 46 c7 bd 11 9c 82 3a 38 a4 02 be 86 17 93 bd
       -0.09730287 0.0009964724 -0.12757957 -0.07182221
000120 de c6 92 3d 0e 77 9e bc 25 6a f8 bd 24 29 ec bc
       0.07166837 -0.01934388 -0.121296205 -0.028828211
000130 cb f0 a4 bd ad f2 1c be 93 ff 8c 3c e5 43 11 bd
       -0.0805374 -0.15326948 0.017211711 -0.03546514
000140 9e 8e 28 bd 9a 5a 2b be 3c 34 57 be 33 6c ef bd
       -0.041151635 -0.1673378 -0.2101602 -0.11690559
000150 1c 4e 30 bd 07 ee 09 be 99 3d c8 bd ee d9 4f be
       -0.04304324 -0.13469706 -0.09777374 -0.20297977
000160 72 c2 00 be 04 12 96 bd b5 60 c7 bd 93 df f2 bd
       -0.12574175 -0.07327655 -0.09735242 -0.1185905
000170 d6 69 39 bd 49 c2 5c bd 42 6f 12 bd a3 9e ad bd
       -0.04526695 -0.053896222 -0.035750635 -0.08477523
000180 59 7a 65 3d 02 12 07 3c ea 2a d1 bc 63 c7 e9 bd
       0.056024883 0.0082440395 -0.025533158 -0.11414983
000190 e5 e7 37 bd 78 cc 34 be dc 4a 1a bd 5c f5 26 be
       -0.044898886 -0.17656124 -0.037669048 -0.16304535
0001a0 e2 52 47 bd 30 91 07 be df 70 fc bb e4 3a d2 bd
       -0.048663028 -0.13238978 -0.007703885 -0.10265139
0001b0 64 0a 34 bd 59 b0 3d 3c 0f bb b6 bc 2e 64 51 be
       -0.04395522 0.011577689 -0.022305993 -0.20448372
0001c0 7b 14 6a 3b 32 6e 10 be 6f 08 96 3d bd 7f db 3b
       0.0035717774 -0.14104536 0.07325827 0.006698577
0001d0 6e 59 03 3e 11 43 a3 bd c8 fb a1 bd 31 72 34 be
       0.12827083 -0.07971776 -0.079093516 -0.17621686
0001e0 dc 1c 0e 3d 6c 2c cd bd e0 56 20 bd 88 7a b1 bd
       0.03469549 -0.100182384 -0.03914535 -0.08665949
0001f0 eb 4f 8b bd 52 29 ce 3c a6 5c 27 bc 06 d2 1d be
       -0.068023525 0.025166187 -0.01021496 -0.15412149

network_body.linear_encoder.seq_layers.4.weight f4 [128, 128]
000000 8b 93 db 3c 57 39 18 3e 38 c6 12 be 6d 8c 23 3d
       0.026803752 0.14865623 -0.14333427 0.039928842
000010 0b 76 fe bc 93 aa 8d bd 5d b1 c7 3d 5c 21 36 3e
       -0.031062147 -0.069173 0.09750626 0.17786163
000020 c2 2a f2 bd a1 66 ff 3d ac ab 32 bd 5e 3c 6f 3d
       -0.11824562 0.12470747 -0.04362075 0.05840718
000030 f5 96 34 3d 71 7d cf 3c 3d 2c 57 bd 00 38 27 3e
       0.044089276 0.02532837 -0.052532423 0.16329956
000040 00 ee 87 be ff 47 22 be 9a 27 1a 3d 4d 21 39 3d
       -0.26548767 -0.15847777 0.037635423 0.045197774
000050 88 41 03 3e 84 4f b5 be 26 b9 5e 3e 3c 2d be bb
       0.12817967 -0.35412228 0.21750316 -0.005803732
000060 11 f4 b3 be 95 17 0b be 82 03 90 bc 34 15 de 3d
       -0.35147145 -0.13583215 -0.017579798 0.10843888
000070 40 40 f0 bd b2 b8 f9 bd a7 70 8a be 57 b5 6e be
       -0.11731005 -0.12193431 -0.27039072 -0.23311363
000080 57 0d c2 3d 78 49 d3 bd ab fe 35 bd 4b 0a 07 be
       0.094752006 -0.103167474 -0.044432323 -0.1318752
000090 55 01 20 bb a7 3c 71 3d 0c 0e 50 be 26 39 91 be
       -0.0024414856 0.058895733 -0.20317858 -0.28363913
0000a0 d8 f9 cb 3d 87 47 30 be 73 0d fb bc 51 96 96 ba
       0.09959763 -0.17214786 -0.030646062 -0.001148889
0000b0 a3 8e 16 be 9b 55 29 3d 37 67 43 3b 2b 1a 02 be
       -0.14702849 0.041341405 0.002981616 -0.12705295
0000c0 df c5 1c be 01 77 81 3e 5b 94 06 be 5a 48 ad bd
       -0.15309857 0.25286105 -0.1314253 -0.084610656
0000d0 12 ee 69 3b 95 d8 18 3e da 8d 59 3e bc bf e6 3d
       0.003569488 0.1492637 0.21245518 0.11267039
0000e0 ec ad 6e 3d 46 96 97 bd 4a 58 db bc bc 22 bf 3c
       0.058271334 -0.07401709 -0.026775498 0.023331992
0000f0 84 e0 e0 ba e0 aa 23 3d 66 03 95 bd e6 9b e6 3d
       -0.0017156755 0.03995788 -0.07276039 0.11260204
000100 8f b5 6a 3d d1 f5 f9 3d 5e ea a3 3d 3f 3b b8 3d
       0.057302054 0.12205089 0.08003686 0.08995675
000110 5e 3d 49 3d 63 db 2f be eb 48 02 be 54 5d bf bd
       0.04913079 -0.17173533 -0.12723128 -0.09343973
000120 e9 d2 aa bb 17 4b 06 3d d8 f8 db 3d bf d3 13 3e
       -0.0052131307 0.032786455 0.107408226 0.14436243
000130 d7 16 30 3e dd 8b 16 bc 15 8c 88 bc 9b 5b 85 be
       0.17196213 -0.009188619 -0.016668359 -0.26046452
000140 d0 3d df 3d a1 a3 3e bd c3 2a b7 bd b4 4a 95 bd
       0.10900462 -0.046542767 -0.08943703 -0.07289639
000150 c1 57 56 bd 1a e1 04 be 07 89 83 bd 00 86 38 3d
       -0.052329782 -0.12976494 -0.0642262 0.045049667
000160 83 2b 08 bd 55 ca ed bd 2c aa 07 3e 45 15 07 bd
       -0.03324462 -0.116108574 0.13248509 -0.03297927
000170 69 b8 9c 3d ff 92 a2 bd 73 1f ca 3e 26 03 9a 3c
       0.07652361 -0.079381935 0.3947712 0.01880033
000180 5d 0b 79 be d5 31 9c 3d f7 d5 1b be 1a b7 2b 3e
       -0.24320741 0.07626692 -0.1521834 0.16769066
000190 37 d9 89 bd 3c 10 7b bd 7e 10 90 bc d2 61 48 bc
       -0.067308836 -0.06129478 -0.01758599 -0.012230353
0001a0 c9 a3 d6 3c 66 13 a3 bc 91 14 f2 3c 0d 4d 19 bd
       0.026201146 -0.01990671 0.029550822 -0.037426997
0001b0 5d e2 05 be c6 2c 7c 3d 5f a0 14 3e 62 d6 23 3e
       -0.13074632 0.061566137 0.14514302 0.1599975
0001c0 83 72 08 be 0a e2 f3 3c 75 c6 e3 3d de 30 20 3d
       -0.13324933 0.02977087 0.11121837 0.039109103
0001d0 6e dc 8d be 3d 8f 43 be 0b 4a 1f be a7 8e 31 3c
       -0.27707237 -0.1909761 -0.15555589 0.010837234
0001e0 96 2c 29 be bc ba 85 ba 85 dc 47 be c8 9a 8b 3d
       -0.16520914 -0.0010202746 -0.19517715 0.068166316
0001f0 89 fb a5 3d 81 6a 74 3e 1a 67 97 bc eb 55 92 3d
       0.08104617 0.23868753 -0.01848178 0.07145294
000200 c8 c3 21 bd 55 28 3f bd 82 5a 8f be 4e 9c 96 3c
       -0.039493352 -0.046669323 -0.2799874 0.018385079
000210 9c ed 77 be 3b 3e 3e be f9 07 37 be c2 71 d2 bc
       -0.24211735 -0.18578427 -0.17874135 -0.02568901
000220 1e e2 40 be 55 de aa 3e 95 4b 78 3b ff a0 01 3c
       -0.18836257 0.3337275 0.0037886847 0.00791192
000230 58 65 de bc 00 0d 13 be 7a cc 55 be 1d 59 03 3e
       -0.027147934 -0.14360428 -0.20878783 0.12826963
000240 cb 7d 33 3d ae a8 0c 3e 91 a3 87 be 3b 4e 54 3d
       0.043821137 0.13736221 -0.2649198 0.05183242
000250 e1 7d 8a 3a 42 00 20 bd 5f a6 07 be 65 74 56 3e
       0.0010566079 -0.039062746 -0.1324706 0.20942838
000260 ee 64 46 be c4 be 2d 3e ae ba e0 bd 4c b8 d0 bd
       -0.19374439 0.16967303 -0.10973106 -0.10191402
000270 1b 08 48 be fd 0d a3 bd 98 66 1e be c3 b9 33 bd
       -0.19534342 -0.079616524 -0.15468824 -0.043878328
000280 b2 41 87 bd 1c d3 84 bd 72 7e fd bd 4e ea 32 bd
       -0.06604327 -0.064855784 -0.12377633 -0.04368048
000290 2f fc 13 be 0e 3e f2 bc 94 11 2a be 91 0f 15 bf
       -0.14451669 -0.029570606 -0.16608268 -0.5822688
0002a0 95 05 aa bd 40 50 42 be a0 73 57 bc d9 98 dd bd
       -0.08301846 -0.18975925 -0.013150126 -0.10820169
0002b0 8c ba 86 bd 35 25 2e bd 70 51 65 3d c3 62 72 bd
       -0.0657855 -0.042515952 0.055985868 -0.059176218
0002c0 1e 62 09 bd 32 57 5b 3d 28 07 65 bd 73 a0 2e bd
       -0.033540837 0.053549953 -0.055915028 -0.042633485
0002d0 49 9f a4 bb 1d f9 66 be ba 9b 80 3d f5 cb 5c 3e
       -0.005023871 -0.22555967 0.062797025 0.21562178
0002e0 7e 39 1f be 51 37 60 3d 9a 59 1c bd e8 a2 ab bd
       -0.15549275 0.054740254 -0.03817139 -0.08380681
0002f0 77 d5 a0 3d 96 3c 07 bd e7 3d 81 3b 33 48 b4 bc
       0.07853215 -0.033016764 0.003944147 -0.022007084
000300 a2 b6 73 3e b3 90 56 be 8a 76 2b 3e 3a 8b cd 3d
       0.23800138 -0.20953636 0.16744438 0.10036321
000310 a7 5d 8d be 71 23 07 be f2 87 71 3d 4b 0b c3 be
       -0.27610514 -0.13197114 0.05896754 -0.38094553
000320 3a 53 3c 3e 1d 89 66 3c 71 40 9f 3d 2d 13 82 be
       0.18391123 0.014070776 0.07775963 -0.25405255
000330 ff d9 0e be 2d 13 80 bd ef 41 a1 be 32 a9 90 bc
       -0.13950346 -0.062536575 -0.31495616 -0.017658804
000340 76 0e 0b 3e 6e a2 3c 3c 86 b1 4f be fc 89 16 3e
       0.13579735 0.011513336 -0.20282564 0.14701074
000350 48 93 86 3c 35 f7 73 bd a4 ed a8 3d 92 47 e8 bc
       0.016427651 -0.059561927 0.08248451 -0.02835444
000360 4d d8 c4 3c 8e 16 71 bd d4 e9 75 3d 4e 3b 6f 3e
       0.024028921 -0.0588594 0.06003745 0.23362467
000370 d8 44 9f bd da a7 ee bc 56 a9 36 3e ed f0 45 bb
       -0.07776803 -0.029132772 0.17838034 -0.0030203417
000380 f0 a7 3e be a2 4f 06 bc 00 f1 00 be 56 d8 9e bd
       -0.1861875 -0.008197697 -0.12591934 -0.077561066
000390 93 c9 5a bd 5f 4f 0a be 2a 61 30 3e a8 2b e1 3d
       -0.053414892 -0.1350684 0.17224565 0.10994655
0003a0 fb 9b 66 bd 97 79 09 3e a4 c2 ea bd 73 2f 20 3e
       -0.0563011 0.13425289 -0.11462906 0.156431
0003b0 f1 ad 3b bd dc e8 85 be 9d fe 16 3d 74 1c a7 3c
       -0.04582018 -0.2615422 0.036863912 0.02039931
0003c0 f9 fc 9c bd a1 fd 8e bd 4b bd 0b bd 92 dc 37 3d
       -0.07665438 -0.069819696 -0.03411607 0.044888087
0003d0 7d b4 61 be 3a 40 64 3e 83 62 03 be 98 ec ce bd
       -0.22041507 0.22290125 -0.12830548 -0.101037204
0003e0 00 4e e7 bd 6f b2 26 bd 37 43 17 3e 5f 36 fa 3d
       -0.11294174 -0.04069751 0.14771734 0.12217402
0003f0 23 66 a6 3c 3c c7 75 bd 94 2a c2 bd 54 38 41 3d
       0.020312374 -0.060004458 -0.094807774 0.04717286

network_body.vector_processors.0.normalizer.running_mean f4 [10]
000000 55 d3 5f 3f be f7 a3 c0 70 a7 39 bf 41 9d d6 bc
       0.8743184 -5.123992 -0.72521114 -0.026198031
000010 af d5 28 41 65 2a 0a 40 2a 41 87 3e 65 fa 5b 3d
       10.552169 2.1588376 0.26416904 0.05370559
000020 f9 f7 fe 3e da 79 0d 3f
       0.49798563 0.55264056
