Assets/Scripts/1.1 Ball vs Slope/BallEngineAI-Donut 70M.onnx (onnx, 139580 bytes, 11 tensors)

69 f4 [6]
5.119709 1.0121425 0.96018934 0.00012025204 0.14263053 0.2851212
00000000: a8d4 a340 e38d 813f f8ce 753f d32f fc38
00000010: bd0d 123e 68fb 913e

action_model._continuous_distribution.log_sigma f4 [1, 2]
-0.14407204 -1.0255693
00000000: 9f87 13be db45 83bf

action_model._continuous_distribution.mu.bias f4 [2]
0.12175842 0.37279147
00000000: 7a5c f93d 86de be3e

action_model._continuous_distribution.mu.weight f4 [2, 128]
-0.14742239 -0.239348 0.3841503 -0.2551661 -0.17056769 -0.19159582 -0.0413954 -0.026621073
-0.032369517 0.116488524 -0.3157837 0.0018425185 0.59187704 -0.16823797 -0.021060174 0.5214198
-0.06785909 0.2223406 0.038419098 -0.027382726 -0.18208958 0.43942434 0.17939804 -0.08077199
0.09257627 0.17686354 -0.46555412 0.0049564485 0.17318594 -0.72865707 0.40854728 0.47071835
0.443813 0.11202698 -0.43392423 0.24505574 -0.100723155 0.029085724 -0.31830585 -0.57540834
-0.0051697097 -0.16465732 0.11601255 0.32853866 0.20602776 0.09399496 -0.03862051 -0.036053807
0.22548275 -0.42977756 0.20587365 -0.14333594 0.18856987 -0.03368157 -0.035805516 -0.1096168
0.24065648 0.26252612 0.42352992 -0.37304002 0.03367486 -0.54343784 0.28327644 -0.44444412
-0.45643178 0.41190597 -0.5111513 0.14965485 0.25627285 0.5336014 0.06319636 0.104826115
0.124997646 -0.11683275 -0.024818907 -0.19889936 0.23756152 0.17260571 -0.1622517 0.029377049
0.16527602 -0.54086596 0.21504918 0.14824335 -0.03859332 0.15792908 -0.15106465 -0.1697424
0.4746371 0.6250938 0.13113311 -0.5169727 0.42057675 0.5731627 -0.5774576 -0.2973241
-0.28225392 -0.3202061 0.017483968 0.2384803 -0.2170882 -0.118477255 0.6544811 0.22709708
0.079355575 -0.3252588 -0.15367596 -0.018318431 -0.17645225 -0.20044035 -0.26658753 0.08473471
0.21532209 0.45516852 0.43096095 -0.05095497 0.14814773 0.57366174 0.43023178 -0.16886327
-0.172116 -0.37025717 0.30476436 0.47574884 0.07099883 0.56771135 -0.45767874 -0.5235596
0.2803661 0.06439597 -0.100564964 0.0074894805 -0.049043607 0.17629898 0.31290007 -0.14132796
0.30599993 0.40105504 0.007847728 -0.19071668 0.3171934 0.13209453 -0.16952637 -0.01346271
0.101258025 0.29380873 0.26752388 -0.20218559 -0.08364463 -0.13996103 0.15462698 -0.14687811
-0.19233817 -0.30175307 -0.034019034 0.16656722 0.0956631 0.20838906 0.024900714 0.43419692
0.12512589 0.021575568 -0.10965437 -0.21062861 0.20850652 0.33556888 0.07591043 0.05299694
0.25558442 0.13000618 -0.12072641 0.31561035 0.1306882 -0.10477285 0.27518123 -0.07367365
-0.13363582 0.40774795 0.44510242 -0.324008 0.12666143 0.18145247 0.21540165 -0.24702784
-0.13421948 0.39780757 0.09626878 0.14172132 -0.070247754 -0.19021186 0.35741153 0.11454982
0.03276593 -0.12694187 0.25404567 0.049771912 0.195489 -0.30882612 0.22252217 0.16421385
0.057407066 0.022056352 0.2813096 -0.10308004 0.21891707 0.43476292 0.26815072 0.15504809
-0.012925532 -0.08787156 0.103844054 0.17779568 -0.28859845 0.37571493 0.1495691 -0.067230895
0.20833169 0.109892525 0.071061864 -0.20356238 -0.06408854 0.24043003 -0.05519352 0.076647006
0.06233155 -0.008879276 0.41339886 -0.10160096 -0.018891074 0.18189125 0.17330106 -0.012380746
0.053989127 0.20560484 0.16289532 0.2726133 0.22491151 0.4399503 -0.011804323 0.2235137
0.060127825 -0.13188256 -0.08219541 0.1761163 0.16625202 0.0016383677 -0.060962304 0.24450749
-0.18242905 0.032737605 0.071207315 -0.28416836 0.10252705 0.11300971 -0.08689911 0.16945007
00000000: e5f5 16be a417 75be 59af c43e 22a5 82be
00000010: 4ca9 2ebe b231 44be 398e 29bd 7014 dabc
00000020: e695 04bd 8991 ee3d 67ae a1be a980 f13a
00000030: 4185 173f 9346 2cbe 6386 acbc c57b 053f
00000040: b5f9 8abd 41ad 633e 585d 1d3d bd51 e0bc
00000050: b175 3abe 3afc e03e 1fb4 373e c96b a5bd
00000060: a198 bd3d b71b 353e 1c5d eebe b469 a23b
00000070: a857 313e 4589 3abf 1c2d d13e ff01 f13e
00000080: 753b e33e 676e e53d 512b debe e4ef 7a3e
00000090: f147 cebd 2f45 ee3c fcf8 a2be f64d 13bf
000000a0: ab66 a9bb ee9b 28be fd97 ed3d 3836 a83e
000000b0: f1f8 523e 6e80 c03d 8a30 1ebd 28ad 13bd
000000c0: f3e4 663e ce0b dcbe 8bd0 523e a8c6 12be
000000d0: 7618 413e b0f5 09bd cea8 12bd c67e e0bd
000000e0: a76e 763e d369 863e ead8 d83e 1aff bebe
000000f0: a6ee 093d be1e 0bbf 9c09 913e 2e8e e3be
00000100: 6db1 e9be 57e5 d23e d0da 02bf 1f3f 193e
00000110: 3236 833e 1a9a 083f 186d 813d 13af d63d
00000120: c4fe ff3d 0246 efbd 0551 cbbc 46ac 4bbe
00000130: 5443 733e 8dbf 303e 4f25 26be 23a8 f03c
00000140: 1e3e 293e 3176 0abf da35 5c3e 1bcd 173e
00000150: 0714 1ebd 29b8 213e b1b0 1abe f4d0 2dbe
00000160: a203 f33e 2606 203f c247 063e 5358 04bf
00000170: d655 d73e caba 123f 43d4 13bf dd3a 98be
00000180: 9683 90be 0ef2 a3be 8a3a 8f3c 2e34 743e
00000190: 5e4c 5ebe 34a4 f2bd 138c 273f 238c 683e
000001a0: 2d85 a23d 5288 a6be 3b5d 1dbe 8910 96bc
000001b0: e6af 34be 3c40 4dbe 297e 88be 6489 ad3d
000001c0: 657d 5c3e d90b e93e eaa6 dc3e 29b6 50bd
000001d0: 0ab4 173e 7fdb 123f 5747 dc3e 7eea 2cbe
000001e0: 2d3f 30be 5992 bdbe 130a 9c3e 5a95 f33e
000001f0: d667 913d 8855 113f de54 eabe 0008 06bf
00000200: 258c 8f3e 09e2 833d 01f5 cdbd 516a f53b
00000210: f3e1 48bd b887 343e 7034 a03e 47b8 10be
00000220: 06ac 9c3e 1657 cd3e c293 003c 3c4b 43be
00000230: 2c67 a23e ca43 073e 5298 2dbe b392 5cbc
00000240: 5e60 cf3d 196e 963e e4f8 883e bd09 4fbe
00000250: e04d abbd f251 0fbe 8956 1e3e 3767 16be
00000260: 4cf4 44be 617f 9abe 8b57 0bbd 9990 2a3e
00000270: 04eb c33d f163 553e 95fc cb3c 0f4f de3e
00000280: 0021 003e 3fbf b03c 7892 e0bd 07af 57be
00000290: bc82 553e afcf ab3e ed76 9b3d 5213 593d
000002a0: f6db 823e 5720 053e 683f f7bd ae97 a13e
000002b0: 21d3 053e 2693 d6bd 8ee4 8c3e 36e2 96bd
000002c0: d4d7 08be 57c4 d03e 77e4 e33e 60e4 a5be
000002d0: 89b3 013e adce 393e 4092 5c3e def4 7cbe
000002e0: d570 09be 6fad cb3e 9128 c53d 651f 113e
000002f0: 0ede 8fbd e6c6 42be a5fe b63e 1999 ea3d
00000300: 9135 063d 0dfd 01be 4612 823e a2dd 4b3d
00000310: 452e 483e 751e 9ebe dadc 633e ad27 283e
00000320: ac23 6b3d 86af b43c d007 903e a11b d3bd
00000330: cc2b 603e 3f99 de3e 0d4b 893e edc4 1e3e
00000340: 9cc5 53bc 01f6 b3bd 31ac d43d 1210 363e
00000350: 2dc3 93be b55d c03e a428 193e 5ab0 89bd
00000360: e754 553e 550f e13d e288 913d a872 50be
00000370: da40 83bd 4a33 763e 9a12 62bd 1bf9 9c3d
00000380: 5e4f 7f3d 627a 11bc 04a9 d33e 2a14 d0bd
00000390: 74c1 9abc b341 3a3e d575 313e 9dd8 4abc
000003a0: b423 5d3d 138a 523e 08ce 263e f893 8b3e
000003b0: 344f 663e 2a41 e13e eb66 41bc c6e0 643e
000003c0: 9848 763d 390c 07be 1156 a8bd d557 343e
000003d0: f83d 2a3e 7fbe d63a 9cb3 79bd 2c60 7a3e
000003e0: aece 3abe de17 063d 24d5 913d 847e 91be
000003f0: b4f9 d13d a371 e73d 29f8 b1bd 5284 2d3e

network_body.linear_encoder.seq_layers.0.bias f4 [128]
0.01127226 -0.544363 -0.5195438 -0.0065195616 -0.057190165 -0.47322792 -0.31389531 -0.5873184
-0.32012135 -0.22777353 -0.58251715 -0.3264676 -0.12251025 -0.73117954 -0.14158717 -0.079816684
0.11710737 0.20344907 0.29057723 -0.5072712 -0.32120296 -0.28738835 0.060022254 -0.032061547
-0.03799281 -0.8734376 -0.10387481 -0.6089219 -0.28402293 -0.035263956 -0.39802986 0.020090643
-0.094905704 0.7807824 -0.15145735 0.00020302743 -0.15390858 -0.7288346 -0.11644074 -0.022559222
-0.104267076 -0.25523007 -0.02192977 -0.24715824 -0.0627603 -0.27263376 0.07687847 -0.039857555
-0.06320282 -0.2162525 -0.2892119 -0.6144735 0.24972825 -0.10275332 -0.46211252 0.039561596
-0.060036838 0.19870666 -0.6848378 -0.061434675 -0.6288549 -0.11767594 -0.44093835 -0.43765396
-0.097525954 -0.44375646 0.0037919506 -0.33774447 -0.2641953 -0.40338814 0.04536368 -1.0223545
-0.058604434 -0.5853031 -0.0389316 -0.15464778 -0.5305797 -0.29802766 0.054922633 -0.48378825
-0.6281073 -0.23653188 -0.5766615 -0.27362713 -0.24002092 -0.3164938 -0.13407205 -0.093820184
-0.053099003 -0.057727654 -0.832187 0.09074472 -0.32453132 -0.40338042 -0.07685504 0.26940608
-0.21673246 0.012029636 -0.03770181 -0.041514833 -0.19637623 -0.29152024 -0.35611737 -0.061419345
-0.28513747 -0.01995715 0.012543886 -0.22485155 -0.7374001 -0.26787114 0.3947716 -0.43667632
-0.48369056 -0.42809406 -0.044515993 -0.3134308 -0.05929826 0.03113841 -0.015587126 -0.2647757
-0.12689085 0.023827126 -0.036241278 -0.06550951 0.042995088 -1.0046264 -0.09689991 0.005099464
00000000: 49af 383c 605b 0bbf d300 05bf 0ca2 d5bb
00000010: 3c40 6abd ee4a f2be e3b6 a0be 805a 16bf
00000020: f2e6 a3be 773d 69be d81f 15bf c326 a7be
00000030: a7e6 fabd 952e 3bbf 3afc 10be ee76 a3bd
00000040: fdd5 ef3d f454 503e 8ac6 943e 86dc 01bf
00000050: b774 a4be 9124 93be e5d9 753d f852 03bd
00000060: 599e 1bbd 9b99 5fbf 51bc d4bd 4ee2 1bbf
00000070: 746b 91be f070 10bd 92ca cbbe 2295 a43c
00000080: ec5d c2bd 5be1 473f a317 1bbe c3e3 5439
00000090: 369a 1dbe e894 3abf 7c78 eebd 1ece b8bc
000000a0: fa89 d5bd 84ad 82be 10a6 b3bc 0d17 7dbe
000000b0: 7988 80bd a796 8bbe 7672 9d3d ad41 23bd
000000c0: 7b70 81bd 4c71 5dbe 9513 94be 234e 1dbf
000000d0: c3b8 7f3e 5570 d2bd 039a ecbe 570b 223d
000000e0: 30e9 75bd c279 4b3e 8851 2fbf eda2 7bbd
000000f0: a2fc 20bf 1500 f1bd acc2 e1be 2e14 e0be
00000100: b0bb c7bd 0c34 e3be 6082 783b d8ec acbe
00000110: 9b44 87be e488 cebe 44cf 393d 83dc 82bf
00000120: 340b 70bd 6dd6 15bf be76 1fbd fd5b 1ebe
00000130: 12d4 07bf 1597 98be 8ef6 603d 18b3 f7be
00000140: a4cb 20bf 6a35 72be 17a0 13bf db18 8cbe
00000150: 0bc8 75be 7a0b a2be 2f4a 09be cc24 c0bd
00000160: 577e 59bd d573 6cbd 350a 55bf 5ed8 b93d
00000170: f828 a6be e187 cebe 2d66 9dbd 98ef 893e
00000180: 1def 5dbe f317 453c 376d 1abd 750b 2abd
00000190: da16 49be 2442 95be 0455 b6be da92 7bbd
000001a0: 8afd 91be 2d7d a3bc df84 4d3c 7c3f 66be
000001b0: 41c6 3cbf 6826 89be 811f ca3e 0a94 dfbe
000001c0: 4aa6 f7be 252f dbbe 6756 36bd 007a a0be
000001d0: bbe2 72bd fb15 ff3c 2561 7fbc ae90 87be
000001e0: adef 01be 1b31 c33c bc71 14bd da29 86bd
000001f0: 9e1b 303d 9997 80bf 7673 c6bd 6819 a73b

network_body.linear_encoder.seq_layers.0.weight f4 [128, 6]
-0.011701555 0.0066821403 0.009866274 -0.31322554 -0.021831954 0.01677801 0.2790751 0.0313897
0.110366754 -0.121722005 0.18719544 0.5964233 -0.7311346 0.437069 -0.06396867 -0.092340976
-0.052994866 -0.042670373 0.35987422 0.09265604 0.41975626 -0.019629467 0.0059742928 0.05987561
-0.6428836 1.1753227 -0.7203794 0.15383539 0.07528217 0.12581858 0.05380085 0.26977754
0.23560359 -0.5602126 -0.046691623 -0.06451119 -0.5617748 0.14623863 -0.20564632 -0.34229955
0.018384539 -0.008636791 0.05596438 0.18823454 0.16999826 0.0077849864 -0.27155745 -0.06378776
0.3694587 0.210802 0.081796825 0.33906493 0.031617343 0.003946914 0.8529843 0.108408295
0.039992906 -0.47472492 -0.21928991 0.029776758 -0.15246871 -0.12222338 -0.056675624 -0.38924935
-0.25294885 -0.26906088 -1.553873 0.060723484 0.025316443 -0.022877336 0.21427922 -0.23156334
0.25244787 0.11839117 0.6258264 -0.12772274 0.105898604 -0.041760873 -0.45645964 0.32893872
0.14774042 -0.25150833 -0.1273285 -0.08081743 1.8937982 0.65440035 -0.40716347 -0.45489293
-0.11294791 0.0634004 0.01830539 -0.015071951 0.012730744 -0.9677952 -0.17871104 -0.039080296
-1.4255954 0.4754169 -0.46583554 0.06639699 -0.025382767 0.08184864 0.082415774 -0.118840195
-0.06970144 0.21897571 -0.0652045 0.090608336 1.3068151 -0.12282699 -0.22344635 0.31106466
-0.09279325 0.050153513 0.050963417 0.15612759 0.33509845 -0.005559255 -0.060145125 -0.026576202
-1.2667326 0.3879381 0.012993054 -0.1886117 0.03654673 -0.026550436 -0.67267865 1.0037374
-0.62870157 0.16018865 -0.24900204 -0.18905461 -0.6330303 0.85869056 -0.666103 0.49844983
0.26644677 -0.0020226499 -0.07494896 0.11347371 -1.225077 0.37754282 0.037769552 -0.5121834
0.16365643 0.6566203 1.1867338 -0.4720482 0.14884107 -0.15863135 -0.09051592 -0.5343506
-0.37710086 -0.008345824 0.19752723 -0.40894222 -1.0773749 0.66538364 -0.3138365 0.93718493
0.0323481 0.13936248 0.064526714 -0.15894559 -0.39624855 0.05770454 0.020374145 -0.5247606
0.2091379 0.055167872 0.66966283 0.48613024 0.20305239 -0.21675004 1.8037325 0.5839037
-0.02975706 -0.018333755 -0.036181908 0.07439006 -0.21422634 0.11653313 0.10086953 -0.14962214
0.22300674 -0.20231853 0.016106008 -0.018242517 0.018362708 -0.31114838 -0.04622487 -0.04885382
-0.103485756 -0.00078963727 0.09403167 0.11682634 0.26329127 -0.003659735 0.7383711 -0.43487775
-0.03796268 -0.50487345 0.47910136 0.015167489 1.1817474 0.57517326 -0.15394208 0.66377914
0.080278136 0.16124655 -0.0037239534 0.014021771 0.030312313 0.40529937 -0.035674606 0.059154615
-0.4471311 0.4390795 -0.84694374 0.18702744 -0.1524256 0.21654381 -0.34889236 -1.0270808
0.34328264 0.21694134 -0.03450857 -0.0729972 0.15500353 -0.0047964146 -0.26459187 -0.02761521
0.028052181 0.030215854 0.95313996 0.48637918 0.30881223 -1.0344365 0.16393763 0.21987633
-0.9170214 0.7513007 -0.18286234 0.35678792 -0.003103183 -0.022545561 0.026094576 0.08550998
0.14347066 0.0949235 -0.18348354 -0.09901719 -0.01031804 -0.025536684 0.020875255 -0.32411242
00000000: e1b7 3fbc dbf5 da3b 27a6 213c 195f a0be
00000010: edd8 b2bc 0a72 893c eee2 8e3e 7c92 003d
00000020: f707 e23d 6349 f9bd 29b0 3f3e 33af 183f
00000030: a32b 3bbf 82c7 df3e 0202 83bd 441d bdbd
00000040: 2511 59bd 21c7 2ebd 6f41 b83e 73c2 bd3d
00000050: 4bea d63e facd a0bc 00c4 c33b 2140 753d
00000060: 0594 24bf f970 963f c96a 38bf 0687 1d3e
00000070: 8a2d 9a3d 96d6 003e 485e 5c3d 4820 8a3e
00000080: 1142 713e 186a 0fbf b73f 3fbd 711e 84bd
00000090: 79d0 0fbf 94bf 153e f394 52be e341 afbe
000000a0: 2c9b 963c 5481 0dbc e83a 653d 8ec0 403e
000000b0: 0614 2e3e 3319 ff3b 9409 8bbe 28a3 82bd
000000c0: b129 bd3e 7bdc 573e 1885 a73d eb99 ad3e
000000d0: 3081 013d 1d55 813b 2e5d 5a3f 2b05 de3d
000000e0: 9acf 233d 250f f3be 898d 60be 63ee f33c
000000f0: c220 1cbe 4050 fabd b324 68bd b14b c7be
00000100: 8382 81be 59c2 89be 4fe5 c6bf 30b9 783d
00000110: 6e64 cf3c 4069 bbbc 036c 5b3e f11e 6dbe
00000120: d940 813e 1277 f23d 2936 203f c0c9 02be
00000130: 5ee1 d83d 730d 2bbd 14b5 e9be a86a a83e
00000140: 4449 173e b3c5 80be 6762 02be 9c83 a5bd
00000150: fb67 f23f c886 273f bb77 d0be bae7 e8be
00000160: 3c51 e7bd 12d8 813d 2ff5 953c 58f0 76bc
00000170: 9c94 503c 6dc1 77bf 0700 37be a912 20bd
00000180: e979 b6bf d869 f33e ff81 eebe 25fb 873d
00000190: 85ef cfbc 43a0 a73d 9ac9 a83d 7d62 f3bd
000001a0: a1bf 8ebd 2b3b 603e f089 85bd dd90 b93d
000001b0: b845 a73f b88c fbbd 1fcf 64be de43 9f3e
000001c0: 630a bebd c56d 4d3d 04bf 503d e9df 1f3e
000001d0: 0692 ab3e 692a b6bb bc5a 76bd 56b6 d9bc
000001e0: 4b24 a2bf d39f c63e d2e0 543c 6d23 41be
000001f0: 06b2 153d 4d80 d9bc ab34 2cbf 787a 803f
00000200: 96f2 20bf 7e08 243e 64fa 7ebe 8897 41be
00000210: 460e 22bf 25d3 5b3f ba85 2abf d134 ff3e
00000220: b66b 883e 6f8e 04bb d77e 99bd e864 e83d
00000230: 53cf 9cbf 4b4d c13e 3fb4 1a3d 741e 03bf
00000240: 8d95 273e 4518 283f e5e6 973f 4db0 f1be
00000250: cb69 183e 4270 22be 6960 b9bd 33cb 08bf
00000260: 5d13 c1be ecbc 08bc 9444 4a3e e060 d1be
00000270: 6ce7 89bf 9556 2a3f 2daf a0be 5aeb 6f3f
00000280: 717f 043d 0ab5 0e3e 9526 843d a2c2 22be
00000290: 17e1 cabe 995b 6c3d aee7 a63c b656 06bf
000002a0: 3f28 563e b5f7 613d 066f 2b3f 10e6 f83e
000002b0: f7ec 4f3e b9f3 5dbe b5e0 e63f b67a 153f
000002c0: 14c5 f3bc ac30 96bc 7b33 14bd d159 983d
000002d0: 265e 5bbe eca8 ee3d af94 ce3d 8c36 19be
000002e0: e15b 643e 972c 4fbe bff0 833c 5571 95bc
000002f0: 646d 963c d74e 9fbe 4a56 3dbd f11a 48bd
00000300: 57f0 d3bd a9ff 4eba ad93 c03d a642 ef3d
00000310: 1dce 863e 2ad8 6fbb e305 3d3f 4ca8 debe
00000320: c17e 1bbd 633f 01bf c64c f53e 0f81 783c
00000330: 8043 973f 8e3e 133f fea2 1dbe 6eed 293f
00000340: dd68 a43d d11d 253e 920d 74bb 92bb 653c
00000350: 8751 f83c 6683 cf3e 891f 12bd 1c4c 723d
00000360: 5eee e4be 07cf e03e 4ed1 58bf 1f84 3f3e
00000370: 7515 1cbe a9bd 5d3e 05a2 b2be 6277 83bf
00000380: bec2 af3e df25 5e3e dc58 0dbd 8e7f 95bd
00000390: 3fb9 1e3e 3e2b 9dbb 9678 87be 4b39 e2bc
000003a0: b0cd e53c 3d87 f73c fb00 743f b106 f93e
000003b0: a31c 9e3e 6a68 84bf 44df 273e 4327 613e
000003c0: eac1 6abf 3e55 403f 4440 3bbe e8ac b63e
000003d0: c55e 4bbb 78b1 b8bc 4bc4 d53c db1f af3d
000003e0: f9e9 123e 4167 c23d 1ce3 3bbe 86c9 cabd
000003f0: ff0c 29bc 4f32 d1bc 9502 ab3c 10f2 a5be

network_body.linear_encoder.seq_layers.2.bias f4 [128]
-0.19006655 -0.83057606 0.09570404 -0.6344589 -0.3045479 -0.6559362 -0.80345017 -0.77326703
-0.13204595 -0.15335833 -0.51446414 -0.28446054 -0.6644889 -0.7646393 -0.19573638 -0.68785626
-0.24638073 -0.8253263 -0.20278019 -0.309021 0.22812618 -0.26347703 -0.068646334 0.17173387
-0.4008339 -0.33819425 -0.04486498 -0.7745448 -0.35701966 -0.56769586 -0.40196764 -0.18005803
-0.14782804 -0.21897489 -0.4193388 -0.5610774 -0.011232652 -0.16143516 -0.44474328 -0.5903117
-0.09450877 -0.24935116 -0.44402272 -0.57867944 -0.4533231 -0.88526165 -0.2546873 -0.4667474
-0.09480055 -0.44455847 -0.4817823 -0.16044845 -0.5375504 -0.045747552 -0.49914038 -0.6906789
-0.10079394 0.17023571 -0.6104537 -0.40925917 -0.5118743 -0.5910991 -0.14042999 -0.28198668
-0.71238345 -0.08575129 -0.5498546 -0.2609706 -0.5627748 -0.23282793 -0.4333821 -0.69524
-0.23596951 -0.32832068 -0.6107443 -0.29768965 -0.106593974 -0.33301845 -0.6109141 -0.28825957
-0.3960286 -0.2955171 -0.40192142 -0.6067836 -0.4674548 -0.2861404 -0.35358444 -0.3647011
-0.625169 -0.82361704 -0.78617346 -0.7899658 -0.1386953 -0.2256433 -0.33677122 -0.07702795
-0.7609119 -0.44767085 -0.2898694 -0.28733933 -0.60409254 0.2077882 -0.9514571 -0.108203374
-0.26849765 -0.26810506 -0.3518772 -0.71134925 -0.72687435 -0.6762455 0.008951834 -0.6858067
-0.6369507 -0.48242277 -0.35371664 -0.38015854 -0.42832682 -0.1733013 -0.42514893 -0.18738952
-0.4232921 -0.17363285 -0.1640304 -0.20137113 -0.20250419 -0.04511674 -0.27115998 -0.4762649
00000000: cea0 42be a2a0 54bf 7b00 c43d e66b 22bf
00000010: b4ed 9bbe 6feb 27bf e9ae 4dbf d4f4 45bf
00000020: 0e37 07be f709 1dbe ecb3 03bf d0a4 91be
00000030: f21b 2abf 67bf 43bf 1e6f 48be 5917 30bf
00000040: 3b4b 7cbe 9648 53bf 9ca5 4fbe 0038 9ebe
00000050: e999 693e 76e6 86be 7396 8cbd 01db 2f3e
00000060: 1a3a cdbe cc27 adbe 57c4 37bd 9148 46bf
00000070: 48cb b6be 8454 11bf b4ce cdbe 2261 38be
00000080: 3c60 17be f43a 60be 93b3 d6be c5a2 0fbf
00000090: 2809 38bc 424f 25be 64b5 e3be ab1e 17bf
000000a0: d08d c1bd e955 7fbe f256 e3be 5624 14bf
000000b0: f719 e8be 82a0 62bf 6066 82be 84f9 eebe
000000c0: ca26 c2bd 2b9d e3be 2bac f6be 994c 24be
000000d0: e79c 09bf c961 3bbd 548f ffbe 55d0 30bf
000000e0: 0e6d cebd 4552 2e3e b246 1cbf 6b8a d1be
000000f0: 320a 03bf 4552 17bf e1cc 0fbe 8f60 90be
00000100: c35e 36bf 5f9e afbd 45c3 0cbf f09d 85be
00000110: 0212 10bf 726a 6ebe 42e4 ddbe 40fb 31bf
00000120: fea1 71be a619 a8be bd59 1cbf c76a 98be
00000130: f14d dabd 6581 aabe de64 1cbf c296 93be
00000140: 43c4 cabe 044e 97be a5c8 cdbe 2c56 1bbf
00000150: 3c56 efbe ff80 92be 0509 b5be 1aba babe
00000160: 130b 20bf 91d8 52bf aa42 49bf 333b 4abf
00000170: 2406 0ebe 0a0f 67be 476d acbe d4c0 9dbd
00000180: 1fcb 42bf 1d35 e5be c369 94be 241e 93be
00000190: cfa5 1abf 6ec6 543e b192 73bf bb99 ddbd
000001a0: 8678 89be 1145 89be 4029 b4be fc1a 36bf
000001b0: 7014 3abf 6d1e 2dbf b7aa 123c 0791 2fbf
000001c0: 330f 23bf 1e00 f7be 591a b5be 24a4 c2be
000001d0: a74d dbbe e575 31be 1fad d9be 0ae3 3fbe
000001e0: beb9 d8be cfcc 31be 96f7 27be 3c34 4ebe
000001f0: 425d 4fbe 55cc 38bd 7bd5 8abe fed8 f3be

network_body.linear_encoder.seq_layers.2.weight f4 [128, 128]
-0.12537064 0.13964555 -0.59308803 0.101046555 -0.36734012 -0.07569367 -0.27915135 -0.10465319
-0.33941 -0.3365059 0.0305214 -0.402848 0.09594173 -0.17832887 -0.8374072 -0.14732802
-0.6255046 -0.04832309 -0.19800559 -0.012368037 -0.6606439 -0.39641172 -0.69115394 -0.73750144
0.052143376 0.044802967 -0.44197738 -0.1745875 0.16323891 -0.3499853 -0.12388162 -0.08876438
0.07418236 0.18163542 -0.7930346 0.16487376 0.004608606 0.28868595 -0.49474922 -0.4847444
-0.72471607 -0.23360966 -0.1964933 -0.34254798 -0.04800978 0.0708445 -0.5160743 -0.09316274
-0.31965047 -0.026443291 -0.048118114 0.11098061 -0.028641533 -0.017506165 -0.25874817 -0.46165013
-0.6913676 -0.21389467 0.49874732 -0.37392068 0.22241624 -0.4487813 -0.47833118 0.13232088
0.056473613 -0.46509826 -0.25253004 0.12468685 -0.42110324 -0.37548336 0.0058345753 0.023608198
0.48593748 -0.3291037 -0.5947917 0.20624077 -0.26713192 -0.105694294 -0.54709554 -0.049336072
0.04272477 0.11224068 -0.0824764 -1.1216708 -0.6572053 -0.6041017 -0.44795063 -0.19152616
-0.5972525 -0.054203574 -0.1340453 -0.7474448 -0.4694181 -0.13652956 -0.14753419 0.21485789
-0.6192536 0.22610314 0.058325917 0.1319182 -0.96514845 0.25833407 -0.327289 -0.20008022
-0.3450158 -0.030134523 0.20781389 0.09944457 0.12073548 0.20232718 -0.71656907 -0.43064955
0.027873263 -0.13537489 -0.122877784 0.23097153 -0.64929587 -0.86401 -0.07857589 -0.3943267
-0.11549947 -0.03367329 0.2054643 -0.39652836 -0.08988 0.34492663 -0.113181494 -0.16785744
0.17084433 -0.03002258 0.1697388 -0.13889496 -0.5966431 0.22388327 0.005548342 0.3146708
0.0674022 -0.28583685 0.4115115 0.011264515 -0.20508969 0.44174886 -0.11239028 -0.0055721872
-0.17952265 -0.14497252 0.25740317 0.18937854 -0.030152258 -0.17077516 -0.4941454 -0.30160815
-0.41621062 0.41441673 -0.26185492 0.2507757 0.3417466 -0.1266977 0.28906354 -0.48803502
0.6681376 0.32327607 -0.4518232 0.2322219 -0.58386207 0.08516451 0.16829221 -0.4045899
-0.110325254 -0.02416442 0.24691781 0.13970599 -0.36087757 0.17609978 -0.18131517 -0.26354825
-0.067306176 0.08371072 0.01745499 -0.0152365705 -0.26396433 0.17106365 -0.36068916 -0.8402052
-0.27993137 -0.72434574 0.2670694 0.1672444 -0.25001612 -0.22290267 0.11874932 -0.026370019
-0.27537486 -0.07430381 -0.9937716 -0.17376441 -0.22899634 -0.00483856 -0.29541868 0.007113034
-0.35164046 0.11984943 0.058634438 0.64092344 -0.34641752 0.057651866 -0.4156265 -0.13664015
0.20634255 -0.2632039 0.03209104 -0.15736671 -0.061666794 0.2341305 0.18706933 -0.15770106
-0.23400363 0.41216043 0.54120976 -0.27000767 0.11614774 -0.088766254 0.5637705 -0.39148793
-0.37108764 0.27582967 -0.37015927 -0.274801 0.028683329 0.094838716 -0.2396189 -0.062246487
-0.4385131 -0.34775016 -0.005886564 -0.10814174 0.24510098 -0.3194218 -0.19115004 0.18793476
0.11445174 0.12756065 0.14501663 -0.09358064 -0.4257489 -0.6487859 -0.22197866 -0.15602946
0.1286769 -0.06668576 -0.10454002 -0.7023061 -0.031182924 0.21892858 0.23110336 0.47895133
00000000: 2961 00be 3eff 0e3e 9ed4 17bf 7ff1 ce3d
00000010: 0114 bcbe 4805 9bbd edec 8ebe 6954 d6bd
00000020: 26c7 adbe 804a acbe 0408 fa3c 1842 cebe
00000030: 197d c43d d89b 36be 5160 56bf 28dd 16be
00000040: 1221 20bf 6fee 45bd fac1 4abe 4fa3 4abc
00000050: f51f 29bf 7af6 cabe 77ef 30bf e5cc 3cbf
00000060: 4b94 553d 5183 373d dc4a e2be 11c7 32be
00000070: 1a28 273e 4631 b3be a6b5 fdbd 19ca b5bd
00000080: ecec 973d a3fe 393e 5104 4bbf abd4 283e
00000090: ca03 973b a5ce 933e c54f fdbe 6b30 f8be
000000a0: fe86 39bf 5f37 6fbe 8a35 49be 7362 afbe
000000b0: e7a5 44bd ec16 913d 721d 04bf 1bcc bebd
000000c0: 3aa9 a3be 9a9f d8bc 8017 45bd cd49 e33d
000000d0: a6a1 eabc 1769 8fbc a47a 84be 685d ecbe
000000e0: 78fd 30bf 3407 5bbe cf5b ff3e 8872 bfbe
000000f0: 15c1 633e aac6 e5be d3e7 f4be 207f 073e
00000100: e050 673d 5c21 eebe 9e4b 81be d25b ff3d
00000110: d89a d7be 5b3f c0be f72f bf3b fb65 c13c
00000120: cccc f83e 4880 a8be 4544 18bf c830 533e
00000130: 84c5 88be 4076 d8bd 740e 0cbf 9f14 4abd
00000140: 2b00 2f3d 71de e53d 63e9 a8bd e992 8fbf
00000150: 9b3e 28bf 69a6 1abf c959 e5be 6f1f 44be
00000160: 8ae5 18bf 9104 5ebd 2c43 09be 8b58 3fbf
00000170: 9257 f0be 68ce 0bbe 3413 17be b503 5c3e
00000180: 6787 1ebf 9587 673e 28e7 6e3d 9115 073e
00000190: f813 77bf 5d44 843e 6c92 a7be d4e1 4cbe
000001a0: e9a5 b0be addc f6bc 2acd 543e 98a9 cb3d
000001b0: 2a44 f73d db2e 4f3e 1271 37bf 197e dcbe
000001c0: 7856 e43c b79f 0abe 59a7 fbbd cd83 6c3e
000001d0: 4138 26bf c22f 5dbf 65ec a0bd 30e5 c9be
000001e0: fc8a ecbd 01ed 09bd 3c65 523e c405 cbbe
000001f0: 0113 b8bd 399a b03e b3cb e7bd d2e2 2bbe
00000200: d1f1 2e3e eaf1 f5bc 02d0 2d3e 7b3a 0ebe
00000210: 9abd 18bf a841 653e dece b53b 881c a13e
00000220: 2a0a 8a3d 3559 92be a3b1 d23e cd8e 383c
00000230: 0803 52be e82c e23e e02c e6bd e596 b6bb
00000240: c9d4 37be ad73 14be 59ca 833e 73ec 413e
00000250: de01 f7bc afdf 2ebe a000 fdbe 626c 9abe
00000260: 8f19 d5be 6e2e d43e d911 86be ac65 803e
00000270: 69f9 ae3e 0bbd 01be 2300 943e badf f9be
00000280: 110b 2b3f 7184 a53e 5f55 e7be 94cb 6d3e
00000290: fc77 15bf bb6a ae3d cb54 2c3e 6826 cfbe
000002a0: 35f2 e1bd 76f4 c5bc 06d8 7c3e 160f 0f3e
000002b0: f2c4 b8be 8053 343e afaa 39be ccef 86be
000002c0: d2d7 89bd 8770 ab3d c4fd 8e3c cfa2 79bc
000002d0: 5526 87be 4f2b 2f3e 40ac b8be b017 57bf
000002e0: 2a53 8fbe b96e 39bf 52bd 883e 1e42 2b3e
000002f0: 1d02 80be 9940 64be d832 f33d f005 d8bc
00000300: effd 8cbe 992c 98bd d167 7ebf 4cef 31be
00000310: 047e 6abe c88c 9ebb 1e41 97be 7414 e93b
00000320: 380a b4be 9e73 f53d aa2a 703d 8f13 243f
00000330: a35d b1be 5d24 6c3d ffcc d4be 65eb 0bbe
00000340: 764b 533e a9c2 86be e571 033d bd24 21be
00000350: 5296 7cbd e8bf 6f3e 1a8f 3f3e 637c 21be
00000360: a69e 6fbe b106 d33e b98c 0a3f 723e 8abe
00000370: dede ed3d 15cb b5bd 4353 103f 1b71 c8be
00000380: 33ff bdbe 8c39 8d3e 8485 bdbe b7b2 8cbe
00000390: 4df9 ea3c cd3a c23d a85e 75be 2cf6 7ebd
000003a0: ca84 e0be 4f0c b2be 14e4 c0bb 6b79 ddbd
000003b0: c0fb 7a3e 418b a3be d6bc 43be f871 403e
000003c0: ad65 ea3d 429f 023e 3d7f 143e 35a7 bfbd
000003d0: c3fb d9be d516 26bf 604e 63be 30c6 1fbe
000003e0: e1c3 033e 8b92 88bd 1419 d6bd 55ca 33bf
000003f0: 5573 ffbc d02e 603e 5ca6 6c3e 1c39 f53e

network_body.linear_encoder.seq_layers.4.bias f4 [128]
-0.12602863 -0.75885123 -0.16516891 -0.36104953 -0.038360707 0.30925524 -0.32487407 -0.06446972
-0.4302102 -0.13319854 -0.64968604 -0.20548286 -0.36792037 0.15771332 -0.5366904 -0.45992658
-0.9873069 0.096118875 -0.54876065 0.20480232 -0.58953 -0.51058203 -0.45860338 -0.02269937
-0.35441825 -0.1612897 0.25921315 -0.1928014 -0.58824253 -0.0071945563 0.28625193 -0.30280423
-0.2494477 -0.46996823 0.1145389 -0.01749805 -0.31829068 -0.12209619 -0.18519825 -0.0872965
-0.32645974 -0.41264132 -0.4133056 -0.3406273 -0.5353606 -0.33067408 -0.5102726 -0.37634227
0.23766464 0.05747249 -0.13987795 -0.025004266 -0.4270082 -0.33996364 -0.22279966 0.03687968
-0.028298534 -0.101032265 -0.23530674 -0.29216754 0.10168839 0.32195535 -0.41501465 0.08273871
-0.43374333 -0.16277346 -0.22584559 -0.6350779 -0.45178956 -0.26391888 0.11643046 -0.11379212
-0.6595786 -0.6880627 -0.47890192 -0.06292292 -0.36837578 -0.2683867 -0.2654012 -0.066437446
-0.4349892 0.112659276 -0.1805241 -0.47691852 -0.5219048 -0.41166952 -0.5436647 -0.19233204
-0.28485283 -0.20883629 -0.59778166 -0.29500976 0.20025921 0.05330681 0.25931257 0.35348222
-0.35048258 -0.35377434 -0.13143833 -0.25288597 -0.6525301 -0.0011646928 0.054195456 0.09735075
-0.6545895 0.09342252 -0.42417297 -0.60278213 -0.45816132 0.20361456 -0.34998307 0.47092304
-0.45180026 0.04140083 -0.23313569 -0.63796043 0.13140832 -0.2033215 -0.1880748 -0.3069499
0.3762775 0.339987 0.23732388 -0.4740367 -0.32999995 -0.029797608 0.033142753 -0.5035815
00000000: a60d 01be 1344 42bf 0a22 29be 7cdb b8be
00000010: 1e20 1dbd b456 9e3e e555 a6be b308 84bd
00000020: 8344 dcbe 3365 08be d351 26bf 196a 52be
00000030: 0f60 bcbe 9a7f 213e 8b64 09bf 7f7b ebbe
00000040: 25c0 7cbf f9d9 c43d 947b 0cbf b3b7 513e
00000050: 70eb 16bf 81b5 02bf 10ce eabe 07f4 b9bc
00000060: 4f76 b5be 2129 25be 96b7 843e bb6d 45be
00000070: 1097 16bf 50c0 ebbb 9d8f 923e 2809 9bbe
00000080: 386f 7fbe ad9f f0be 5f93 ea3d 1258 8fbc
00000090: fff6 a2be 910d fabd 9ca4 3dbe 82c8 b2bd
000000a0: bb25 a7be b945 d3be cb9c d3be b466 aebe
000000b0: 640d 09bf 1d4e a9be 3aa1 02bf efaf c0be
000000c0: 5c5e 733e 4668 6b3d 2a3c 0fbe bfd5 ccbc
000000d0: d2a0 dabe b70f aebe 9825 64be 260f 173d
000000e0: 54d2 e7bc 01ea cebd 40f4 70be fc96 95be
000000f0: 0142 d03d 55d7 a43e cd7c d4be ea72 a93d
00000100: 9b13 debe 16ae 26be 1144 67be 7794 22bf
00000110: f650 e7be 6020 87be 1873 ee3d d80b e9bd
00000120: 25da 28bf e124 30bf a232 f5be bbdd 80bd
00000130: c09b bcbe fb69 89be abe2 87be 5b10 88bd
00000140: e8b6 debe e8b9 e63d 4fdb 38be aa2e f4be
00000150: 8e9b 05bf 59c6 d2be 9c2d 0bbf b1f2 44be
00000160: 3bd8 91be 2ed9 55be 3808 19bf 850b 97be
00000170: c010 4d3e 3e58 5a3d 9ec4 843e 9ffb b43e
00000180: 7472 b3be e921 b5be c597 06be 457a 81be
00000190: 360c 27bf 9ba8 98ba 0efc 5d3d d45f c73d
000001a0: 2d93 27bf 4e54 bf3d 332d d9be ee4f 1abf
000001b0: 1f94 eabe 5680 503e fb30 b3be d31c f13e
000001c0: 5d52 e7be eb93 293d 1fbb 6ebe 6051 23bf
000001d0: e78f 063e 8333 50be ae96 40be 8a28 9dbe
000001e0: 72a7 c03e c712 ae3e 0805 733e f0b4 f2be
000001f0: c1f5 a8be 1d1a f4bc b2c0 073d b8ea 00bf

network_body.linear_encoder.seq_layers.4.weight f4 [128, 128]
0.35764918 1.0836539 0.4630799 0.6856674 -0.3659938 -0.39683232 0.12800176 0.07018199
0.50598854 0.3242764 0.5810796 -0.24953714 0.17319937 -0.04015419 0.48330536 0.15694536
0.26749057 0.8535683 0.89688563 0.6709382 0.11040412 0.36125475 -0.838557 -0.038966324
-0.47708225 -0.61880636 -0.03429101 -0.06350197 -0.49232006 0.042973485 0.1558269 0.2247068
-0.29523963 0.13018796 0.37359124 0.30791187 0.054881085 0.9077235 0.10387112 0.16349071
-0.62670285 -0.20258696 -0.19229275 0.14997174 -0.65014726 0.060077067 0.39516994 0.67015636
0.9553478 0.60503507 0.2611673 -0.18855587 -0.57801163 0.17830703 0.65719044 0.20320714
-0.16317323 0.13067731 -0.25106797 0.028887503 0.34205034 0.5096161 -0.17314371 -0.49348524
0.31114656 -0.0024672807 0.755054 0.18942508 0.38906166 0.71186185 -0.25986788 0.51248
-0.21214415 1.3061343 0.6003189 0.46508923 0.053848065 0.7936138 0.40937665 0.50663364
0.29298988 0.57420975 -0.11739982 0.11559724 0.9436797 -0.5300307 0.86751664 0.45561287
0.19455124 -0.117297836 0.070351124 -0.003343348 0.43400422 0.56923735 0.32619452 0.46588328
0.30217654 0.9593101 0.66590166 0.4730216 0.3959664 -0.8062088 0.274341 0.13618961
0.29963827 -0.49798176 0.6901629 0.10767697 -0.10181547 0.04655833 0.14092226 -0.2682031
-0.06848125 0.9428776 0.58307374 0.672653 0.8988442 0.63278186 -0.3823839 0.037210453
0.10905451 0.21391861 0.23272134 0.325195 -0.1681381 0.12314757 -0.86719537 0.4513827
0.37477002 0.3808551 -0.93421966 0.678055 0.09581611 0.23057096 0.33918777 0.061975267
-0.24950139 -0.061380446 0.6668541 -1.0249228 0.14799395 -0.15317714 0.055997375 -0.027794225
-0.06942946 0.40347323 0.2517014 0.2106688 -0.46087226 -0.112950414 -0.19904175 -0.85620123
0.24016683 -0.22175932 -0.17119914 0.59805876 -0.9443073 0.40537456 -0.011257445 -0.64795
0.2521806 0.20190649 0.1840873 0.25508085 -0.7197644 0.090416975 0.12037782 0.32699367
0.42601526 0.19541784 0.103010766 0.3213302 -0.16462447 -0.113149755 -0.26784012 0.07230165
-0.040411867 -0.10991243 0.52715784 -0.14692637 -0.19781454 -0.93054926 -0.13843201 0.1097437
-0.24505866 0.01016203 0.08311533 0.33730283 0.6396748 0.4636312 -0.46524298 0.20333211
0.42805547 -1.573702 0.29614547 -0.58423275 0.44117638 0.085707985 0.6232664 0.5086906
-0.38825858 -0.07611156 0.12865047 -0.27619258 -0.07977072 0.18929547 0.33918425 -0.17881536
0.11647012 0.5829211 0.24799335 0.40498152 -0.28010848 0.1321466 0.25371596 -0.0018781202
0.28266847 -0.336618 -0.1156866 0.29292822 -0.17886618 0.037881445 -0.32051846 0.024510741
0.97522265 0.27125043 -0.48477617 -0.3325449 0.36626053 -0.32141995 0.4276959 0.1510611
-0.089812 0.07512862 0.059059814 0.57754177 -0.12376963 0.006262725 -0.049141828 0.5275339
0.39250827 0.42022625 0.32484326 -0.11086176 0.10920884 0.06959331 -0.38068515 0.31848565
0.62881124 0.053620655 0.21593629 -0.40029362 -0.03812437 -0.25830486 -0.23809735 0.5833001
00000000: cb1d b73e 2cb5 8a3f cf18 ed3e e687 2f3f
00000010: 8a63 bbbe 9b2d cbbe e512 033e 93bb 8f3d
00000020: 7788 013f 8e07 a63e a2c1 143f aa86 7fbe
00000030: 2d5b 313e b878 24bd cd73 f73e 49b6 203e
00000040: 86f4 883e 7483 5a3f 4c9a 653f 9bc2 2b3f
00000050: 8e1b e23d 62f6 b83e acab 56bf 279b 1fbd
00000060: 2044 f4be 186a 1ebf bb74 0cbd 520d 82bd
00000070: 6011 fcbe f704 303d 1691 1f3e 8a19 663e
00000080: a629 97be fe4f 053e 5a47 bf3e a0a6 9d3e
00000090: fdca 603d 9160 683f 62ba d43d 1c6a 273e
000000a0: 996f 20bf f572 4fbe 64e8 44be 3192 193e
000000b0: 0d70 26bf 5f13 763d b753 ca3e 5e8f 2b3f
000000c0: ac91 743f 94e3 1a3f b8b7 853e ca14 41be
000000d0: 92f8 13bf 1e96 363e a23d 283f 8815 503e
000000e0: e216 27be 46d0 053e fb8b 80be 7ca5 ec3c
000000f0: 3921 af3e 3376 023f 964c 31be 19aa fcbe
00000100: 9a4e 9f3e 1ab2 21bb 384b 413f a6f8 413e
00000110: 1733 c73e 943c 363f 670d 85be e431 033f
00000120: 513c 59be 692f a73f 80ae 193f 2d20 ee3e
00000130: ca8f 5c3d 462a 4b3f d199 d13e beb2 013f
00000140: c502 963e 69ff 123f 516f f0bd 3fbe ec3d
00000150: fe94 713f 18b0 07bf 9215 5e3f 1746 e93e
00000160: 7138 473e d939 f0bd 4014 903d 121c 5bbb
00000170: cd35 de3e 8ab9 113f f802 a73e 4188 ee3e
00000180: e2b6 9a3e 5995 753f 8878 2a3f e32f f23e
00000190: 1cbc ca3e b363 4ebf 6c76 8c3e 4a75 0b3e
000001a0: 306a 993e 77f7 febe 84ae 303f be85 dc3d
000001b0: a184 d0bd f3b3 3e3d ed4d 103e eb51 89be
000001c0: e63f 8cbd 6d60 713f 5244 153f fd32 2c3f
000001d0: a71a 663f fefd 213f d3c7 c3be fd69 183d
000001e0: f957 df3d 7b0d 5b3e 814e 6e3e f67f a63e
000001f0: 652c 2cbe cb34 fc3d 8400 5ebf a21b e73e
00000200: dbe1 bf3e 71ff c23e 0529 6fbf 0395 2d3f
00000210: 3d3b c43d cb1a 6c3e 05aa ad3e c7d9 7d3d
00000220: 4b7d 7fbe 106a 7bbd f3b6 2a3f ac30 83bf
00000230: ba8b 173e 78da 1cbe 815d 653d b7b0 e3bc
00000240: 0831 8ebd 0b94 ce3e 02df 803e 90b9 573e
00000250: 73f7 ebbe 8c52 e7bd 9ad1 4bbe 0130 5bbf
00000260: 4bee 753e e014 63be d44e 2fbe 611a 193f
00000270: 20be 71bf 418d cf3e 2671 38bc 0de0 25bf
00000280: d11d 813e 93c0 4e3e 6281 3c3e f599 823e
00000290: 7b42 38bf 892c b93d a688 f63d b76b a73e
000002a0: ac1e da3e 9d1b 483e 4ff7 d23d 6485 a43e
000002b0: 5193 28be 0fbb e7bd 5722 89be e312 943d
000002c0: ea86 25bd c519 e1bd d1f3 063f de73 16be
000002d0: e58f 4abe 7a38 6ebf 1fc1 0dbe 4ec1 e03d
000002e0: a8f0 7abe a57e 263c 5f38 aa3d f5b2 ac3e
000002f0: bac1 233f 1261 ed3e 5434 eebe 4b36 503e
00000300: 162a db3e 116f c9bf 61a0 973e 4790 15bf
00000310: dfe1 e13e ab87 af3d 638e 1f3f 8c39 023f
00000320: d4c9 c6be 61e0 9bbd f3bc 033e 1d69 8dbe
00000330: d55e a3bd acd6 413e 8fa9 ad3e 601b 37be
00000340: e387 ee3d 513a 153f f8f1 7d3e bd59 cf3e
00000350: 616a 8fbe 7051 073e 0fe7 813e 422b f6ba
00000360: ecb9 903e 3259 acbe 19ed ecbd b0fa 953e
00000370: b228 37be 9329 1b3d ff1a a4be c0ca c83c
00000380: 31a8 793f 56e1 8a3e 9534 f8be 5343 aabe
00000390: 8086 bb3e 2891 a4be f5fa da3e c3af 1a3e
000003a0: 5bef b7bd 09dd 993d b4e8 713d c7d9 133f
000003b0: ef7a fdbd 8c37 cd3b f148 49bd 760c 073f
000003c0: d8f6 c83e e527 d73e db51 a63e 7e0b e3bd
000003d0: e2a8 df3d f086 8e3d 2ae9 c2be 8d10 a33e
000003e0: c6f9 203f 55a1 5b3d 671e 5d3e 49f3 ccbe
000003f0: 4d28 1cbd 8940 84be cbcf 73be 2853 153f

network_body.vector_processors.0.normalizer.running_mean f4 [6]
-0.24825984 1.6039718 0.5337689 0.0 3.2506673 0.02011687
00000000: d437 7ebe f34e cd3f 14a5 083f 0000 0000
00000010: ef0a 5040 22cc a43c
