Assets/Scripts/3.2 Dragons/BallEngineAI.onnx (onnx, 165586 bytes, 11 tensors)

69 f4 [55]
0	0x3de0d7a5	0.10978631
1	0x3d8f232a	0.06989129
2	0x3da15ee9	0.07879431
3	0x3d471b13	0.048609804
4	0x3de872d6	0.11350028
5	0x3d9a0696	0.075207874
6	0x3dc28dde	0.09499715
7	0x3d65a262	0.056063063
8	0x3db46b09	0.08809478
9	0x3d736338	0.059420794
10	0x3dd2d507	0.10294538
11	0x3d917130	0.07101667
12	0x3dc6a71f	0.096998446
13	0x3d721cbe	0.059109442
14	0x3dffaa63	0.124836706
15	0x3dbaca01	0.091205604
16	0x3e078244	0.13233286
17	0x3da14568	0.07874566
18	0x3e03877f	0.12844656
19	0x3dbc6698	0.09199256
20	0x3dbacae5	0.0912073
21	0x3d707ea0	0.05871451
22	0x3d8fa1c8	0.07013279
23	0x3d23f9fa	0.040033318
24	0x3ddeb923	0.10875156
25	0x3d9cf659	0.076641746
26	0x3dc6fa04	0.097156554
27	0x3d5f54ea	0.05452434
28	0x3dc552b7	0.09634917
29	0x3d8d772a	0.06907494
30	0x409d837d	4.922301
31	0x4098c32c	4.7738247
32	0x4097fa4e	4.749305
33	0x4093858e	4.610053
34	0x4093f0b4	4.6231327
35	0x409239b9	4.569546
36	0x3e9fbba2	0.3119784
37	0x3f0f80c6	0.5605587
38	0x3ebda85c	0.3704251
39	0x3eac89aa	0.3369878
40	0x3a15df96	0.0005717216
41	0x3a15df96	0.0005717216
42	0x3a15df96	0.0005717216
43	0x3a15df96	0.0005717216
44	0x3a15df96	0.0005717216
45	0x3a15df96	0.0005717216
46	0x3a15df96	0.0005717216
47	0x3a15df96	0.0005717216
48	0x3a15df96	0.0005717216
49	0x3a15df96	0.0005717216
50	0x3a15df96	0.0005717216
51	0x3a15df96	0.0005717216
52	0x3a15df96	0.0005717216
53	0x3a15df96	0.0005717216
54	0x3a15df96	0.0005717216

action_model._continuous_distribution.log_sigma f4 [1, 3]
0	0xbf21986d	-0.6312321
1	0xbf3767c1	-0.7164269
2	0xbf32177d	-0.6956709

action_model._continuous_distribution.mu.bias f4 [3]
0	0x3cd30bbb	0.02576243
1	0x3d1fedb4	0.03904505
2	0xbdb70be9	-0.089378186

action_model._continuous_distribution.mu.weight f4 [3, 128]
0	0x3d298f89	0.04139665
1	0xbda08183	-0.078372024
2	0xbd8515a5	-0.06498269
3	0xbe3c9606	-0.18416604
4	0xbd9e099e	-0.07716678
5	0xbc75dac1	-0.015005768
6	0x3d99ce0a	0.07510002
7	0x3bbc1121	0.0057393466
8	0x3d5fe05a	0.054657318
9	0xbdcbbd78	-0.09948248
10	0x3c0592f7	0.008152715
11	0xbc658531	-0.014008806
12	0x3cb1f417	0.021722836
13	0x3d8a5db2	0.06756152
14	0x3d643559	0.05571494
15	0xbbf3a780	-0.007435739
16	0x3e1a7481	0.15083505
17	0xbde88bad	-0.11354766
18	0x3d270ab9	0.04078171
19	0xbd1b43b7	-0.037906375
20	0x3e1ecd24	0.15507942
21	0x3e164acd	0.14676972
22	0xbdc305c2	-0.095225826
23	0x3c2a6599	0.010400199
24	0x3d34b303	0.04411603
25	0x3e22c76f	0.1589639
26	0x3cb35324	0.02189023
27	0xbbb47729	-0.005507369
28	0x3de5b5e4	0.112163335
29	0xbe42d96e	-0.19028255
30	0xbd1f34a8	-0.038868576
31	0x3d4275a6	0.04747548
32	0xbe07ad58	-0.13249719
33	0xbd94fc53	-0.072746895
34	0x3b84cbba	0.0040526064
35	0xbcd00d90	-0.025397092
36	0x3e6c0fc2	0.23052886
37	0xbe37a1e0	-0.17932844
38	0xbcabbd97	-0.020964427
39	0xbe5e51d7	-0.21710907
40	0x3dace110	0.08441365
41	0xbd96cff4	-0.07363883
42	0xbd0fa11f	-0.035065766
43	0xbd926a50	-0.07149184
44	0x3be8883d	0.007096319
45	0xbdec14a2	-0.11527373
46	0x3aeb8d82	0.001797125
47	0xbc88f989	-0.01672055
48	0x3e05c7be	0.13064477
49	0xbb27269d	-0.0025505193
50	0xbde59bc7	-0.11211353
51	0xbbeaa990	-0.0071613267
52	0xbe72bb67	-0.23704301
53	0x3d012dd6	0.031537853
54	0x3e0cbace	0.13743135
55	0x3c5ae47a	0.013360137
56	0xbdd4c715	-0.103895344
57	0xbdc59187	-0.09646898
58	0x3d5bf676	0.05370184
59	0xbbfa202f	-0.007633231
60	0x3c2c084e	0.010500027
61	0x3d9d6f90	0.076872945
62	0x399b9095	0.00029671626
63	0xbe619efd	-0.22033305
64	0xbc43946a	-0.01193724
65	0x3e465f2b	0.19372241
66	0x3d2e20a4	0.042511597
67	0xbc83c50d	-0.016085172
68	0xbe2ad32a	-0.16682115
69	0xbe055fbc	-0.13024801
70	0x3d6f66b8	0.05844757
71	0xbe2273fb	-0.15864556
72	0xbd3da3d4	-0.046298817
73	0x3d03d603	0.03218652
74	0xbcf77f19	-0.030211972
75	0xbdf8f82e	-0.121567115
76	0xbe50bdca	-0.20384899
77	0x3dc7441b	0.09729787
78	0x3ca90c06	0.020635616
79	0x3c463823	0.012098345
80	0x3df55bca	0.11980398
81	0x399e14ab	0.00030151507
82	0xbddfca6e	-0.10927282
83	0xbe038772	-0.12844637
84	0xbdc901e6	-0.09814815
85	0xbd845cf4	-0.06463042
86	0xbdcf371f	-0.101179354
87	0x3c2ef54e	0.010678602
88	0xbc9de848	-0.0192758
89	0xbe06e08d	-0.13171597
90	0x3e0ac18e	0.13550398
91	0xbdfaa25a	-0.12237997
92	0x3d63ca74	0.055612996
93	0xbe38b74d	-0.18038674
94	0xbcc63d72	-0.024199221
95	0x3c228f20	0.009921819
96	0xbe0ea2b9	-0.13929261
97	0xbd84c269	-0.06482393
98	0x3d87d65e	0.06632684
99	0x3d3c6db8	0.046003073
100	0xbd89c184	-0.06726363
101	0xbb0de84b	-0.002165335
102	0x3cbeadce	0.023276236
103	0x3e1b3e7b	0.15160553
104	0x3dede716	0.11616342
105	0x3ddc1e5f	0.1074798
106	0xbde4ef58	-0.11178464
107	0xbbad5ae2	-0.005290375
108	0x3d0c3a36	0.0342352
109	0xbe352c04	-0.17692572
110	0xbc87f027	-0.016594006
111	0x3c6c1d05	0.014411216
112	0xbcedd5c8	-0.029032603
113	0xbb97399f	-0.0046150233
114	0xbde8c03e	-0.11364792
115	0xbc107f5a	-0.0088194255
116	0xbc6dedf4	-0.0145220645
117	0xbd99a20f	-0.07501613
118	0xbc98c044	-0.018646367
119	0xbcd897b2	-0.026439521
120	0x3d5f4a4b	0.05451421
121	0x3c489197	0.012241743
122	0xbddec789	-0.10877902
123	0xbda0334b	-0.07822283
124	0x3e11a5b3	0.14223365
125	0xbc757061	-0.0149804065
126	0x3dc65616	0.09684388
127	0xbdaf755a	-0.08567305
128	0xbd5b2cc1	-0.053509478
129	0xbdc11388	-0.094275534
130	0x3d047493	0.032337736
131	0x3e201f65	0.15636976
132	0x3d1cecee	0.03831189
133	0xbd599d7a	-0.053128697
134	0x3d29aaa5	0.041422505
135	0x3e138b14	0.14408523
136	0x3db8a52e	0.090158805
137	0xbd156561	-0.036473636
138	0x3deef026	0.116668984
139	0xbda94d15	-0.08266655
140	0x3e29c87a	0.16580382
141	0xbcc9f6fc	-0.024653904
142	0x3d0c208a	0.03421072
143	0xb91037a8	-0.00013753644
144	0xbdda5223	-0.106601976
145	0xbd21f6b5	-0.03954192
146	0x3ca5a666	0.020220947
147	0xbb0fab41	-0.0021922144
148	0x3cdd0da5	0.026984045
149	0xbdfa453c	-0.12220237
150	0xbd1e119d	-0.038591016
151	0x3d831127	0.06399756
152	0x3d83d989	0.06437976
153	0xbd5e8fd3	-0.05433638
154	0x3c846fad	0.016166532
155	0x3c98b6c5	0.018641839
156	0xbdd14bd1	-0.10219539
157	0x3d56ddbf	0.052457567
158	0x3b2c79a6	0.0026317625
159	0x3de82c67	0.11336594
160	0x3de3b325	0.111181535
161	0xbcf88d37	-0.030340774
162	0xbdf51985	-0.11967758
163	0xbd9b8eed	-0.0759562
164	0xbe2c1ddd	-0.16808267
165	0xbe30736a	-0.17231527
166	0xbcfb4ab1	-0.030675264
167	0xbd41434e	-0.047183327
168	0xbd3ed5a2	-0.046590455
169	0xbd91bef9	-0.07116503
170	0x3d5189b2	0.051156707
171	0x3b0de419	0.002165085
172	0x3d0fbd9f	0.035092946
173	0xbd06be6c	-0.032896444
174	0xbd39f2a8	-0.04539743
175	0xbd5cc768	-0.053901106
176	0xbc6b28a6	-0.014352953
177	0x3b4a163a	0.0030836002
178	0xb9b19b51	-0.0003387579
179	0x3b30f3d0	0.0027000792
180	0xbd12a03c	-0.035797343
181	0xbdc61935	-0.096727766
182	0x3cd1b504	0.02559901
183	0x3ba13f2e	0.0049208617
184	0xbd88820c	-0.066654295
185	0x3d742973	0.05960984
186	0xbd7b4915	-0.061348993
187	0x3dbd5ea0	0.09246564
188	0xbcab35d0	-0.020899683
189	0xbd3583cf	-0.044315156
190	0x3da69279	0.08133406
191	0x3e650ebc	0.22368902
192	0xbe36cedb	-0.17852347
193	0xbbcdbc89	-0.0062785787
194	0x3e1d6d1c	0.15373653
195	0x3c5bf473	0.01342498
196	0x3e44e768	0.192289
197	0xbdce8b9c	-0.10085222
198	0x3dca591c	0.098802775
199	0xbd048ea1	-0.032362584
200	0xbe60f69e	-0.21969077
201	0x3d2b7e61	0.04186857
202	0xbd03feda	-0.032225467
203	0xbd23145c	-0.039814338
204	0x3d2f78aa	0.042839684
205	0x3dc7d0eb	0.09756645
206	0x3d9abfcb	0.07556113
207	0x3dc10d6b	0.094263874
208	0xbdd30b22	-0.10304858
209	0x3ac5ba2b	0.001508539
210	0xbd94416a	-0.07239039
211	0x3dadf375	0.08493701
212	0xbb7eb2cf	-0.0038863902
213	0xbca6eb02	-0.020375732
214	0x3c95dd42	0.01829398
215	0xbe309630	-0.17244792
216	0xbd08407a	-0.033264615
217	0x3db9c473	0.09070673
218	0xbd9e68c0	-0.07734823
219	0xbc5193af	-0.012791558
220	0xbc947caa	-0.01812585
221	0xbe305bbf	-0.17222498
222	0xbd8cdcb8	-0.06878036
223	0x3cd94ea1	0.026526751
224	0x3d3b3e5f	0.04571378
225	0xbcec1ab3	-0.028821325
226	0x3ba643ca	0.005073999
227	0x3bef663c	0.0073058885
228	0xbe7c3e33	-0.24633102
229	0x3d0559be	0.032556288
230	0x3c018c1d	0.007906941
231	0x3d25a8b3	0.040444087
232	0x3e1c6e27	0.15276395
233	0xbd9f4c1e	-0.0777819
234	0xbe613462	-0.21992639
235	0x3d6dff29	0.058104668
236	0xbd17c30f	-0.037051257
237	0xbdef062d	-0.116711
238	0x3cff8aec	0.031194173
239	0x3ca60c42	0.020269517
240	0x3c7f3cd9	0.015578472
241	0xbb8905d2	-0.004181602
242	0xbc834397	-0.01602344
243	0xbc707192	-0.014675515
244	0x3d736637	0.05942365
245	0xbcd3502c	-0.025795065
246	0x3d7a86a2	0.061163552
247	0x3d29ca9f	0.041453
248	0x3ce9969c	0.028514199
249	0x3dde9019	0.10867328
250	0xbdcd2048	-0.10015923
251	0xbd9cf395	-0.07663647
252	0x3d28b827	0.041191246
253	0xbd074c6d	-0.03303187
254	0xbd91870c	-0.07105836
255	0xbe249132	-0.16071013

network_body.linear_encoder.seq_layers.0.bias f4 [128]
0	0x3c324d55	0.010882695
1	0xbc5f1c7e	-0.013617633
2	0x3b4b9bda	0.0031068237
3	0x3d9b2d95	0.075770535
4	0x3d44e2bc	0.048067793
5	0x3e0eb03e	0.13934419
6	0xbca615c7	-0.020274056
7	0xbc0e741a	-0.008694673
8	0x3cd6b1d1	0.026207836
9	0x3c43db2e	0.011954112
10	0x3d809d19	0.06279964
11	0xbd901d45	-0.07036833
12	0xbdff9639	-0.124798246
13	0xbc955bc4	-0.018232234
14	0x3c553b54	0.013014633
15	0x3d107db6	0.035276137
16	0x3d86d365	0.06583289
17	0x3baa4260	0.005195901
18	0xbb21d763	-0.002469503
19	0x3a9c3caf	0.0011919941
20	0xbcd24e7d	-0.025672192
21	0x3d727345	0.05919196
22	0x3de29898	0.11064261
23	0x3da5e369	0.08100016
24	0xbc8032cb	-0.01564922
25	0x3d57c723	0.052680146
26	0x3c5b6d51	0.013392762
27	0x3d7b1973	0.061303567
28	0x3d61af47	0.055098798
29	0xbca9dfec	-0.020736657
30	0x3d119ab3	0.035547923
31	0x3bd932fa	0.0066283913
32	0x3ddfe64f	0.109326
33	0x3c8bc37d	0.01706099
34	0xbcb7f2c2	-0.022454623
35	0xbcf27f9c	-0.029601865
36	0xbc8f80ee	-0.017517533
37	0x3d0cab79	0.034343217
38	0xbce67591	-0.028132232
39	0x3db34dc6	0.087550685
40	0xbd951d43	-0.07280972
41	0x3daa5a4d	0.08318005
42	0xbd08ad23	-0.03336824
43	0x3cc30031	0.023803802
44	0x3d141b84	0.036159053
45	0x3d1a0977	0.037606683
46	0x3d8dd32a	0.06925042
47	0x3ac598b3	0.0015075415
48	0xbd183281	-0.03715754
49	0x3d81eff5	0.06344596
50	0x3da55787	0.08073335
51	0x3d034071	0.032043878
52	0x3d418b8c	0.047252223
53	0x3bd593e8	0.006517876
54	0x3db0bfa9	0.08630306
55	0xbd03085e	-0.0319904
56	0xbd7d7098	-0.061874956
57	0xbc0a97cb	-0.008459042
58	0x3d096ef0	0.033553064
59	0x3d9d3895	0.07676808
60	0x3d8e8cb7	0.06960433
61	0xbd1c263b	-0.038122397
62	0xbd73e8c4	-0.059548154
63	0x3d3eb974	0.04656358
64	0xbd05c55e	-0.032658927
65	0xbd576389	-0.05258516
66	0x3cbf2497	0.023332877
67	0xbbfe5a74	-0.0077622477
68	0xbd04dcd3	-0.032437157
69	0x3d0153bd	0.031574
70	0x3de45b34	0.11150208
71	0x3ca72f25	0.020408222
72	0xbcd6dc7f	-0.026228188
73	0x3c670151	0.014099435
74	0xbdb4f2ae	-0.0883535
75	0xbde7d953	-0.11320748
76	0x3db788d8	0.08961648
77	0xbd15c01b	-0.03656016
78	0xbd6dd182	-0.05806113
79	0x3d917202	0.071018234
80	0x3da261e1	0.07928825
81	0x3dcc0e3d	0.09963653
82	0xbd5b4285	-0.053530235
83	0xbd18d89b	-0.037315946
84	0x3d231239	0.0398123
85	0x3d7d39e6	0.061822794
86	0x3d37f6cd	0.044913102
87	0x3c52142e	0.012822194
88	0x3c352ccf	0.0110580465
89	0xbdc56d43	-0.09639981
90	0x3d1ddca5	0.0385405
91	0x3d0ea37e	0.034823887
92	0xbba86d92	-0.005140015
93	0x3cb00983	0.02148891
94	0x3c2a8284	0.010407094
95	0xbc57b995	-0.013166805
96	0x3cbc5991	0.022991927
97	0x3d89e4bd	0.067330815
98	0xbd9a6908	-0.07539564
99	0x3c8e46fc	0.017367832
100	0xbd257bba	-0.040401198
101	0x3d612277	0.05496451
102	0xbd20b0f9	-0.039231274
103	0x3dad91e8	0.08475095
104	0x3b818e26	0.003953713
105	0xbc5ff7a5	-0.013669883
106	0xbca0447c	-0.019563906
107	0xbb7308c8	-0.0037084091
108	0x3c8251e8	0.015908197
109	0x3d34da0e	0.044153266
110	0xbac978ac	-0.0015371046
111	0xb9c94509	-0.00038389143
112	0x3d2b7ff1	0.04187006
113	0x3dd0f7cd	0.10203514
114	0x3c2da7ba	0.010599071
115	0x3db17a3b	0.08665892
116	0x3ca80686	0.020510923
117	0x3d087191	0.03331143
118	0x3d73ece0	0.059552073
119	0x3d992f7f	0.07479762
120	0x3c2ae9a3	0.01043168
121	0x3db7ab24	0.08968189
122	0x3d877e56	0.066158935
123	0x3d25d5b8	0.04048702
124	0x3dac79b1	0.08421648
125	0x3d64527d	0.05574273
126	0xbd8e29c3	-0.06941559
127	0xbd003e92	-0.03130967

network_body.linear_encoder.seq_layers.0.weight f4 [128, 55]
0	0xbccd71a8	-0.02507861
1	0x3d3fcb52	0.04682476
2	0xbce6ce59	-0.028174566
3	0x3db2794c	0.08714542
4	0xbc96d5d6	-0.018412512
5	0x3e49732c	0.19672841
6	0x3d815940	0.06315851
7	0x3d210489	0.039310966
8	0x3daebe57	0.08532398
9	0x3e1ebac1	0.15500928
10	0xbd870481	-0.06592656
11	0x3e9184b2	0.2842155
12	0xbdce637c	-0.10077569
13	0xbdbe8a8a	-0.09303768
14	0xbd9dc437	-0.07703441
15	0x3e39d527	0.18147717
16	0xbde657ef	-0.11247241
17	0xbc30b3a0	-0.010785013
18	0x3cee5369	0.029092507
19	0x3e801cdd	0.2502202
20	0xbdb95e10	-0.09051144
21	0xbd452fbe	-0.048141234
22	0xba48c796	-0.0007659135
23	0x3d5ea497	0.054356184
24	0x3da3ce5a	0.07998343
25	0x3eba7f4d	0.36425248
26	0x3d55ab19	0.052165125
27	0x3e9a58db	0.30145916
28	0xbe55b171	-0.2086847
29	0x3dab3197	0.08359068
30	0x3d1405da	0.036138393
31	0xbdbc0441	-0.09180499
32	0x3eb88693	0.36040172
33	0xbe8461ed	-0.2585596
34	0x3d9bb141	0.07602168
35	0xbe97a12f	-0.2961516
36	0x3e549db9	0.20763291
37	0x3c69417b	0.014236803
38	0xbd9e528f	-0.077305906
39	0x3daa18e4	0.08305529
40	0x3da7697f	0.08174419
41	0x3d8b1128	0.06790382
42	0xbe3d8e41	-0.18511297
43	0xbd31e6a2	-0.04343284
44	0x3cfafc03	0.030637747
45	0x3db0edd6	0.086391136
46	0x3dd284e8	0.10279256
47	0x3e4e5f6f	0.20153593
48	0xbd89af6a	-0.06722911
49	0xbb767dc7	-0.003761159
50	0x3da1931b	0.07889386
51	0x3dfc5997	0.123217754
52	0xbccf8368	-0.025331214
53	0x3d994ae2	0.07484986
54	0xbda92ec5	-0.08260874
55	0xbe491f25	-0.19640787
56	0xbe8cc993	-0.2749754
57	0xbec52229	-0.38502625
58	0x3d324523	0.043522965
59	0xbbb38329	-0.005478282
60	0xbd47cdf5	-0.0487804
61	0xbdcda0dc	-0.10040447
62	0xbd66627e	-0.056246273
63	0xbda3ebcd	-0.0800396
64	0x3d35feac	0.044432327
65	0xbdcf9fef	-0.10137927
66	0xbe651404	-0.22370917
67	0xbde2f9ac	-0.110827774
68	0xbdec1499	-0.11527366
69	0xbd62dc7e	-0.05538606
70	0xbe4a6d17	-0.19768177
71	0x3dac6acc	0.084188074
72	0x3e65983a	0.22421351
73	0x3d21f6aa	0.039541878
74	0x3d3c1ac7	0.045923974
75	0xbc97f83a	-0.01855098
76	0xbe1c128e	-0.15241453
77	0x3dcc4724	0.099745065
78	0xbdd5b8f4	-0.10435668
79	0xbe330dfa	-0.174858
80	0x3d5e168e	0.05422073
81	0x3e90deb9	0.28294924
82	0x3e41436e	0.18873379
83	0x3e5bb1f7	0.21454607
84	0x3dc51147	0.09622436
85	0xb948cfda	-0.00019150917
86	0x3d964c80	0.0733881
87	0xbd93eb7b	-0.07222649
88	0x3c913b18	0.017728373
89	0xbd26da04	-0.04073526
90	0x3db37430	0.087623954
91	0xbdbf3296	-0.093358204
92	0xbedcf5c7	-0.43156263
93	0xbdccaab4	-0.099934965
94	0xbe8830ee	-0.2659983
95	0x3e107599	0.1410736
96	0x3e47fb06	0.19529352
97	0x3d6189eb	0.05506317
98	0x3d2a3f59	0.04156432
99	0xbe234782	-0.15945247
100	0x3e0d9a8c	0.13828486
101	0xbca976a7	-0.02068646
102	0xbd9084f0	-0.07056606
103	0xbcebc061	-0.028778257
104	0x3b034df6	0.0020035482
105	0x3d24502c	0.04011552
106	0x3ca6d23e	0.020363923
107	0x3e5eb809	0.21749891
108	0x3dabf6f5	0.08396713
109	0xbe342919	-0.17593803
110	0x3da17247	0.07883125
111	0x3d2c0bbb	0.042003375
112	0xbd55cfab	-0.0522
113	0x3c1e4801	0.009660722
114	0x3a94391d	0.0011308525
115	0xbe600a7f	-0.21879004
116	0x3d4cbf46	0.0499871
117	0x3d90006d	0.07031331
118	0xbe03f0f3	-0.12884884
119	0x3ecc81d8	0.39942813
120	0x3dad2555	0.08454386
121	0x3d885173	0.0665616
122	0x3db36475	0.08759395
123	0x3d2beb33	0.04197235
124	0x3e806533	0.2507721
125	0x3e34b3cd	0.17646714
126	0x3dd6963c	0.10477874
127	0xbd44d280	-0.04805231
128	0xbdb62bcc	-0.08895072
129	0x3db7291e	0.08943389
130	0x3e0ff3ea	0.1405789
131	0xbe8e8e05	-0.27842727
132	0xbe2b0cb7	-0.16704069
133	0xbe99e176	-0.30054826
134	0xbe3b898f	-0.18314193
135	0x3cd3fe47	0.025878085
136	0x3cd5493b	0.026035896
137	0xbccfff4e	-0.025390293
138	0xbdcf76d3	-0.10130086
139	0xbc07c0d7	-0.008285723
140	0xbe5a80d0	-0.213382
141	0xbe225dfc	-0.15856165
142	0xbe7702cd	-0.24122162
143	0x3e57c4cb	0.21071164
144	0x3e3bb2e7	0.18329965
145	0x3e836d3d	0.2566928
146	0xbe010609	-0.12599958
147	0xbe344ff7	-0.17608629
148	0x3c120531	0.008912371
149	0xbd5a7037	-0.053329673
150	0xbd30d70b	-0.04317383
151	0x3e3cccc0	0.18437481
152	0xbd63164a	-0.05544118
153	0xbe171d38	-0.1475724
154	0xbde45676	-0.111493036
155	0xbe334e09	-0.17510237
156	0x3d8f082c	0.069839805
157	0xbd4e4670	-0.050360143
158	0xbde84def	-0.1134299
159	0x3c928705	0.017886648
160	0xbe4f0333	-0.20216064
161	0x3d5e463f	0.05426621
162	0xbd82cb09	-0.06386382
163	0xbdbbe4d9	-0.091745086
164	0xbcbee73a	-0.023303617
165	0x3d1d92cc	0.038470075
166	0xbd2c42bc	-0.04205583
167	0x3c9acc1e	0.018896159
168	0xbc82c68d	-0.015963817
169	0xbe877b2f	-0.2646117
170	0x3c60357b	0.013684626
171	0x3e0d0622	0.1377187
172	0x3e504307	0.20338069
173	0xbe156f70	-0.14593291
174	0x3de777f7	0.11302178
175	0xbd399711	-0.045310084
176	0x3e170b20	0.14750338
177	0xbe6be744	-0.2303744
178	0x3d2525a4	0.0403191
179	0xbc93b2de	-0.018029626
180	0x3d92b00e	0.07162486
181	0xbe34bf0e	-0.17651007
182	0x3d044de7	0.032300856
183	0xbc9a1786	-0.018810045
184	0xbd1b53db	-0.037921768
185	0xbc026b2d	-0.007960123
186	0x3b6ea2e0	0.0036413
187	0x3e797ccf	0.24364017
188	0x3e6aa910	0.22916055
189	0xbe8898b8	-0.26679015
190	0xbe076308	-0.13221371
191	0xbe0ee093	-0.13952856
192	0x3dc0e0d5	0.09417883
193	0x3dcaf272	0.09909524
194	0x3e84692d	0.25861493
195	0xbeb00311	-0.3437734
196	0x3ea40b52	0.32039887
197	0xbe85e58b	-0.2615169
198	0x3ebd2dae	0.36948913
199	0xbe2a5b8c	-0.16636485
200	0x3dc2fe54	0.095211655
201	0x3ee4d07f	0.4469032
202	0x3d64a963	0.055825602
203	0xbe06b626	-0.13155422
204	0x3d2fb622	0.042898305
205	0xbc2b4823	-0.01045421
206	0x3c5df4c7	0.013547129
207	0xbd823346	-0.06357436
208	0x3d89e684	0.067334205
209	0x3dec73a1	0.11545492
210	0x3c8f6e0b	0.017508527
211	0x3c33cbed	0.010973913
212	0x3b78c4a0	0.0037958995
213	0xbbed9afd	-0.007251142
214	0xbe5a8c8f	-0.21342681
215	0xbcbfd2c1	-0.023415925
216	0x3daa19ab	0.08305677
217	0xbdbdec02	-0.092735305
218	0xbd2a20f3	-0.04153533
219	0xbe0694c5	-0.13142689
220	0x3e3a3a53	0.18186311
221	0x3dcc95b9	0.09989495
222	0xbc512d14	-0.012767095
223	0x3de1474e	0.109999284
224	0xbd840324	-0.064459115
225	0xbc6df39a	-0.014523411
226	0xbdd3f0fb	-0.10348698
227	0x3e695c46	0.22789106
228	0x3d83b249	0.064304896
229	0x3ef7a1c5	0.48365608
230	0xbe1abe7f	-0.15111731
231	0x3d9f3f07	0.077756934
232	0xbea1c7b0	-0.31597662
233	0xbd90adbf	-0.070643894
234	0xbe818ab4	-0.25301135
235	0xbd79cec3	-0.0609882
236	0x3eba4c7e	0.36386484
237	0x3e0a0e52	0.13482025
238	0xbda3b223	-0.07992961
239	0x3e9f04c7	0.31058332
240	0x3e281ce0	0.16417265
241	0x3db058b7	0.08610671
242	0xbdf41b95	-0.11919323
243	0x3ebe78ce	0.37201542
244	0xbe28f14f	-0.16498302
245	0x3d6d4ce3	0.057934653
246	0x3d5b45c8	0.053533345
247	0x3df4a758	0.11945981
248	0xbe32df01	-0.17467882
249	0x3dac2fd8	0.08407563
250	0xbe31fd29	-0.17381729
251	0x3edc72c8	0.4305632
252	0xbc469c09	-0.012122163
253	0x3e0dc462	0.13844445
254	0xbec73a2c	-0.3891157
255	0xbe4a93bf	-0.19782923

network_body.linear_encoder.seq_layers.2.bias f4 [128]
0	0xbd44ec2d	-0.048076797
1	0xbc26fc8d	-0.010192049
2	0xbd1ba399	-0.037997816
3	0xbe3472ca	-0.17621914
4	0xbc69a2b7	-0.014259986
5	0x3bd488eb	0.0064860485
6	0x3bd96ae1	0.0066350554
7	0x3be66a4f	0.007031716
8	0xbce6f678	-0.028193697
9	0xbdc8ef4a	-0.09811266
10	0xbce9a1ec	-0.028519593
11	0xbc084dad	-0.008319301
12	0xbde5b137	-0.11215442
13	0xbd4ffa2a	-0.050775684
14	0x3ce4afc9	0.027915852
15	0xbdc3120f	-0.09524929
16	0xbd17d338	-0.03706667
17	0xbe46859a	-0.19386902
18	0xbe0e81e7	-0.13916741
19	0xbd1c4995	-0.03815611
20	0xbda67804	-0.0812836
21	0xbb5cc1e9	-0.0033684915
22	0x3caa2488	0.020769373
23	0xbd0493ff	-0.032367703
24	0x3d0172b9	0.03160355
25	0xbd71bb0e	-0.05901628
26	0x3d28654d	0.041112233
27	0x3c3f2b02	0.011667969
28	0x3ca50008	0.020141616
29	0x3d96eb12	0.07369055
30	0xbd0b1047	-0.03395107
31	0xbb5d75d8	-0.0033792164
32	0xbd62ccce	-0.0553711
33	0xbd97b845	-0.074081935
34	0x3ce19235	0.027535537
35	0xbdc303c1	-0.095222004
36	0x3cf153a1	0.029458823
37	0xbda75d61	-0.081721075
38	0x3c9e955c	0.01935833
39	0x3c183272	0.009289371
40	0xbda142e6	-0.07874088
41	0xbd6b80b0	-0.057495773
42	0x3ce40768	0.027835563
43	0xbce9a9c2	-0.02852333
44	0xbb81f17e	-0.0039655557
45	0xbd5add60	-0.053433776
46	0x3c11d0d5	0.008899887
47	0x3c8b81aa	0.017029602
48	0xbd9cddeb	-0.07659515
49	0xbc9dd9a0	-0.01926881
50	0x3d561ea2	0.052275307
51	0xbc8380aa	-0.016052563
52	0xbd100277	-0.0351586
53	0xbd1cc712	-0.038275786
54	0xbd20436d	-0.039126802
55	0xbd903f2d	-0.070433
56	0xbdd15a6f	-0.10222327
57	0x39e25945	0.0004317259
58	0x3b370589	0.0027926883
59	0xbd313d1f	-0.04327118
60	0xbc908064	-0.017639346
61	0xbd68e386	-0.05685761
62	0xbc7ee235	-0.015556862
63	0x3d9a2dfb	0.07528301
64	0x3c3dd95d	0.011587468
65	0xbdccdf37	-0.10003512
66	0xbdbe8d1e	-0.0930426
67	0x3d87e31e	0.06635116
68	0xbd32192f	-0.04348105
69	0x3cf56ce1	0.029959144
70	0x3d868c21	0.06569696
71	0xbdd093f4	-0.1018447
72	0xbd5ca43b	-0.05386756
73	0xbd72d4c5	-0.059284944
74	0xbbb8d3e1	-0.0056404923
75	0xbda19aa0	-0.078908205
76	0x3d260bf9	0.04053876
77	0xbbc2c1f0	-0.0059435293
78	0x3d74e40b	0.05978779
79	0xbd875793	-0.066085
80	0xbd6f01d4	-0.058351353
81	0xbd02c575	-0.03192659
82	0xbd714a11	-0.058908526
83	0xbd16637b	-0.036715966
84	0xbc5b4cea	-0.013385037
85	0xbd83d090	-0.064362645
86	0xbcb2d5d8	-0.021830484
87	0x3ba5fc8d	0.005065507
88	0xbd3901fa	-0.0451679
89	0x3d3c0f44	0.045912996
90	0xbdb2c019	-0.08728046
91	0x3d21cae7	0.039500143
92	0xbd3ee3ac	-0.046603844
93	0x3d0e7e76	0.03478857
94	0x3c9c46fc	0.019076817
95	0xbddb8476	-0.10718624
96	0x3b6ca3bb	0.0036108333
97	0x3ce064a2	0.027391735
98	0xbe184dd9	-0.14873447
99	0x3cd4fd10	0.025999576
100	0x3dae9aaf	0.08525597
101	0xbdf2bcf8	-0.11852449
102	0xbdd2cbc5	-0.10292772
103	0xbc9a2ba9	-0.018819647
104	0xbe205fea	-0.15661588
105	0x3dcd5885	0.100266494
106	0x3a67e0b4	0.0008845434
107	0xbd2f5708	-0.04280761
108	0x3cb54a59	0.022130178
109	0xbc7a51bb	-0.015278275
110	0x3bbac82b	0.0057001314
111	0xbd8752b2	-0.0660757
112	0xbb9b6318	-0.0047420375
113	0xbde9db8f	-0.114188306
114	0x3c11c2d6	0.00889655
115	0xbdb0fcf5	-0.08641998
116	0xbd97d476	-0.074135706
117	0xbe1ce945	-0.1532336
118	0xbc892c99	-0.016744899
119	0xbc1f7a8b	-0.009733806
120	0xbd7b48c1	-0.06134868
121	0x3de7817d	0.11303995
122	0x3d141656	0.036154114
123	0x3d07f170	0.033189237
124	0xbd23b44d	-0.03996687
125	0x3cc93eee	0.02456614
126	0xbdb95698	-0.090497196
127	0xbe120139	-0.14258279

network_body.linear_encoder.seq_layers.2.weight f4 [128, 128]
0	0xbd32c866	-0.043648146
1	0x3dc67616	0.09690492
2	0x3d8168f1	0.06318844
3	0x3e1f1853	0.15536623
4	0xbebe2284	-0.37135708
5	0xbbb00781	-0.0053719883
6	0x3d1de699	0.038549993
7	0x3d0eb4bc	0.03484033
8	0x3df35e08	0.118831694
9	0xbe5bbd1e	-0.21458861
10	0xbcc2d112	-0.023781333
11	0xbc0c923a	-0.008579785
12	0xbca035ec	-0.019556962
13	0x3d62e9fd	0.05539893
14	0xbe42c416	-0.19020113
15	0x3bddc8b1	0.006768309
16	0x3dc358d0	0.09538424
17	0xbdd6a335	-0.10480348
18	0xbdd705a4	-0.10499123
19	0xbe1960df	-0.1497836
20	0x3df205c3	0.11817505
21	0xbce09945	-0.027416835
22	0xbd7f7d77	-0.062375512
23	0x3dd800d7	0.10547035
24	0xbdd5b94c	-0.10435733
25	0x3c5379b5	0.012907435
26	0xbdae5111	-0.08511556
27	0xbe0056cd	-0.12533112
28	0x3d2f963a	0.042867877
29	0x3e1527b2	0.14565924
30	0xbd81a458	-0.06330174
31	0x3e2503d0	0.16114736
32	0xbd34ddaa	-0.044156708
33	0xbdf4b413	-0.11948409
34	0xbe9f6416	-0.31131047
35	0xbd900fc6	-0.070342585
36	0xbe1a0649	-0.1504146
37	0xbdd8d5bc	-0.105876416
38	0xbbd0d4b2	-0.0063730115
39	0x3dd59d64	0.104304105
40	0xbe4dc636	-0.20095143
41	0x3d3bff9b	0.04589806
42	0x3e0d1f79	0.13781537
43	0x3caff51e	0.021479186
44	0xbdf5df75	-0.12005512
45	0xbccf4e5f	-0.025305925
46	0x3e3f73af	0.18696474
47	0xbc8e0ffd	-0.017341608
48	0xbe837c90	-0.2568097
49	0xbd99ab11	-0.075033315
50	0x3da89976	0.08232395
51	0x3d00ee00	0.031476974
52	0x3ea88ec3	0.3292142
53	0x3cc86815	0.024463693
54	0x3d5f988b	0.054588836
55	0x3b6d61b0	0.0036221556
56	0xbcacbc96	-0.021086019
57	0xbe47c803	-0.19509892
58	0xbe79ae3f	-0.24382876
59	0xbe38763d	-0.18013854
60	0xbd94adea	-0.07259734
61	0xbd84feec	-0.06493935
62	0x3dda7cdc	0.10668346
63	0xbecf0078	-0.40430045
64	0xbe65eee6	-0.22454414
65	0xbd8d7aaa	-0.06908162
66	0x3d4fe4e5	0.0507554
67	0xbe089e6c	-0.13341683
68	0x3d99a5ba	0.07502313
69	0xbd3fb336	-0.04680177
70	0x3ce6f3e0	0.02819246
71	0x3ec5d187	0.3863642
72	0x3ca84867	0.020542337
73	0xbe9ad0e9	-0.3023751
74	0xbd351206	-0.04420664
75	0xbd3a19eb	-0.045434874
76	0xbc30923e	-0.010777054
77	0xbe364de2	-0.17803147
78	0x3c988c8f	0.018621711
79	0x3d166690	0.036718905
80	0xbe6008ea	-0.218784
81	0x3d6d7450	0.057972252
82	0x3b2ee69f	0.0026687754
83	0xbe581ea2	-0.21105435
84	0x3d516231	0.051119033
85	0xbd0a3005	-0.0337372
86	0xbd8d7707	-0.06907468
87	0x3dacc340	0.084356785
88	0xbd5a5ac4	-0.053309217
89	0x3e1bdf35	0.15221865
90	0xbd829b15	-0.06377236
91	0xbd2ae89a	-0.041725732
92	0xbd1076f5	-0.035269696
93	0xbd1c06d2	-0.03809244
94	0xbd87d0a5	-0.06631593
95	0xbd04c4ce	-0.03241425
96	0xbd9f486e	-0.07777487
97	0xbde4457b	-0.11146065
98	0xbe9951b5	-0.2994515
99	0x3d9b37c9	0.075789995
100	0xbe15ff17	-0.1464809
101	0x3df6f813	0.12059035
102	0xbe1f0263	-0.15528254
103	0x3e17cb60	0.14823675
104	0x3d99f647	0.07517677
105	0xbd9b705a	-0.07589789
106	0xbe9722bb	-0.29518685
107	0xbe281ed5	-0.16418011
108	0x3cc38411	0.023866685
109	0xbd34f1a9	-0.044175778
110	0xbd3d728e	-0.046251826
111	0xbe8734d8	-0.26407504
112	0xbe12e48f	-0.14345
113	0xbe3cf920	-0.18454409
114	0xbdf1bafd	-0.11803243
115	0xbc6a6972	-0.014307367
116	0x3ddcb353	0.10776391
117	0x3e26130f	0.16218208
118	0xbeb97ab9	-0.36226442
119	0x3e3757aa	0.17904535
120	0x3b9243af	0.004463635
121	0xbc3415bd	-0.010991511
122	0xbe4ce77b	-0.20010178
123	0x3e70b3ad	0.23506041
124	0xbd850213	-0.06494536
125	0x3dbe5b17	0.09294718
126	0xbe1f0da7	-0.15532552
127	0xbc4bb169	-0.012432435
128	0xbd0a9c27	-0.033840325
129	0xbe1a74ac	-0.1508357
130	0x3dc7947a	0.097451165
131	0x3d159a8e	0.036524348
132	0xbe41acd9	-0.18913592
133	0x3d659a79	0.05605552
134	0xbd5e73b8	-0.054309577
135	0x3c4b507f	0.0124093285
136	0xbc42d3aa	-0.011891285
137	0xbe0407c4	-0.12893587
138	0x3e118898	0.14212263
139	0xbcdebf5f	-0.027190862
140	0x3d3c434b	0.045962613
141	0xbdd54784	-0.10414031
142	0x3c22332a	0.009899894
143	0xbd81c3ce	-0.06336175
144	0xbd6d28aa	-0.05790011
145	0x3d9baa13	0.076007985
146	0xbd11fa9a	-0.035639383
147	0x3dd27d5c	0.10277817
148	0xbe0f7032	-0.14007643
149	0x3e3db400	0.18525696
150	0x3e8794d2	0.26480728
151	0xbe089dd0	-0.1334145
152	0x3cbf0475	0.023317555
153	0xbe276118	-0.16345632
154	0x3d936508	0.071970046
155	0x3da50c59	0.08058996
156	0x3de6cd76	0.11269657
157	0xbc5825fe	-0.013192652
158	0x3d365818	0.044517606
159	0x3b817ca1	0.0039516245
160	0x3e582d82	0.2111111
161	0x3d3bbd6b	0.04583494
162	0xbd80a1b4	-0.062808424
163	0x3d94650d	0.072458364
164	0xbd97320d	-0.07382593
165	0x3dede2f1	0.11615551
166	0xbdc79b8d	-0.09746466
167	0x3e4e81d0	0.20166707
168	0x3aa2d785	0.0012423849
169	0xbd3f6077	-0.046722855
170	0xbcafcb4e	-0.021459248
171	0x3d6da05b	0.058014255
172	0x3c9ab741	0.01888621
173	0xbe8d2745	-0.27569023
174	0xbdddcb84	-0.10829833
175	0xbe3c5cba	-0.18394747
176	0xbc932af7	-0.017964823
177	0xbd7e2c55	-0.062053997
178	0xbe16647a	-0.14686766
179	0xbdc54fd0	-0.09634364
180	0xbd03dd95	-0.03219374
181	0xbdb14080	-0.086548805
182	0x3e3480ab	0.17627208
183	0xbe384d08	-0.17998135
184	0xbdee4c7b	-0.11635681
185	0xbe1ca94b	-0.15298955
186	0x3d7f95f4	0.062398866
187	0xbdbad88a	-0.09123333
188	0xbda9d53d	-0.08292625
189	0xbde232c8	-0.11044842
190	0xbdee29df	-0.1162908
191	0xbc0a1f61	-0.008430333
192	0xbe15aa46	-0.14615735
193	0xbdba79c7	-0.091052584
194	0x3dc1fd86	0.09472184
195	0x3c8ecfa1	0.01743299
196	0xbdae4512	-0.08509268
197	0x3dc09920	0.09404206
198	0x3d9f707d	0.07785127
199	0x3e01f682	0.12691692
200	0xbe9f4eb4	-0.31114733
201	0x3c0c5563	0.00856528
202	0xbdd7bb27	-0.10533743
203	0xbd2ae9e2	-0.041726954
204	0x3dfcf5fb	0.123516046
205	0x3e298204	0.16553503
206	0xbd212516	-0.03934201
207	0xbd82f549	-0.06394441
208	0x3dc5dd28	0.09661323
209	0x3cbc35d7	0.022974892
210	0x3e032850	0.12808347
211	0xbdfd9ea0	-0.12383771
212	0xbe2ec9d4	-0.17069179
213	0x3d85e2e9	0.0653742
214	0xbe1e4dcf	-0.15459369
215	0xbc54be6d	-0.012984854
216	0xbe5bb6c0	-0.21456432
217	0xbe28c490	-0.16481233
218	0x3b4f937e	0.0031673606
219	0x3d3a8a0c	0.045541808
220	0x3ba364d5	0.0049863853
221	0x3bcccee7	0.0062502506
222	0x3d8055dd	0.06266377
223	0xbe141b58	-0.14463556
224	0xbdc2145e	-0.09476541
225	0xbdac5fcd	-0.0841671
226	0x3d4f7400	0.050647736
227	0xbdd14258	-0.10217732
228	0x3cea9b49	0.028638499
229	0x3e49474e	0.19656107
230	0x3de3eac5	0.11128763
231	0x3e9b399a	0.30317384
232	0xbd5d53cd	-0.054034997
233	0xbe54351f	-0.20723389
234	0xbd3dc220	-0.04632771
235	0x3cb955d4	0.022623934
236	0x3da9c739	0.08289952
237	0xbdc8fbbe	-0.09813641
238	0xbdd6b3f4	-0.10483542
239	0x3e35e198	0.17761838
240	0xbdc06af8	-0.09395403
241	0x3e0b8436	0.13624653
242	0x3e535f17	0.20641743
243	0x3db3ca9c	0.08778879
244	0x3d173b8d	0.036922026
245	0x3e7aa566	0.24477157
246	0xbb02e054	-0.0019970136
247	0x3c423300	0.01185298
248	0xbcdab07c	-0.026695482
249	0xbcf8d785	-0.030376205
250	0x3d20213b	0.03909419
251	0x3d9ba9fb	0.076007806
252	0xbd48128f	-0.048845824
253	0x3dac92ba	0.08426423
254	0x3d47b748	0.048758775
255	0x3e028b8f	0.1274855

network_body.linear_encoder.seq_layers.4.bias f4 [128]
0	0x3d209a09	0.0392094
1	0xbb2df952	-0.0026546312
2	0xbe0311e5	-0.12799795
3	0x3cbae87a	0.022815932
4	0x3be4e3d5	0.0069851675
5	0xbe2df1aa	-0.16986719
6	0xbca763bb	-0.020433297
7	0x3dd28bd5	0.10280577
8	0x3da34f37	0.079740934
9	0xbd17edc0	-0.03709197
10	0x3d666a76	0.056253873
11	0x3bd7a14d	0.006580508
12	0x3d31e996	0.043435656
13	0xbd5d39c1	-0.054010157
14	0x3cec6dac	0.02886089
15	0xbd4abff4	-0.049499467
16	0xbc16f515	-0.009213706
17	0xbdd51104	-0.10403636
18	0xbdac4cc6	-0.08413081
19	0xbe53e150	-0.20691419
20	0x3ce9b744	0.02852977
21	0x3b9dba2a	0.0048134523
22	0x3c99caf2	0.01877353
23	0xbba38792	-0.0049905265
24	0xbd2f08fc	-0.042733178
25	0xbcb50041	-0.022094848
26	0xbcb784fb	-0.022402277
27	0x3d296b1d	0.041361917
28	0x3c332a46	0.010935372
29	0x3daa7baa	0.08324368
30	0x3d2be4c8	0.04196623
31	0xbc8de7cf	-0.017322449
32	0x3ce68d70	0.028143615
33	0xbdbb75a6	-0.09153299
34	0xbd3f2195	-0.046662886
35	0xbe589bfd	-0.21153255
36	0x3d7f6c64	0.06235923
37	0x3da1e770	0.07905471
38	0xbd5b9e77	-0.05361792
39	0x3d935c22	0.07195307
40	0xbdab37c4	-0.08360246
41	0xbd2a4db3	-0.041578006
42	0x3c34da57	0.011038384
43	0xbe3ce7cd	-0.184478
44	0xbdd3f3af	-0.10349213
45	0xbabc606d	-0.0014371999
46	0xbe023b53	-0.12717943
47	0xbdd790e8	-0.105256855
48	0xbd9084b7	-0.07056563
49	0xbd4e47bc	-0.05036138
50	0xbc64d6fe	-0.013967274
51	0xbb64e475	-0.003492621
52	0xbc6413bd	-0.013920722
53	0xbde72a86	-0.112874076
54	0x3d915340	0.07095957
55	0xbdbd5e37	-0.09246486
56	0xbd8f526d	-0.06998143
57	0x3d79e0dc	0.06100546
58	0xbcfea8cb	-0.031086346
59	0xbd185a7b	-0.037195664
60	0xbdf474b6	-0.11936323
61	0xbd8df78c	-0.069319814
62	0xbd171ef8	-0.03689477
63	0x3dc1322c	0.09433398
64	0xbe08eb11	-0.1337092
65	0xbceb4523	-0.02871949
66	0x3e0b9e15	0.13634522
67	0xbe5da635	-0.21645434
68	0x3dd13e62	0.10216977
69	0xbd6cbd4f	-0.057797726
70	0x3d6274ba	0.0552871
71	0xbcd8b5c9	-0.02645387
72	0xbd8e9b21	-0.06963182
73	0xbd8863ab	-0.06659635
74	0xbbd0bfec	-0.006370535
75	0xbd20c9b1	-0.039254848
76	0xbcac38ec	-0.021023236
77	0x3d241bf3	0.040065717
78	0xbdf386aa	-0.118909195
79	0x3d647824	0.055778638
80	0x3b755342	0.0037433659
81	0xbcd32bc0	-0.025777698
82	0xbd84a4c8	-0.06476742
83	0x3db68b69	0.08913309
84	0xbe0ea762	-0.13931039
85	0xbdd84ad3	-0.105611466
86	0xbdd6d084	-0.1048899
87	0xbd475b91	-0.04867131
88	0xbd89ce22	-0.0672877
89	0xbdcd5245	-0.10025457
90	0xbd376371	-0.04477257
91	0x3cddefad	0.027091825
92	0xbd908e84	-0.07058433
93	0xbc668484	-0.01406968
94	0xbdda6e4c	-0.10665569
95	0x3d5f8f77	0.054580178
96	0xbded405c	-0.11584541
97	0xbccf03c6	-0.025270354
98	0xbc8403a7	-0.016115023
99	0x3b384eea	0.0028123208
100	0xbd4be99c	-0.049783334
101	0xbd884dbd	-0.066554524
102	0xbdf061bb	-0.117373906
103	0x3c2aaa48	0.010416575
104	0x3d7d9e61	0.06191862
105	0xbd472420	-0.048618436
106	0x3d306997	0.04306945
107	0xbc2cba91	-0.010542528
108	0x395d018e	0.00021076782
109	0x3d125650	0.035726845
110	0xbb8cebf8	-0.0043005906
111	0xbd8bad64	-0.06820181
112	0x3d8587cd	0.065200426
113	0xbdc11c50	-0.09429228
114	0xbd743a8b	-0.059626143
115	0x3cc2abb5	0.023763517
116	0xbd15a46d	-0.03653376
117	0xbd90e879	-0.07075591
118	0x3bef2c12	0.0072989548
119	0xbda874cf	-0.082254045
120	0xbdaaa250	-0.0833174
121	0xbc273a68	-0.010206796
122	0xbd72bb84	-0.05926086
123	0xbcc7b43f	-0.02437794
124	0x3b2ec671	0.0026668573
125	0xbdf7fe3d	-0.12109039
126	0xbce91cf8	-0.028456196
127	0xbd8bd708	-0.06828123

network_body.linear_encoder.seq_layers.4.weight f4 [128, 128]
0	0xbe6a7252	-0.22895172
1	0x3db3da4a	0.0878187
2	0xbd36e7a3	-0.0446545
3	0xbe7d3be5	-0.24729879
4	0x3b89bd7b	0.004203496
5	0x3daae223	0.083439134
6	0xbe7c1884	-0.24618727
7	0xbd1c0a91	-0.038096014
8	0xbd1c2353	-0.038119625
9	0xbdccdc30	-0.10002935
10	0x3e27f51c	0.16402096
11	0x3dade2a1	0.08490492
12	0xbc088a7c	-0.0083337985
13	0x3e1eadf9	0.15496053
14	0xbdccda5f	-0.100025885
15	0x3de8ba70	0.11363685
16	0x3ce658c8	0.028118506
17	0xbd564e0c	-0.052320525
18	0xbe84c9f4	-0.25935328
19	0xbc5ec264	-0.013596151
20	0x3dda2347	0.1065126
21	0xbde4cf6e	-0.111723766
22	0x3ddff536	0.10935442
23	0x3cdf1950	0.02723375
24	0x3e0b12f9	0.13581456
25	0xbe39bbad	-0.18137999
26	0x3e47aac0	0.1949873
27	0xbdc411dc	-0.09573719
28	0xbe16810f	-0.1469767
29	0x3e6dac1e	0.23210189
30	0xbe824025	-0.25439563
31	0xbe215eb6	-0.15758786
32	0xbdaf561f	-0.08561348
33	0x3dca3d6d	0.09874997
34	0x3e96c952	0.2945047
35	0xbdf6b2ae	-0.12045799
36	0x3d667573	0.056264352
37	0x3e1d2bff	0.15348814
38	0xbd209217	-0.039201822
39	0x3e091a91	0.1338904
40	0xbd21c707	-0.039496448
41	0x3ca915b4	0.020640232
42	0x3dadb21b	0.084812365
43	0x3d0985b5	0.03357478
44	0xbdaeb4c3	-0.08530571
45	0x3e5a835b	0.2133917
46	0x3d60c225	0.05487265
47	0x3dc8619a	0.09784241
48	0xbe12761d	-0.14302869
49	0x3cb9572b	0.022624573
50	0x3da95261	0.08267666
51	0x3da48b39	0.08034367
52	0xbcf40a83	-0.029790169
53	0xbdab9d35	-0.08379594
54	0x3bc381d5	0.005966405
55	0xbdbd3b72	-0.09239854
56	0xbdb35477	-0.08756345
57	0xbe231e10	-0.15929437
58	0xbd9aca9f	-0.07558178
59	0x3dd36b88	0.10323244
60	0x3df17f83	0.11791899
61	0x3e54ee91	0.20794131
62	0x3b5ddd8a	0.0033853971
63	0xbdfbb2ce	-0.12289964
64	0x3d8929cf	0.066974275
65	0xbe0cf972	-0.13767031
66	0xbd18fd15	-0.037350733
67	0xbe022ed8	-0.12713182
68	0x3e18f6e7	0.14937936
69	0x3d7a5038	0.06111166
70	0x3d89dc9e	0.067315325
71	0x3deaa8c0	0.11457968
72	0xbc8052da	-0.015664507
73	0xbd951b06	-0.07280545
74	0xbc839172	-0.016060565
75	0x3da053f0	0.0782851
76	0xbda0698f	-0.07832634
77	0xbd226751	-0.03964931
78	0xbe21d8ad	-0.15805312
79	0x3dcaabad	0.09896026
80	0xbe0ba744	-0.13638026
81	0xbdb63991	-0.08897699
82	0x3de42b01	0.11141015
83	0x3ce32b84	0.02773071
84	0xbcb11293	-0.021615302
85	0x3ead045f	0.33792397
86	0xbc8be604	-0.017077453
87	0xbda9e8c0	-0.08296347
88	0xbd0fa403	-0.035068523
89	0x3e0e07c8	0.13870156
90	0x3ded103a	0.115753606
91	0xbd1a5136	-0.037675105
92	0xbd70685d	-0.05869328
93	0x3e002916	0.12515673
94	0x3dd88b3d	0.105734326
95	0x3d519395	0.051166136
96	0x3e85c094	0.26123488
97	0x3e9e7f15	0.3095633
98	0xbd3be722	-0.045874722
99	0xbcd00bac	-0.02539619
100	0x3d86a4f1	0.06574429
101	0x3b663a15	0.0035129834
102	0x3caa38d5	0.020779053
103	0xbbd88270	-0.0066073462
104	0xbe80c30f	-0.25148818
105	0x3c7e3b8c	0.015517127
106	0xbe4ee740	-0.20205402
107	0xbd012d3d	-0.031537283
108	0xbdd1e610	-0.10248959
109	0x39fa1400	0.00047698617
110	0x3d49441c	0.04913722
111	0x3d357ad9	0.04430661
112	0xbe9458b1	-0.28973916
113	0x3bd3ba3c	0.00646141
114	0x3dd2985d	0.10282967
115	0x3b5ab88c	0.0033374159
116	0xbd253c0a	-0.04034046
117	0xbd494d94	-0.04914625
118	0xbd7e36ca	-0.06206397
119	0xbb6ed6e4	-0.0036444003
120	0xbc13c1a8	-0.009018339
121	0x3c398642	0.011323513
122	0xbe2d1e5a	-0.1690611
123	0xbe2de664	-0.16982418
124	0xbdf71413	-0.12064376
125	0x3c2fa111	0.010719554
126	0xbd12b5ff	-0.035818096
127	0xbcd9c9a1	-0.026585402
128	0xbea1c18e	-0.31592983
129	0x3d45c338	0.04828188
130	0x3d62a8b7	0.05533668
131	0xbe051b43	-0.12998681
132	0xbc8e28ef	-0.017353503
133	0x3dd85766	0.10563545
134	0xbd1489e6	-0.036264323
135	0x3ca401d2	0.0200204
136	0xbd199c7b	-0.037502747
137	0xbe5fb608	-0.21846783
138	0x3d6af08a	0.057358302
139	0x3d3b6003	0.04574586
140	0x3e17beb2	0.14818838
141	0xbc5c2858	-0.013437353
142	0x3e0fdeaa	0.14049783
143	0x3dda4736	0.10658114
144	0xbe0377c2	-0.12838653
145	0xbe951657	-0.29118606
146	0xbd65de22	-0.056120045
147	0xbcdf177b	-0.027232876
148	0xbe9b08c4	-0.30280125
149	0x3dfe3102	0.12411691
150	0xbc830129	-0.015991764
151	0xbd689542	-0.05678297
152	0x3d460da0	0.048352838
153	0x3e08da86	0.1336461
154	0x3e4af8a0	0.19821405
155	0xbc7b10aa	-0.015323797
156	0xbcdd2c85	-0.026998768
157	0x3d8de61c	0.069286555
158	0xbd79214e	-0.060822777
159	0x3e10173a	0.1407136
160	0x3c8a46a2	0.016879383
161	0xbd21cad1	-0.03950006
162	0xbd88c429	-0.066780396
163	0xbc0aed0b	-0.008479367
164	0xbee1d5e3	-0.44108495
165	0x3e19f656	0.15035376
166	0x3e09888c	0.13430995
167	0xbdcacfe2	-0.09902932
168	0x3d6d6bc3	0.057964098
169	0x3df4de67	0.119564824
170	0xbe05768d	-0.13033505
171	0x3df60f08	0.12014586
172	0xbdade335	-0.08490602
173	0x3e3ce8f7	0.18448244
174	0xbd4c2b6d	-0.0498461
175	0xbe24c4a9	-0.16090645
176	0x3d878ff3	0.06619253
177	0xbda86a7e	-0.08223437
178	0x3e245a71	0.16050126
179	0x3c59b605	0.013288026
180	0xbd4b3a3c	-0.049616084
181	0xbc8bea06	-0.017079365
182	0xbe68e03c	-0.22741789
183	0xbdfeb401	-0.12436677
184	0xbe8c3f49	-0.27392033
185	0x3e09af02	0.13445666
186	0xbeb43912	-0.3519979
187	0xba097e02	-0.0005244912
188	0x3e075481	0.1321583
189	0xbd704532	-0.05865974
190	0x3e512cab	0.20427196
191	0xbdfbc861	-0.122940786
192	0x3e50cc71	0.20390488
193	0xbc5b0b9e	-0.013369469
194	0xbe2f3759	-0.17110957
195	0xbd68d71b	-0.056845766
196	0x3e28ddcb	0.16490857
197	0xbd8e110b	-0.069368444
198	0xbe0cf7cf	-0.13766406
199	0x3dd2c176	0.10290806
200	0x3cfc12dd	0.030770713
201	0xbd99bccc	-0.07506713
202	0x3d003939	0.03130457
203	0xbe0f4cb5	-0.13994105
204	0xbdd0bbf2	-0.10192098
205	0xbe67bc3a	-0.22630396
206	0xbc5a915e	-0.013340322
207	0x3d5f758f	0.054555472
208	0xbe0cb0c9	-0.13739313
209	0xbd797689	-0.06090406
210	0x3e111c08	0.1417085
211	0x3de3893c	0.1111016
212	0xbc6f4282	-0.014603259
213	0xbd7dda03	-0.06197549
214	0x3da44519	0.08020992
215	0xbe1b6109	-0.15173735
216	0x3d404a77	0.046946015
217	0x3d6e57e0	0.058189273
218	0xbe2011bb	-0.15631764
219	0xbc253614	-0.010083694
220	0xbe477ee3	-0.19481997
221	0xbe148f0b	-0.14507692
222	0x3b94c1ef	0.0045397202
223	0xbd5c9cf6	-0.053860627
224	0xbc9342fe	-0.01797628
225	0x3e5e6fc1	0.21722318
226	0x3cf907e4	0.03039927
227	0xbdc54e6d	-0.09634099
228	0x3e08bb4d	0.133527
229	0xbdcb7538	-0.09934467
230	0x3dd3291e	0.10310577
231	0xbdba821e	-0.09106849
232	0x3c8bc2ca	0.017060656
233	0xbe361be6	-0.1778408
234	0xbdc3f022	-0.09567286
235	0x3cf678a4	0.030086823
236	0xbd5b1124	-0.053483143
237	0x3ca5eb6d	0.020253861
238	0xbe5a9877	-0.21347223
239	0xbdad626c	-0.08466038
240	0xbe91f890	-0.2850995
241	0x3d1000b2	0.035156913
242	0x3e14b35c	0.14521545
243	0xbe3ed06e	-0.18634197
244	0x3c07d1fd	0.008289811
245	0x3a1c0c70	0.0005952781
246	0xbd201c6c	-0.039089605
247	0xbce6a2e1	-0.028153839
248	0x3d5775ed	0.052602697
249	0xbeca11ef	-0.39466807
250	0x3dc4ba32	0.096058264
251	0x3db07e1d	0.08617804
252	0x3e65417c	0.22388262
253	0xbd1be24d	-0.038057614
254	0xbe442e36	-0.19158253
255	0xbdf85ecf	-0.12127458

network_body.vector_processors.0.normalizer.running_mean f4 [55]
0	0x3f7ce03f	0.9877967
1	0x3f7e30a1	0.9929295
2	0x3f7e6813	0.99377555
3	0x3f7f2392	0.9966365
4	0x3f7ca81a	0.98694
5	0x3f7dfae8	0.9921098
6	0x3f7dab08	0.990891
7	0x3f7eca7c	0.99527717
8	0x3f7e0032	0.9921905
9	0x3f7ecb53	0.99529
10	0x3f7d4196	0.989282
11	0x3f7e4601	0.9932557
12	0x3f7d90e2	0.990492
13	0x3f7eaeb7	0.99485344
14	0x3f7bf22f	0.9841642
15	0x3f7d3e1b	0.9892289
16	0x3f7b6f3f	0.98216623
17	0x3f7d8905	0.990372
18	0x3f7bb3ad	0.9832104
19	0x3f7d24c5	0.9888423
20	0x3f7dd8d5	0.99158984
21	0x3f7ec10a	0.99513304
22	0x3f7ebea9	0.99509674
23	0x3f7f64c1	0.99763113
24	0x3f7cef8a	0.9880301
25	0x3f7e0149	0.9922071
26	0x3f7d8f5c	0.99046874
27	0x3f7eccae	0.99531066
28	0x3f7d998a	0.99062407
29	0x3f7e6ab7	0.99381584
30	0x3df30b6e	0.118674144
31	0xbf904f5a	-1.1274216
32	0xbe1a4254	-0.15064365
33	0xbe0523f4	-0.13001996
34	0x3dea04e5	0.11426715
35	0xbea9e4cc	-0.3318237
36	0x3dd0b544	0.10190824
37	0x3e738399	0.2378067
38	0xbe91ae4c	-0.2845329
39	0x3edf0ab5	0.43562856
40	0x00000000	0.0
41	0x00000000	0.0
42	0x00000000	0.0
43	0x00000000	0.0
44	0x00000000	0.0
45	0x00000000	0.0
46	0x00000000	0.0
47	0x00000000	0.0
48	0x00000000	0.0
49	0x00000000	0.0
50	0x00000000	0.0
51	0x00000000	0.0
52	0x00000000	0.0
53	0x00000000	0.0
54	0x00000000	0.0
