Assets/Scripts/1.0 Ball&Target/BallEngineAI-Continue.onnx (onnx, 139580 bytes, 11 tensors)

69 f4 [6]
00000000: f5da 8e40 0cab d03d 2a46 9040 60cc 9140
00000010: 4814 5a3d cf06 9440
4.464228 0.101888746 4.508565 4.556198 0.053241998 4.625831

action_model._continuous_distribution.log_sigma f4 [1, 2]
00000000: ddb6 4cbe f67d ffbd
-0.19991632 -0.12475197

action_model._continuous_distribution.mu.bias f4 [2]
00000000: 3971 77ba 26a6 4b3c
-0.0009439174 0.01242975

action_model._continuous_distribution.mu.weight f4 [2, 128]
00000000: ca0a 2f3d cfbb 853a be41 6e3d 06c5 56bb
00000010: f460 9b3c 3dc4 c73c c307 873b 8a1e 823b
00000020: 86a3 273d 22cb cc3c 8d02 c93d 83bd 46bd
00000030: fa2f ba3c 6e95 8abc 94e6 bd3d 542e c2bc
00000040: e15a 933d 027c 07bd 5074 bf3c 2d5f 7d3d
00000050: d723 f73d 8f51 4a3d 2002 85bd 26cd 8abd
00000060: 72b0 443c c03c 13bb 8226 cf3d cb54 f6bc
00000070: 5803 54bc 02da 6ebd c9a7 3abd 1fdf ffbc
00000080: af57 8abb d68f 25bc 6563 74bc 4271 3d3b
00000090: 3679 25bd a175 f5bc 5f64 0ebd d833 5ebd
000000a0: caa5 f73a 5fcd b0bd 6935 1ebc c977 5f3d
000000b0: e213 b03d 3299 c33c 1e71 55bb 2c3d d43c
000000c0: cfad 463d b8e2 7fbd 8217 fcb8 493f b1bd
000000d0: e484 84bd a685 0f3d 0de7 75bd a026 823b
000000e0: 5de9 863c 22d8 1d3d 0a6e df3d 027d ef3d
000000f0: eb69 f2bc 0153 4e3d 1fbb f53d c011 01bd
00000100: d589 07bd 4db9 d23b 81df 013d 78a9 f3bc
00000110: c03d 4ebd f0a3 a13d c08a dcbd 6381 74bd
00000120: 1f6e 803d fa56 803d 1f88 7b3d e2ef 4b3c
00000130: cd4a ef3c 2381 46bc 45a3 85bd 5b83 75bc
00000140: 1f4b 75bc 18c2 743d 2375 14bd 326e 94bb
00000150: b41f 533d c6f0 c2bd 5a34 443d 7fd9 9e3a
00000160: 4d98 06bc 2114 8ebd d3b8 6cbc 656d 853d
00000170: 5a1e 7fbd 9143 493d 105e 413d 5ad8 bf3c
00000180: ca69 b1bc 64ad bf3d e864 a43d d5a3 4c3c
00000190: af93 623d 72f3 9fbb cc52 593d 23e7 003b
000001a0: 947d babc de40 80bd 3bb0 28bc a7f5 ffbb
000001b0: 2a20 e03c 6dff 65bd fceb fb3c 8b5b 333d
000001c0: e824 0fbd 4d80 99bc 807a 173c 3632 98bc
000001d0: 00d3 393d cc3d cd3d dc54 fc3a 193f bb3d
000001e0: e6e4 6e3d 9c81 debc 2dd3 c73d 934c 04bc
000001f0: 6142 c33d 20ab edbc 4bc3 af3d 401e 0dbd
00000200: d6d6 ad3d afdd b33d c377 4abd bd45 333c
00000210: 7a79 123d 1090 a33d 88d8 ea3b db64 a03d
00000220: 6ab9 98bd 5003 673d 656c f33a 71bc 0cbc
00000230: 2e75 3abd d3fb ca3a 326b 1c3b a025 8dbc
00000240: 4021 4e3d 7974 a9bd 68a7 013e e216 c8bc
00000250: b1b9 df3c 6e3c 92bd aad7 61bd c8b3 aebc
00000260: 0271 7ebd 31f5 95bd 5c7e 22bd 3329 8f3d
00000270: a3c3 0d3d 1849 dc3b bc89 293b 07fb 84bd
00000280: 48dd 7dba fcab 213c 359b 923d eef8 953d
00000290: 76e4 72bd cdb6 cf3d d3cf cd3c cff5 50bd
000002a0: 6dfc 74bd ec12 463d d456 283a ebe8 30bc
000002b0: d89a b7bb 5dc3 1e3c f996 00bd 88c6 2c3d
000002c0: 9371 86bd a809 8f3c 2238 b53d 30de 7a3d
000002d0: b328 89bd be60 fa3b eb37 903d eb1f 7abc
000002e0: 9e4c 883d 61c3 27bd 578c 19bd 366f 7f3c
000002f0: e1bd 9dbd ee18 233d 6911 163c 60af 333d
00000300: e4eb d4bd 9273 43bd 6fb8 993d c14a 82bd
00000310: 7c74 943d 9a65 123d e76c b33c 4c3d 413d
00000320: 8a46 28bd a215 37bd c8b3 06bd 6a46 2ebc
00000330: fbce 95bd 3875 bfbd d85b a93b bd15 cc3b
00000340: dc04 a1bd d954 303d 2fb2 ec3b 3670 e4bd
00000350: 4730 81bc c028 f73c a9a5 113d 7969 19bd
00000360: dc55 cc3d 0240 94bb 4ed5 ba3c 82d7 26bd
00000370: 3ba4 0e3d 0d3e 89bc 2457 8a3d f027 be3d
00000380: 5682 8c3d 8ed3 fd3c d1c6 07bd 2f68 23bd
00000390: d098 f1bc 7fa4 373c 543a 603c 0dc1 4b3b
000003a0: fcd5 1e3c 0b8c 113d 97cb 63bd 7a02 073d
000003b0: e4cf cbbc be25 97bc 1f1c 35bd 7841 bb3d
000003c0: 8a95 3f3d 18a0 233c d02e 9abb 0e39 17bd
000003d0: 7849 6bbd 9b89 4e3d 8531 8039 80ed ee3d
000003e0: ac62 b7bb 68ce 75bd 1ccc 22bd 492c a5bd
000003f0: 7401 2dbd c86e cfbd 259e dc3c ad77 a4bd
0.0427349 0.0010203066 0.058168165 -0.0032771244 0.01896713 0.024385566 0.0041207983 0.0039709257
0.040927432 0.024999205 0.0981494 -0.048520576 0.022727955 -0.016916957 0.09272495 -0.023703732
0.07195068 -0.033077247 0.023370892 0.061858345 0.12067383 0.049394187 -0.06494546 -0.0677741
0.0120049585 -0.002246663 0.10114767 -0.03006973 -0.01294025 -0.058313377 -0.04557017 -0.031234322
-0.0042218785 -0.010105094 -0.014916276 0.0028906618 -0.0403988 -0.029963316 -0.03476369 -0.05424866
0.0018894013 -0.086329214 -0.009656289 0.054557595 0.08597542 0.02387676 -0.0032568644 0.025908075
0.0485056 -0.062472075 -0.00012020675 -0.08654649 -0.064706594 0.035039566 -0.0600348 0.0039718896
0.016468698 0.0385362 0.1090966 0.11693765 -0.029591521 0.050372127 0.11998581 -0.03151107
-0.03309043 0.006430781 0.03170729 -0.029743895 -0.05035186 0.07892597 -0.10768652 -0.059693705
0.06271004 0.062665895 0.061409112 0.012447329 0.029210472 -0.0121157495 -0.06525282 -0.014984931
-0.014971524 0.059755415 -0.036244523 -0.004529738 0.051543906 -0.0951858 0.04790149 0.0012119262
-0.008215022 -0.06937433 -0.014448362 0.06515006 -0.062284805 0.049136702 0.047208846 0.023418594
-0.02165689 0.093592435 0.08027059 0.0124902325 0.055316623 -0.004881316 0.053057477 0.0019669018
-0.022764958 -0.062623724 -0.010295923 -0.0078112665 0.027359087 -0.056151796 0.030752175 0.043788474
-0.034947306 -0.018737936 0.009245515 -0.01857863 0.04536724 0.100215524 0.0019251364 0.09142894
0.058323763 -0.027161412 0.097570755 -0.008074897 0.09534145 -0.029012263 0.08582171 -0.034452677
0.08488242 0.08782517 -0.04943062 0.01094192 0.03576038 0.07986462 0.007166926 0.07831737
-0.0745724 0.056399643 0.0018571733 -0.00858985 -0.045521908 0.0015486426 0.0023867604 -0.017229855
0.05032468 -0.082741685 0.12661517 -0.024424974 0.027310224 -0.07140432 -0.055137314 -0.02132596
-0.06211949 -0.07322157 -0.039671287 0.0699028 0.0346104 0.0067225806 0.002586945 -0.06493192
-0.00096841576 0.009867664 0.0715851 0.0732287 -0.05929991 0.10142288 0.025123512 -0.05101567
-0.059811044 0.04835789 0.000642163 -0.0107977195 -0.0056031756 0.009690133 -0.03139398 0.04218152
-0.06564631 0.01746066 0.08848597 0.06124705 -0.06697216 0.007640927 0.070419155 -0.015266399
0.066552386 -0.040957812 -0.037487354 0.01559048 -0.07702232 0.039818697 0.009159424 0.043868423
-0.10396555 -0.04771764 0.07505881 -0.063619144 0.0724878 0.035741426 0.021902515 0.047177598
-0.041082896 -0.044698365 -0.032886297 -0.010636905 -0.07314869 -0.093485296 0.0051684193 0.0062281773
-0.07862255 0.043049667 0.0072233896 -0.11154215 -0.01577009 0.030170798 0.035558376 -0.037454102
0.09977314 -0.004524232 0.02280679 -0.040732868 0.03482459 -0.01675322 0.06754902 0.09284961
0.06860797 0.030984666 -0.03314859 -0.03989428 -0.029491812 0.0112086525 0.0136857815 0.003109041
0.009694573 0.035533946 -0.05561408 0.032961346 -0.024879403 -0.018450614 -0.04421627 0.091433465
0.04677347 0.0099869 -0.0047052875 -0.036919646 -0.057443112 0.0504242 0.00024450957 0.11666393
-0.0055964794 -0.060011297 -0.039745435 -0.08065087 -0.042237714 -0.10128552 0.026930878 -0.08030639

network_body.linear_encoder.seq_layers.0.bias f4 [128]
00000000: 0702 16bc ec38 febc 1d5f 053d 39fc 72bb
00000010: 5a25 3a3d 4e27 4bbb 1ade abbd 3e7b bdbc
00000020: 0f15 413d eba0 bbbb c390 4f3c 4937 283d
00000030: c8f2 4fbd 1c18 21bc d81a eb3b 9591 05bb
00000040: 5ec7 343d 4627 023c 8493 33bc 6243 99bd
00000050: 447d 65bd 4422 57bd 0f83 f53c 466d 73bd
00000060: 601a 4ebd 35d6 17bc 07a2 9bbc 0956 1f3c
00000070: d6b3 17bd 3c0a 50bc 7e3e cdbc 89c9 253d
00000080: e215 e13c 0c1c 8f3b 63fd 583c 432e 64bc
00000090: 4bb6 babc e67f 743d 4520 0e3d ef9a ae3b
000000a0: b835 90bb 2322 59bd 8b6e efbb f7ef 83bd
000000b0: e1cc afbb b959 57bd 7d9c f4bc 4f9c 07bd
000000c0: 7313 7fbd 0f20 e5bc 7e39 113d 52f5 89bd
000000d0: 6049 8f3c 652a 00bd a38a d33c b046 b43c
000000e0: 286d 87ba 93c5 5e3d 93f1 e53b c784 29bb
000000f0: 9b15 b93c e9bf 9abb ccc7 14bc 1a91 f5bc
00000100: a895 f73c 13f9 18bd c10e dbbc de45 87bc
00000110: 3bdc 993c c130 d33b a319 c5bb 5cf3 093c
00000120: 1d57 023d 3af0 52bd 739e 833c 04a0 533d
00000130: 1872 3f3c 9ab2 90bc af3f 263d b611 593d
00000140: 0745 023d 12cc 9cbc 4c93 433c 3022 e0bc
00000150: 448e 0f3d 198b 7e3c 330a 90bd 9414 e1bc
00000160: d64a cfbc 1afd 8cbd 7e43 bd3d e004 3c3d
00000170: c18f b53d 172a f8bb 0032 283d 9000 903c
00000180: 02b0 0abb e0d4 cc3c 6bc8 afbd 2b5f 3a3d
00000190: c300 d4bc a217 ae3c bdaa 19bc a2e1 193c
000001a0: c436 683c 14d4 c33d 09bf fe3c bad2 b23c
000001b0: 0a9c 1ebc f452 a1bc 4702 b63c 426c 8ebd
000001c0: 7896 953d 7c2c 9d3d b383 dcbb b72f c63b
000001d0: d4a8 5d3d 2734 c6bc 9f96 093c 22d0 edbc
000001e0: 9154 53bd d8e5 89bb e6ac 74bc da61 373d
000001f0: 8c74 57bb 9010 3b3c ff9f 0b3c 53e8 a0bc
-0.009155757 -0.031033002 0.03256141 -0.0037076606 0.045445777 -0.003099877 -0.08391972 -0.023130056
0.047139224 -0.00572597 0.012668791 0.04106835 -0.050768644 -0.009832408 0.007174831 -0.0020380963
0.044135444 0.007943934 -0.010960463 -0.074835554 -0.056027666 -0.052522913 0.02996972 -0.059430383
-0.050318122 -0.0092673795 -0.01899816 0.009725102 -0.03703674 -0.012697753 -0.025054213 0.040475402
0.027476255 0.004367357 0.013244006 -0.013927045 -0.022792002 0.059692286 0.034698743 0.005328528
-0.004400935 -0.05301107 -0.007306879 -0.06442254 -0.0053649996 -0.0525758 -0.029859776 -0.033108052
-0.062274408 -0.027969388 0.03545522 -0.06736244 0.017491043 -0.03129043 0.025822943 0.022006363
-0.0010332214 0.05438764 0.0070173233 -0.0025866495 0.02259331 -0.0047225845 -0.009080838 -0.029976416
0.030222729 -0.03734691 -0.026740434 -0.016512807 0.018781772 0.006445021 -0.006015019 0.008419838
0.03182136 -0.05149863 0.016066765 0.051666275 0.011684917 -0.017663289 0.040588077 0.052995406
0.03180411 -0.019140277 0.011936974 -0.027360052 0.035047784 0.015536093 -0.07033195 -0.027475633
-0.02530424 -0.06884213 0.09241389 0.045903087 0.088653095 -0.007573377 0.04106331 0.017578393
-0.0021162038 0.02500385 -0.085831486 0.045500915 -0.02587927 0.021251503 -0.009379086 0.009392174
0.014173213 0.09561935 0.031096952 0.021828998 -0.009680757 -0.019692875 0.022217883 -0.06954242
0.0730409 0.076745 -0.006729567 0.0060481685 0.054116085 -0.02419479 0.008397727 -0.02902991
-0.05159432 -0.0042083077 -0.0149338 0.044771053 -0.0032875864 0.011417523 0.008522033 -0.01964203

network_body.linear_encoder.seq_layers.0.weight f4 [128, 6]
00000000: d34d 0cbf 7413 a63e bedc 8b3e ed02 04bd
00000010: 2574 443f 2189 64bf 5907 a93a 179a 47be
00000020: 5c35 03be f902 a83e 2ff0 69bf 3395 a3be
00000030: 68d2 20bf c13c e43e 4a9b 1d3f d058 ee3e
00000040: 8765 e7bc 1c54 1bbe a457 8fbe 49ae bf3e
00000050: 7652 163c 3d29 5f3e c3c7 5ebe 0202 d33e
00000060: 796b b1be 42ea 7fbe 6a61 80be 2efd 883e
00000070: e597 053c b76c 813e 5055 27bf 3087 1d3e
00000080: 65b8 32bf 8b17 39bf 7c72 3ebf 6d28 27bf
00000090: 68df 89be 7cb5 613d b194 643e e705 c0bc
000000a0: f8c6 c33e cb3f ce3e 5226 463e c209 d8be
000000b0: 1f5e 2f3e 022f 28bf ab26 c9be 9ac8 f63c
000000c0: 848a 6a3f 8673 b53e 50a3 a7be 96b3 6e3d
000000d0: 4eb4 aabd 3d42 22bd 0ece 2d3e f29e dfbc
000000e0: 4d6f 18bd b07f fcbe 54f8 9d3e 8c68 28bf
000000f0: 7480 c3be be7f 933f eebb 893e 66ba 2d3f
00000100: 2f9d 113d 65f9 0cbf 0040 18bf 0c8a a93f
00000110: 20c3 37be 4457 b9bd 3730 0c3f db0d 023f
00000120: 1e8a e2bb af8a 72bd 7c70 ef3e 3a12 353f
00000130: 7414 44be 291e 29be fb11 a7be 7a45 37bd
00000140: ac4f 173e 6d76 303f c66e cc3d 67b7 59bd
00000150: 06a3 9ebe 6b65 463e 08eb 37be 99be a43e
00000160: 6e1e 963e 0abd a9be fb1a 023f f5ec 18bf
00000170: 8307 c63e 29c1 843e d3a7 5a3e dc6a 11bf
00000180: 27a3 2d3f 7d5d 4e3f 68b8 aebd 772a 66be
00000190: acad c73c 14a2 dcbe 79cc df3e 0561 96bd
000001a0: 4f53 f63e 3104 303e 9506 143f d429 ffbe
000001b0: 2045 ffbe 8fcd 363f 4fe1 873d 8eca c33e
000001c0: 193e 3b3f b6bf 25bd 51c9 28bf 4c73 9abd
000001d0: b05f e2be 8def 69bf 5926 a53c ed3c 0b3f
000001e0: f1fa 8e3e 2bdc 94bf 056f 3bbc 310f 8e3e
000001f0: 28e6 993e 7433 f4bc 0a0c 8f3c ac56 ecbe
00000200: e2db f0be b336 1dbf e77f 35be ed5e f4be
00000210: 4d32 c43e c952 ad3e 0a82 453d 8a40 14bd
00000220: 5ce7 edbc 8057 d43d 122d 2ebe 76c4 bbbe
00000230: 4149 163d d67e 2abd 2e32 bf3e 5326 1fbe
00000240: 94ad e6be 24b7 6bbe 8a71 1c3e 693e b23d
00000250: 186b 0bbc 8761 15be 1312 aa3e fb91 203f
00000260: 38a4 cdbd 4fe6 813d a30b 2a3f 0b79 26be
00000270: 0eea f1bd 6075 633d dc5d 52bd 7c24 3c3d
00000280: 91b2 463f e370 963d 0e48 5c3e cdac 07bd
00000290: 49c2 e0be 17d9 02be f934 c93e fa23 dc3b
000002a0: 85af 05bf 1984 ef3d 36af fa3e 339c dcbd
000002b0: 2e4f c43c f05b e13c 5ee2 b4bf 516f e73d
000002c0: 42ea ab3e c33a 87be 13dc 083f c749 2fbe
000002d0: 5f6c 8c3e 6711 98bd 41ad bbbe b391 943e
000002e0: 9d54 af3e 429f 903e 95d5 f2be 8fa6 abbe
000002f0: ed91 203f d4bc 473e 6f87 0d3f 3e32 64bf
00000300: 5e86 5abf b76e 62bd b456 183b 32ac fb3e
00000310: a83e b2be 3531 fdbe 7370 c63d a4ca 1f3f
00000320: 9c1d 2d3e 8c0a 1cbe cc0a d2be a3d1 93bc
00000330: bb01 6f3d 9dbb d03e a3a4 173f d264 d03e
00000340: a5b8 85bd d088 5f3d 50d2 2f3d 6a8c ee3e
00000350: 410e 0bbe 1fa5 70bd 59df afbe 5bbb f73a
00000360: e822 09bf 733f 0d3e 363d 1ebe ec4a febe
00000370: db89 f83d 1e2d 52be 7b99 d93e 8832 88bd
00000380: e3e4 183f 92c5 a0be cb2c 763f 4d50 9fbe
00000390: b9b8 adbe 67d8 a63e 00d7 303f 9109 62be
000003a0: faaf 18bf 978b 23bf f1bb 083e b112 34bf
000003b0: cf28 a33d f91d 68bf ccc9 7d3e 704a bcbe
000003c0: 387e 0fbe 5551 103d c4be afbd ade3 203f
000003d0: 396f 90bc 36cb bbbf c616 bc3e 4ca7 dcbe
000003e0: 2e56 87be 31c7 8a3e 9bd6 1ebe d3b4 13bf
000003f0: 7fbc 4a3d 25b6 68bf 983b 3bbf b5b0 883d
-0.5480625 0.32436717 0.2731685 -0.032229353 0.7673972 -0.8927174 0.0012895867 -0.19492374
-0.12813324 0.32814768 -0.91382116 -0.31949767 -0.62821054 0.44577602 0.6156508 0.46552134
-0.028246654 -0.15168804 -0.27996552 0.37437657 0.009174934 0.21793075 -0.2175589 0.4121247
-0.34652308 -0.24991706 -0.2507432 0.2675566 0.00815389 0.25278255 -0.6536455 0.15383601
-0.69812614 -0.7230155 -0.7439344 -0.6529606 -0.26928258 0.055104718 0.22322346 -0.023440314
0.3823774 0.40283045 0.19350556 -0.42194945 0.17125748 -0.6569673 -0.39287314 0.030124951
0.9161761 0.354397 -0.32741785 0.058276735 -0.08335172 -0.03961395 0.16973135 -0.02729747
-0.03721552 -0.49316168 0.30853522 -0.65784526 -0.3818394 1.1523359 0.2690119 0.67862546
0.035550293 -0.55068046 -0.59472656 1.3245254 -0.17945528 -0.09049848 0.5476107 0.5080239
-0.0069134375 -0.05921429 0.46765506 0.70730937 -0.19148427 -0.16515411 -0.32630906 -0.044743992
0.14776486 0.68930703 0.09982066 -0.05315342 -0.30983752 0.19374625 -0.17960751 0.32176664
0.2932009 -0.33152038 0.5082242 -0.5973657 0.38677606 0.2592862 0.21353082 -0.5680368
0.67827076 0.806114 -0.085312665 -0.22477137 0.024374805 -0.43092406 0.43710688 -0.07342724
0.48110434 0.17189099 0.57822543 -0.498366 -0.49857426 0.7140741 0.06634771 0.38240474
0.7314163 -0.040466033 -0.65932184 -0.075415224 -0.4421363 -0.9138115 0.020159887 0.5438984
0.27925828 -1.162969 -0.011440043 0.27745965 0.30058408 -0.029809691 0.017461795 -0.46159875
-0.47042757 -0.6141159 -0.17724572 -0.47728673 0.38319626 0.33852223 0.048219718 -0.03619436
-0.029040985 0.10368252 -0.1700938 -0.36673325 0.036690954 -0.041624866 0.37342972 -0.15541963
-0.45054305 -0.23019081 0.15277687 0.0870331 -0.00850942 -0.14587985 0.33216915 0.6272275
-0.10041088 0.06342756 0.66424006 -0.16257112 -0.118122205 0.05553186 -0.051359043 0.04593323
0.7761622 0.0734575 0.21511862 -0.03312378 -0.43898228 -0.12778126 0.39298227 0.006718156
-0.52220947 0.116951175 0.489618 -0.1077198 0.023963537 0.02750966 -1.4131582 0.11300529
0.33577162 -0.2641202 0.53460807 -0.17117988 0.2742643 -0.07425194 -0.3665562 0.2901741
0.34244242 0.28246504 -0.47428575 -0.33525512 0.62722665 0.19505626 0.5528478 -0.89139163
-0.8536128 -0.055281367 0.0023245038 0.49154812 -0.34813428 -0.49451604 0.09689417 0.6241858
0.16905826 -0.15238398 -0.41023862 -0.018044299 0.05835126 0.40768138 0.5923559 0.4070192
-0.06529359 0.054573834 0.04292518 0.46591502 -0.13579656 -0.05875122 -0.34350088 0.0018900441
-0.5356889 0.13793735 -0.15453038 -0.49666536 0.12135669 -0.20525023 0.4249991 -0.06650263
0.59724253 -0.31400734 0.961621 -0.31115952 -0.33929995 0.32586977 0.69078064 -0.22073962
-0.5964352 -0.6388487 0.13352944 -0.7034102 0.07966768 -0.90670735 0.2478401 -0.3677554
-0.14012992 0.035233814 -0.085813075 0.62847406 -0.01763116 -1.467139 0.36736125 -0.43096387
-0.26432937 0.27105096 -0.15511553 -0.5769779 0.04949617 -0.9090293 -0.7313781 0.06674329

network_body.linear_encoder.seq_layers.2.bias f4 [128]
00000000: 2d6c c4bc 31f5 83bd b3e1 143c b67d 02bd
00000010: 619d 53bd c0a7 14bc cc4d 6bba a983 8abc
00000020: b770 253c 0ba5 f63b ecaf cd3b 262e 5bbd
00000030: 3020 fabc ee2a 153b c667 b73c 3f12 33bd
00000040: 7f83 0bba ecb4 3a3c ffb9 16bd e3bd 36bc
00000050: a8bd 033d 7c9b 15bd 8ece 93bc 321b 9139
00000060: 11b4 433c f1bd a4bc ffe6 04bd a455 c8bb
00000070: 4ae4 93bd 1ab7 25bd 67fd 2e3c 11cd f1bc
00000080: d255 a2bb 7f71 a93c 9c84 9dbc 0f13 233c
00000090: e2d9 083d 2450 36bd 2517 c2bc 7970 863d
000000a0: 8999 463b d4ba 27bc 755f ac3b f127 7f3d
000000b0: 1cc5 473d 801b a23c 3be0 e13b 419b c63b
000000c0: 71c2 39bd 3c65 103d a191 f13c 0e72 50bd
000000d0: 7363 27bd 61c2 aebd 13e2 4c3c e035 853c
000000e0: f47a 163d d641 5f3d b188 0dbb 75f8 423b
000000f0: 6981 493c 5861 c1bc 9836 d03c 6472 f3bb
00000100: a751 28bd bff1 78bc f9fc 75bd a6fb 26bd
00000110: c379 30bc 7ad4 f83c 18fb a2bb 3217 35bb
00000120: 683b da3b 1e6b 55bb 5feb 86bb 9909 10bd
00000130: 860a 3ebc 813e c6ba 12e1 60bd bcb9 abbd
00000140: 766e 0c3d f18f 153d e14b a1bb 21aa 613c
00000150: 0375 66bd 8bf5 233c 34a9 1f3c 6e04 97bb
00000160: 56d7 13bd 2b39 f23c b6e1 863c cae9 1dbd
00000170: 5eac ae3b 9c43 d2bd 32e4 cebc bb43 0abe
00000180: 24c0 48bc e622 f23b a488 a03c c178 a8bb
00000190: 5142 8fbd 3382 333d 403e 303d 8fbf ab3c
000001a0: b6bf 93bd 880f d13b 9b90 2ebd 67bd 28bd
000001b0: 97d5 b03c 1f62 233d f71c 9fbc e97e b8bd
000001c0: 7fbd c8bd 4d52 86bb 2c11 4bbd 9aaa cdbb
000001d0: be41 d9ba c393 e13b 4f51 98bc 7e68 7cbd
000001e0: e41f 79bb fb95 babd 0216 c4ba 18a1 0bbd
000001f0: f727 afbd 0692 babc a340 dcbc 3e8b 9fbd
-0.023977363 -0.06443251 0.009087014 -0.03185817 -0.05166376 -0.009073198 -0.0008976131 -0.016908484
0.010097674 0.007526999 0.006277075 -0.053510807 -0.030532926 0.0022761184 0.02238835 -0.043718573
-0.00053220236 0.011395674 -0.036798473 -0.011153671 0.032163292 -0.036525235 -0.018042829 0.00027676817
0.011944787 -0.020110102 -0.032446858 -0.006113725 -0.07221277 -0.040457822 0.010680533 -0.029516729
-0.0049540782 0.020684002 -0.019228272 0.009953274 0.033410914 -0.04451002 -0.023692677 0.06564421
0.0030303916 -0.010237414 0.005260403 0.06229395 0.048771963 0.019788504 0.0068931854 0.006060988
-0.04535145 0.035252795 0.029488387 -0.05089002 -0.040866327 -0.085331686 0.012505072 0.016261041
0.03673835 0.054506145 -0.0021596367 0.0029750143 0.01229892 -0.023605987 0.025416657 -0.007429408
-0.041093495 -0.0151943555 -0.060055707 -0.040767334 -0.010771218 0.030374754 -0.0049737804 -0.0027632234
0.006659914 -0.0032565068 -0.004117414 -0.035165403 -0.011599189 -0.0015124829 -0.054902144 -0.083850354
0.03428503 0.036514226 -0.0049223755 0.013773472 -0.056263935 0.0100072725 0.009744931 -0.0046086824
-0.036094032 0.029568275 0.01646505 -0.038553037 0.0053306064 -0.10266802 -0.025255296 -0.135024
-0.012252841 0.007389414 0.019596405 -0.005141348 -0.06995071 0.04382534 0.043028116 0.020965366
-0.072143 0.0063800253 -0.042618375 -0.041196253 0.021586223 0.039888497 -0.019422991 -0.09008581
-0.098017685 -0.0040991665 -0.049576923 -0.006276441 -0.0016575379 0.0068840696 -0.018593458 -0.06162309
-0.0038013393 -0.09110638 -0.0014960172 -0.034089178 -0.085525446 -0.022774708 -0.02688629 -0.0779023

network_body.linear_encoder.seq_layers.2.weight f4 [128, 128]
00000000: 4c7b c83c 4d46 55bd c7e8 1ebd 327b 03be
00000010: bff8 4ebd abf7 753d 1b9a e6bc 7175 033e
00000020: 1d1a a83c 23f5 673e d317 ae3c 86d8 18bd
00000030: 413c a3bd ba4a 183e daba 5f3d 55d3 a43e
00000040: 3090 67bd 9acd 763c 861d 36be 6ac2 32bc
00000050: 21ba 103e 12b8 e73a 8ff4 373d be09 c33d
00000060: c6e0 2ebc 9fd6 e4bd 3dc9 e43d 96ce 0ebe
00000070: 6bd5 eabd db81 b4bd 3ab0 6c3d 0f5e f1bc
00000080: 84ab f1bc ab1b 133e d59f 093e cf7f a43d
00000090: 3ed5 2c3d 1332 54bd 3021 98bd 13c1 a33c
000000a0: 797c d2bc a29c f23d 9121 293c 4173 603d
000000b0: ab80 ec3d 7de8 4dbd e7f7 0b3e 2df9 163d
000000c0: 8661 f03d 5ea0 a63d 3ffd 14bd 5a01 1a3b
000000d0: a428 0ebd 5d5e 0d3e 741d 7ebc 648c bf3b
000000e0: 4194 00bc 5899 623d a16b 9a3b aa84 413e
000000f0: a753 a23d e461 20be 0ceb 133e 5346 5f3e
00000100: 6a11 b0bd 898c fdbd 47e2 58bd 4c79 053e
00000110: d0ea 3a3b 1a38 e8bc 9fb5 b33d 7f13 2e3e
00000120: 2971 78bd 2d49 b23d c668 3c3e 9e13 75be
00000130: 1708 34bd 25ab 50bd f9d2 9ebd 2e15 1e3d
00000140: 8358 2f39 70ff a43d f790 c2bc 65f2 b3bd
00000150: 18a6 81be 86ad 843c 4203 803d ba33 dbbd
00000160: 9103 81bd df36 a63b adc2 e83c 2313 32bd
00000170: 48bb 55be de29 373e 0f07 b7be 2877 a5bd
00000180: 8cb7 ac3d 4b94 a53d 86d5 7a3c b397 6b3d
00000190: 78bf 71bd ce4b 153e 89dd 00be 57a5 9bbd
000001a0: 3d4a 29be b472 543d 8bf8 713e 16ea ba3d
000001b0: 664e 22bd f40c 7b3d 65b0 8238 5847 96bd
000001c0: 0b6c 0cbc d7d1 bbbd d423 28be 6b02 563d
000001d0: 64c7 22bd a44f 01ba b22f fabd b85e 2b3e
000001e0: 1ae9 b23c 4686 2b3e e466 e0bc 9f93 4ebc
000001f0: 4fd3 f6bc 7c45 dbbd 62e3 92be bb6f 373e
00000200: 9f42 cf3d 7d1b 463b 46d2 b43d 85ea 09bd
00000210: 5ad5 aebd 002a 6ebd 8bfb 203d b332 083b
00000220: 2d2d 5ebe 5072 2bbe 79d3 8a3d f68b 6bbd
00000230: 3da0 a8bd 39d8 523c 3efc 883d 79e1 c13c
00000240: 4329 b8bd 9762 95bc 7bbb da3d 12be a8bb
00000250: dbbb 473d d4a7 b53c 91aa 88bd d199 97bd
00000260: 4209 9b3d 56fc a73d 1e17 a63d 5d7a f63b
00000270: c3bf 93bd 034b 463c d094 9b3d e876 db3d
00000280: 5097 963d e3ce 3bbe 1c60 a3bd ee4c 9ebd
00000290: dee2 1f3e 94ba 8dbd aabf 7cbc 7047 bb3c
000002a0: eecc a83c 1e3a c4bd cd61 b0bd bd3d febd
000002b0: 2e44 42bc d80d bc3d 8f08 403b cc20 dc3d
000002c0: 2855 d3bb 2d87 61bd 4ad0 8e3c 9fec 9cbc
000002d0: ee68 d93d cabd dc3d 0b6b 813d 8b73 0c3e
000002e0: ecb2 9a3c 6f3c 0dbe 4455 44be 862f 8a3c
000002f0: 5548 59bd 675d dc3b 8785 4c3c d144 d1bc
00000300: 67d5 0fbd 0b4b 02be e6b0 69bd a996 f9ba
00000310: a2f9 bbbd b878 98bc b53e 693d c9ad 8c3d
00000320: 19c5 0cbe 3364 ecbb e0f7 013d 8cdb 2dbe
00000330: 8477 d9bc 4487 d7bd 34a4 0ebd 1ff6 4bbe
00000340: 05cb 9abd 3617 583c 0562 b4bd 254d bc3c
00000350: c444 fcbb 6559 983c 4ae7 df3d e671 543c
00000360: cc51 1b3e 0c9e e1bd 25e7 24bd 15fa 0b3e
00000370: 5008 03be 6459 103e dae2 ddbc ab3e 683c
00000380: 6349 2a3d 22cd d1bc 5199 9a3d bb20 07bc
00000390: e0bb b03d 6fd7 a63c 2e24 023b e922 3bbe
000003a0: 3f8a 883c 9a9f b0bd 488a c73d 1e27 a7bd
000003b0: b922 aa3b 14dc 04bc 3f64 55bd 8950 04be
000003c0: 54c5 54be ae1a 76be 39ff 113e 06c0 ca3c
000003d0: 50c3 71be 0464 3a3d 6116 34be a9dc 1a3b
000003e0: f181 21bd 0691 7cbd 164e b83d 9f83 02bd
000003f0: e8be 4bbd 06b0 063d 54d7 07be 5e66 5e3d
0.024472855 -0.052068997 -0.038796213 -0.12839964 -0.05053019 0.060050648 -0.028149655 0.12837769
0.020520264 0.22652106 0.021251595 -0.037315868 -0.07970477 0.14872256 0.054621555 0.32192484
-0.056533992 0.015063668 -0.177847 -0.01091061 0.14133503 0.0017678759 0.044910964 0.095233425
-0.010673707 -0.11173748 0.11171196 -0.13945994 -0.114664875 -0.088138305 0.05778525 -0.029463796
-0.02950073 0.14366023 0.13439877 0.0803219 0.04219555 -0.051805567 -0.07428205 0.019989526
-0.025694119 0.118462816 0.010322944 0.054797415 0.11547979 -0.050270546 0.13668786 0.036858726
0.11737351 0.08136056 -0.036374327 0.002349934 -0.034706727 0.13805528 -0.015509952 0.0058455933
-0.0078478465 0.05532202 0.0047125374 0.18898264 0.07926112 -0.15662342 0.14445132 0.2180417
-0.085970715 -0.123803206 -0.05295017 0.13034552 0.0028521307 -0.028347064 0.08774876 0.16999625
-0.060654793 0.087053634 0.18399343 -0.23933265 -0.043953028 -0.050944466 -0.077550836 0.038594417
0.00016722274 0.08056533 -0.023750765 -0.087864675 -0.25322032 0.016196024 0.062506214 -0.107032254
-0.06299508 0.005072459 0.028413141 -0.04347528 -0.20872223 0.17887065 -0.35747573 -0.08079368
0.08433446 0.08084925 0.015309697 0.05751772 -0.05902049 0.14579698 -0.12584509 -0.075998954
-0.16532226 0.051867202 0.23629968 0.091266796 -0.039625548 0.06129165 6.231739e-05 -0.073378265
-0.008570681 -0.09170883 -0.16419917 0.0522484 -0.039740935 -0.0004932827 -0.122161284 0.16735351
0.021839667 0.1675044 -0.027392812 -0.012608438 -0.030130057 -0.107066125 -0.28689104 0.17913716
0.10120129 0.0030228787 0.08829169 -0.03367092 -0.08536787 -0.058145523 0.03930239 0.0020782172
-0.2169692 -0.16742826 0.067786165 -0.057506524 -0.08233688 0.012868934 0.066887364 0.023667084
-0.08992245 -0.018235488 0.1068029 -0.0051496113 0.048763137 0.022174753 -0.06673158 -0.07402385
0.07570125 0.08202426 0.08109878 0.007521911 -0.0721431 0.012102845 0.07596743 0.10716039
0.07353079 -0.1834064 -0.07977316 -0.07729517 0.15613887 -0.069203526 -0.015426556 0.022861212
0.02060553 -0.095813975 -0.08612404 -0.124141194 -0.011857076 0.09182328 0.0029301976 0.10748443
-0.0064493604 -0.055060554 0.017433304 -0.019155798 0.10615717 0.10778387 0.06319245 0.13715951
0.018884145 -0.13792585 -0.19173151 0.016868364 -0.053047497 0.0067250016 0.012483007 -0.02554551
-0.035115626 -0.12723939 -0.05705347 -0.0019042093 -0.09178473 -0.01861225 0.056944568 0.068690844
-0.13747062 -0.007214093 0.031730533 -0.16978282 -0.026546247 -0.10523847 -0.034824565 -0.19918106
-0.07558254 0.013189128 -0.08807758 0.022986004 -0.007698627 0.018597314 0.10932787 0.012966609
0.15167922 -0.11016473 -0.0402595 0.13669617 -0.1279614 0.140966 -0.02708571 0.014175097
0.041573893 -0.02561051 0.07548774 -0.00824755 0.08629584 0.020366399 0.001985799 -0.18275036
0.016667483 -0.086241916 0.09743172 -0.08161758 0.0051921275 -0.008109111 -0.052097555 -0.12921347
-0.207784 -0.24033615 0.14257516 0.024749767 -0.23609662 0.04550554 -0.17586662 0.002363006
-0.039430562 -0.061661743 0.08999269 -0.031863805 -0.04974261 0.032882713 -0.13265735 0.054296844

network_body.linear_encoder.seq_layers.4.bias f4 [128]
00000000: ec84 073d 71f8 263d afaf 403d 609a 29bc
00000010: dbbb 95bc 69e9 6c3d 97e9 80bb fc67 dc3c
00000020: db8b f73c 8e2b 203c 92bb 633d c3ac 293c
00000030: f00e 20bb f1c6 aebc b817 353d 02cf 52bb
00000040: 163f c63c f569 f73c 79b0 843d 68df 223d
00000050: 3beb 903d 138d 1d3d c98f 503d a518 c83c
00000060: daef f13b 3f3c 6c3c 9e85 733d 484d 563d
00000070: e478 133c e4fc 6e3c 8542 323c 86bb 993c
00000080: fdb9 813c 305b 22bc 51d6 9b3c 3aa6 3b3c
00000090: 7c69 2c3d 887f 013d 3d9c 013c ddb2 313d
000000a0: a151 033d 06bd 813d 8b2b 82bc b6b7 73ba
000000b0: a62e bd3c 12b1 433b 4d5b 643b 1720 1ebc
000000c0: 03eb 1a3d 8492 cb3b 51bb 813d 5a4b 5f3d
000000d0: 6728 1e3d e0b6 563b e54f 273d 3a2c babc
000000e0: c547 d53c 0d5c bb3c d65b 143d 700e 6d3d
000000f0: e704 0f3d 58b3 7e3a aa2e 763d 2a49 d7bc
00000100: b506 493d 46c6 6239 2a67 f03c d622 703c
00000110: fa1c f73c 05e5 143d 4cad 593d a128 0d3d
00000120: 6236 f43c ff01 403d 0130 083d 9039 93bc
00000130: 1728 443c bb91 133d 28c1 ff3c 6aa7 71bc
00000140: 2ccd 293d 0d10 b83c 772b 433a bf13 1c3d
00000150: 7233 423c 13bc 2e3d ab36 583c bc3c e53b
00000160: 1f8e 2a3d ce7f b83c 4c91 8ebc 8761 ba3c
00000170: b827 fa3c 1693 6d3c b28e 0e3d 9415 3c3d
00000180: 3ad4 2a3d 49dc 923d d90b 613d 06f1 d53b
00000190: b6f6 3c3d 27f9 a5bc b59c 9b3c ae2e 983c
000001a0: ac1d dcbb eba9 7f3b d803 be3b 7887 893a
000001b0: f5f5 0c3c 8965 753c 6e0a 8c3c 88ce 2e3d
000001c0: 4290 a63b 371f cebb 533e ac3b c6cb 2b3b
000001d0: 4b60 053d d438 603d 661e 8c3c 4bab 8b3d
000001e0: 0b36 cc3c a206 babb 93ec 173d d9a3 0b3d
000001f0: f734 283d 585a 073d d22d 4f3d 46c1 bc3c
0.03308575 0.040764276 0.047042545 -0.010351747 -0.018278053 0.057839785 -0.003934096 0.026905052
0.030218055 0.009776009 0.055598803 0.010356131 -0.0024422966 -0.021335097 0.044212073 -0.0032166843
0.024200004 0.030201891 0.06478972 0.039763838 0.07076117 0.038464617 0.050918374 0.024425814
0.007383329 0.014418661 0.0594536 0.052319795 0.009000991 0.014586661 0.010880117 0.018766176
0.015835756 -0.009909436 0.019023092 0.011453206 0.042092785 0.031615764 0.007910785 0.043383468
0.03206027 0.063348815 -0.015889904 -0.00092970894 0.023093533 0.002986018 0.0034844459 -0.0096512055
0.03782178 0.0062125344 0.06334556 0.05451522 0.03861275 0.003276281 0.040847678 -0.022726167
0.026035199 0.022871042 0.036220394 0.057875097 0.034916785 0.00097160554 0.060103096 -0.026280005
0.049078662 0.00021626902 0.029346067 0.014656743 0.030165184 0.036351223 0.053143784 0.034462575
0.029811088 0.046876904 0.033248905 -0.017971784 0.011972449 0.03602765 0.031220034 -0.014749387
0.041455433 0.022468591 0.00074451364 0.03810477 0.011853086 0.04265983 0.013196628 0.0069957655
0.041639443 0.02252188 -0.017403267 0.022751583 0.030536518 0.0145004 0.034804054 0.045919016
0.0417063 0.07170922 0.05494294 0.0065289764 0.04613372 -0.020260407 0.018995622 0.018576946
-0.0067174044 0.003901119 0.005798798 0.0010492643 0.008603563 0.014977821 0.017094817 0.042677432
0.005083115 -0.006290342 0.005256453 0.0026213988 0.032562535 0.054741696 0.017104339 0.06819781
0.024928113 -0.00567706 0.03709085 0.034091804 0.041066136 0.033045143 0.050580807 0.023041379

network_body.linear_encoder.seq_layers.4.weight f4 [128, 128]
00000000: cb24 f83c 32e1 02bd bfbe 55bd a83c 4fbb
00000010: b77d c4bd 1f8d a2bd f827 cb3c 8cf7 5abd
00000020: 8913 bcbc 301a 073c 3754 2ebd 0337 c63d
00000030: e46d 74bd 721b 2cbe b2a7 363d 9680 30be
00000040: bad6 16bc 735b 88bb 4b7a d6bd e9ea b9bd
00000050: b89a b4bc 7ef7 8e3c ad90 a0bc e7b9 e43d
00000060: f8a1 e13d 42f5 013e b19d 98bd eda0 2fbb
00000070: b89b 8abe f466 813d dbdc 98bc 938e 71bc
00000080: d94b 60be dedd 703e 333b 923c 3fdc 6cbe
00000090: 104f 18be 3064 37bd ee18 bfbd a3f0 80be
000000a0: 40f0 7abd 5841 113e 7107 033e 87fb d83d
000000b0: e5d1 f53d d790 e33c 02d6 1abd 7038 083e
000000c0: a99c ec3d cd8e d33c 9ecb 01be 391f 33be
000000d0: 885e febd 1530 6dbd 58ba f7bd 9652 16bd
000000e0: 5421 fbbd bb3a 2a3d a72f 2c3d f431 cf3d
000000f0: 923f 053d 3da7 0a3d 50c2 fabd 9208 e0bd
00000100: a2c5 5e3e 22a1 32be ceda 3dbe 2b39 5dbc
00000110: b1c5 02bd a542 333c 56ad 1bbd 2cec 923d
00000120: 6893 4bbd c7ca c63b cb0a 60bd c738 90bd
00000130: 99ee 523d 5267 a43c 507f 34bd c6ac debc
00000140: 8419 9bbc 9b48 15be 3c57 1f3e bea2 833c
00000150: 8ddf 173d bf83 ccbd 0351 2a3c 159e 87bd
00000160: 24b4 ef3d b7e8 9f3d 7556 833b 4f5d 4e3d
00000170: 7658 85bd b726 95bd 04d7 79bd 67ec d23c
00000180: 302b b93d 9941 b6bd 8f42 1a3d 4ecd 053e
00000190: 7b86 7b3b 698f 4abd fd34 12be b1ac 29be
000001a0: 970b 863d a1d6 14bd c793 f2bd 582c 15bd
000001b0: 316b 43bc 47db 10be 7cae 123e cf5e 1cbd
000001c0: a731 a2bc abf5 9d3d 078d 1abd d226 1f3d
000001d0: 9831 3bbc 5987 403b 6325 a63c 1099 29be
000001e0: 4d71 fcbd 4071 af3d b936 d43d 98d5 4fbd
000001f0: b3ef 83bc 3149 ddbd a6ee b9bd fe7e 7fbc
00000200: 9e4f 543d cf7b 15be 9ea9 92bd d976 bfbd
00000210: 060f 8bbd 186d ad3c 236c 58bd 6862 493e
00000220: 1840 15bc 376a df3c 2ebc 91bd 46df 363a
00000230: 4018 953d 6238 20be bf85 02be eaeb 2f3d
00000240: c642 c8bc 261c 543e 9388 bb3d 6658 9fbd
00000250: 3d0a 5c3c 0ab5 10be 14af 3c3c a41a 8dbc
00000260: fb2a 283e 5801 11be 5f67 e4bc a11b e63d
00000270: 8071 94bc 8e91 8b3e a5b9 09be 5c60 19bd
00000280: c581 e4bd 438d 343d e17c 6ebd 4322 d0bd
00000290: b190 9dbe d049 97bd 62a6 09bd 91ad 2ebe
000002a0: f2b5 dd3c 68d8 403b adbb 99bd 08bf 223d
000002b0: a2fd 343d e3d5 edbd 0c40 09be db7a 8ebb
000002c0: 07f5 2fbd 2241 b53d b3bc 813d 3878 0cbe
000002d0: b09b 39be 7dcc 00be 5edf 2abe 4338 90bd
000002e0: d1fc 96bd f809 d43d 5b79 15bd fde2 e23d
000002f0: 6870 21bd 4c84 f03c 8ff1 083d 9b5c 19be
00000300: de82 253e 52bb 16bc 0b92 073d 86b9 833c
00000310: bd2b c43c 5d84 113c be8a a4bb 330d e93b
00000320: abe7 52bd 5477 683d 8334 c5bc 7c68 523e
00000330: bf3f 013e 029a 2cbe 8f69 eabd 42e8 a1bd
00000340: bf73 673e f096 c03c dbeb 563c 1454 6cbc
00000350: abb1 48bd 2455 8e3c 7e09 12bd f8c9 87bc
00000360: fee7 6e3e b28b 04bd c465 85bc ea74 18be
00000370: 3334 153e 263e 363e 1091 18be db23 6ebd
00000380: 488e 933d d226 47bc 2845 973d 82f0 463c
00000390: d894 de3d 8547 783d 29d4 c7bd 6676 6fbe
000003a0: 5cde 963d 1e3f acbc 01e7 8bbd d2ad 4abd
000003b0: a3fb e2bd 315c 39be eece 1a3d 19c8 513d
000003c0: 69b9 f23c 0ef4 aa3d 89f2 8abd 1909 0abd
000003d0: d7ca f2bd 8018 31be a397 1c3d d606 cfbc
000003e0: 6a37 073e 0503 5dbd 2be9 503b 83b3 483c
000003f0: a917 003d 1b56 6cbe b77e d8bd 385a c53d
0.030290982 -0.031953044 -0.052183863 -0.0031621847 -0.09594291 -0.07937073 0.024799332 -0.053458735
-0.022958534 0.00824599 -0.042560782 0.096784614 -0.059675112 -0.16807345 0.04459352 -0.17236552
-0.009206468 -0.004161292 -0.10472544 -0.09078009 -0.022046432 0.017451998 -0.019600237 0.111682706
0.11017221 0.12691215 -0.07451952 -0.00267988 -0.2707193 0.06318465 -0.01866 -0.014743465
-0.21903934 0.23522136 0.017850494 -0.23130892 -0.1487391 -0.04477328 -0.09330927 -0.2518359
-0.061264277 0.14185083 0.12795807 0.1059485 0.12002925 0.027779026 -0.03780175 0.13302779
0.11553318 0.025824929 -0.1267533 -0.17492379 -0.12420374 -0.057907183 -0.12096089 -0.036699854
-0.12262216 0.041559916 0.042037632 0.1011695 0.03253133 0.033850897 -0.122440934 -0.10939135
0.21755078 -0.1744428 -0.18540499 -0.013502399 -0.031926814 0.010941182 -0.038007103 0.071739525
-0.049701124 0.0060666534 -0.054697793 -0.070420794 0.051497076 0.020068798 -0.044066727 -0.027181994
-0.018933065 -0.14578478 0.15560621 0.016068812 0.03707843 -0.09986066 0.010395291 -0.06621949
0.11704281 0.07808059 0.004008109 0.050381955 -0.06511013 -0.07282775 -0.06099607 0.025747491
0.090414405 -0.088992305 0.03766113 0.13066599 0.0038379717 -0.049453173 -0.14278026 -0.16569783
0.06545179 -0.0363375 -0.118445925 -0.036419243 -0.011927412 -0.14146148 0.14324373 -0.038176354
-0.019799067 0.07712873 -0.03773215 0.03885538 -0.011425398 0.0029377548 0.0202815 -0.16562295
-0.12326298 0.085665226 0.10362 -0.05074081 -0.016105508 -0.10804976 -0.09078722 -0.015594242
0.05183374 -0.1459801 -0.07161258 -0.0934884 -0.06789975 0.021170184 -0.052837502 0.19666445
-0.009109519 0.027272327 -0.071159706 0.00069760194 0.07280016 -0.15646508 -0.12746333 0.042949595
-0.024445903 0.20713863 0.09156909 -0.077805325 0.013430175 -0.14131561 0.011516351 -0.017224617
0.16422646 -0.14160669 -0.027881322 0.112357385 -0.018120527 0.27259487 -0.13449724 -0.03744541
-0.11157564 0.04408003 -0.058224563 -0.10162785 -0.30774453 -0.073871255 -0.03360594 -0.17058398
0.027064297 0.0029425863 -0.075064994 0.039732963 0.044187196 -0.11613061 -0.13403338 -0.0043481416
-0.042958286 0.08850314 0.0633482 -0.13717735 -0.18125796 -0.12578006 -0.1668677 -0.07041981
-0.0737244 0.10353464 -0.036492687 0.11078451 -0.03941384 0.029359959 0.033433493 -0.14976732
0.16163203 -0.009199934 0.03309826 0.016079675 0.023946637 0.0088816555 -0.005021422 0.007112169
-0.051490467 0.056754425 -0.024072891 0.2054767 0.12621973 -0.16855624 -0.11445915 -0.07905628
0.22602747 0.023509473 0.013117756 -0.014424343 -0.048997562 0.017374583 -0.035653584 -0.016575798
0.23330685 -0.032359786 -0.016283877 -0.14888349 0.14570694 0.17797145 -0.14899087 -0.058139663
0.07204872 -0.012155252 0.073862374 0.0121423025 0.108682334 0.06061508 -0.09757263 -0.23385009
0.073666304 -0.02102619 -0.0683117 -0.049482174 -0.11083152 -0.18101574 0.037795 0.05121622
0.029629426 0.08347331 -0.06784541 -0.033700082 -0.11855095 -0.17294502 0.03823055 -0.025271814
0.13204733 -0.053957958 0.003187726 0.01224983 0.031272564 -0.23079722 -0.10571044 0.096363485

network_body.vector_processors.0.normalizer.running_mean f4 [6]
00000000: 83af e93d d26a fa3e 7453 4abf 6d08 12bf
00000010: a0f2 833e f901 c3be
0.11410429 0.48909622 -0.7903359 -0.57044107 0.25771046 -0.38087443
