Assets/Scripts/1.0 Ball&Target/BallEngineAI-201946.onnx (onnx, 139580 bytes, 11 tensors)

69 f4 [6]
00000000: 2685 6740 e0f1 e73d 29ab 7740 c419 0f40
00000010: 260c 233b 6b56 1040
3.6175017 0.11325431 3.8698218 2.2359476 0.0024879067 2.2552745

action_model._continuous_distribution.log_sigma f4 [1, 2]
00000000: 2d37 43bd 72a8 dbbd
-0.04766004 -0.10725488

action_model._continuous_distribution.mu.bias f4 [2]
00000000: e401 973d 0e07 8f3d
0.073734075 0.069837674

action_model._continuous_distribution.mu.weight f4 [2, 128]
00000000: cc60 d23d 5537 3dbd 1f85 f4bc 7b54 80bd
00000010: a85c 14bd 644b 6c3c 93f0 a3bd 779d 8d3c
00000020: 1e91 683d 0379 d63c 916b 9e3c 6d9b 8aba
00000030: 606e bcbd c90b 92bd a779 73bd 7a7a 513d
00000040: d93c 48bd 5f50 be3c aa5a 333d 46ef b73b
00000050: fe5c 12bd 9fab e6bb 5ca8 a93d aa1a 61bb
00000060: 3560 133d 43b1 90bc e703 7dbd f066 34bd
00000070: 4e20 9a3c 5cae 8cbd 02ba 343d ae4a 2d3d
00000080: 1814 0abd 5ae0 40bd 4766 6fba 6b98 53bc
00000090: 45cd 29bd 9cb3 103d 4752 b73b 3e31 25bd
000000a0: ea54 403d 4518 973c 5a44 8c3c a047 debc
000000b0: eb77 03bd 8e90 1abd 388b dcbc bf99 bbbd
000000c0: 3b21 d0bd 1b47 a83d 192b 73bd 6991 38bd
000000d0: 2d52 c23c a31c 0c3d 47f7 2c3d 86bc 7c3d
000000e0: e111 21bd b13d d73d 80bf a33d 0356 413d
000000f0: 637d 1bbd 4b44 733d e349 a33b caf3 f23c
00000100: 91a8 723d 6938 26bd c331 69bd f4c8 933d
00000110: d709 1f3c bde1 573d 28ab a6bb 9dc4 423d
00000120: 6483 313c 1d34 bbbc 646e 60bd 2ec5 2cba
00000130: 4814 c2bd 63ae 073c b243 23bd aff5 e1bd
00000140: eb91 603d fc15 583d 8a2f 423d 1ed4 b43d
00000150: 2331 01bd eff6 3dbd 5c2c 863d 9a2f cd3c
00000160: 43e9 80bd fb1c 67bd 9e7d bb3d b38b 9e3d
00000170: dacc fabb 8cf7 593d 8811 f0bc eba8 083d
00000180: 8bbb 853c 2472 52ba e398 ecbc 8fad 9dbc
00000190: fef0 b03d ce26 61bd f11e 013d 05ab 313d
000001a0: 04e6 17bd ca33 ceba f17b 81bc 265d 4cbd
000001b0: 341b 37bd 5c09 0ebd a9f1 963d d4fb 83bc
000001c0: 3145 2abd c7c6 c53d 66ce a73c 7a0a a1bd
000001d0: 3161 3abd 271d ae3d 31bb 033c 1105 643d
000001e0: 7b95 bfbc 454e c03c 64c8 47bd 7036 723d
000001f0: 8020 e93c c085 e5bb c27d 443d eabb 7d3d
00000200: 0200 abbc a13b e9bc 6ef4 98bc cdac 00bd
00000210: fc1f 89bd 7173 a93d 5a77 99bd 6a43 a439
00000220: de27 e6b9 7a1d 80bd 61bf 09bc 28ae 17bd
00000230: f98b 85bd 89dd 0ebd a50c 26bd fa1e 403d
00000240: 40bb 683d fbf3 993d 192e 463d b4ed 0b3d
00000250: 9ebe 703d ffc7 303d 5738 043c 5950 efbd
00000260: 0c6d 963d 3640 56bd 3531 c7bc 153b 9ebd
00000270: b514 543d f0be 34bd 8d9f 5ebd a153 0abd
00000280: 84af b0bd 7e0e 62bd c406 2fbc 09f1 693c
00000290: bcc6 803d 9f3e 1ebd d7e3 9a3c c74b ce3b
000002a0: 9f25 a33d 15ea a63c a637 5d3d 249b 00bd
000002b0: ec29 ec3c a2e7 a2bc a828 d0bc 2f5e 573d
000002c0: e7a4 49bd 13d7 fb3c e3c7 8dbd c10e c8bb
000002d0: ff9b 963d f162 403d 1b3d 033d 54a0 d23d
000002e0: aa57 4d3d 760d 1a3d 20b1 41bd af02 1c3d
000002f0: 0d63 c0bb 81ec 4f3d 4f56 2c3d 61e2 73bc
00000300: a6f2 023c 1752 ea3c 4671 2ebd e436 363d
00000310: fd39 b8bd a9ed 713d a72b 8dbd 5a40 70bd
00000320: 9e4c 113d aeb6 413c c3cd ab3c 809b 213c
00000330: 4a28 c1bc 0f97 dd3c 582a b43d 7a47 3d3a
00000340: 9591 89bc 3da2 71bc a58c 563d 5190 623c
00000350: 3458 5bbd 5d40 20b9 8d42 a1bd 5a21 d6bd
00000360: da00 7bbd 9646 a4bb 5925 1d3d b0d4 d23c
00000370: 000b aa3d 7cb2 a83d e247 1539 80d0 8d3c
00000380: b6f0 933d 1fb2 093d da2b 88bd b146 8fbd
00000390: 445d 063c f048 bebc eb23 54bd 6cdc 243c
000003a0: 84e9 3cbd 8361 5cbd 0a18 c43c 5c4d 9bbc
000003b0: c9bb 803c 3e70 2e3c 2649 ca3c f795 61bd
000003c0: 9632 2dbc 587a 3f3d c239 3b3d 4c7d 6ebd
000003d0: 8623 1e3d e64a 9dbc aa59 833d 9b4b 80bd
000003e0: ff90 a7bd cdcb 9abc fb02 c7bc 955c af3c
000003f0: fd38 5f3d eb8a b03b 963b 8c3d e30f b0bd
0.10272369 -0.046195347 -0.029848633 -0.06266113 -0.036221176 0.014422271 -0.0800487 0.017287
0.05677902 0.02618075 0.019338401 -0.0010574885 -0.0920074 -0.07131154 -0.05944219 0.051142193
-0.048886154 0.023231683 0.043787636 0.0056132404 -0.035733216 -0.007039502 0.08284065 -0.0034348168
0.035980422 -0.01766265 -0.0617713 -0.04404348 0.018814232 -0.06869194 0.044122703 0.04230755
-0.03371057 -0.04708896 -0.0009132367 -0.012914757 -0.041455526 0.03532754 0.005594525 -0.040330164
0.04695598 0.01844419 0.017122436 -0.027133763 -0.032096785 -0.037735514 -0.026921853 -0.09160184
-0.10162588 0.08216687 -0.059367273 -0.04506055 0.023720825 0.034206998 0.04222801 0.061703227
-0.03932369 0.105098136 0.0799551 0.047201168 -0.037961375 0.0593913 0.004983173 0.029657263
0.05924279 -0.04058114 -0.056932222 0.07216063 0.009706936 0.052705515 -0.0050863214 0.047550786
0.010834549 -0.022851998 -0.054792777 -0.00065906614 -0.094765246 0.008281323 -0.03985948 -0.110331886
0.05482666 0.05275534 0.047408618 0.08829521 -0.031541 -0.046378072 0.0655143 0.025047112
-0.06294491 -0.056424122 0.09154819 0.07741489 -0.0076538147 0.053214595 -0.029305235 0.033364218
0.016324779 -0.00080278725 -0.028881496 -0.019247798 0.086397156 -0.054968648 0.03152365 0.043375988
-0.037084594 -0.0015731987 -0.01580617 -0.04989352 -0.044703677 -0.034676895 0.07370312 -0.016111292
-0.041569892 0.096570544 0.02048416 -0.07863326 -0.045502845 0.08501654 0.008040235 0.055668894
-0.023386708 0.023474822 -0.04877509 0.059133947 0.02845788 -0.0070044696 0.047971494 0.061946787
-0.020874027 -0.028470816 -0.01867124 -0.031414796 -0.06695554 0.08273972 -0.07493468 0.00031330745
-0.00043898722 -0.06255622 -0.008407445 -0.037031323 -0.06520838 -0.03487924 -0.040539403 0.04690454
0.0568192 0.07517239 0.048383806 0.03416224 0.058775537 0.04315948 0.008070073 -0.11685247
0.07345018 -0.05230733 -0.024315456 -0.07726113 0.05177756 -0.044127405 -0.05435138 -0.03377116
-0.08627227 -0.055189602 -0.010682765 0.014278659 0.062879056 -0.03863394 0.01890747 0.0062956545
0.0796616 0.02037529 0.05400815 -0.031397954 0.028828584 -0.019885842 -0.025410011 0.052580055
-0.04922953 0.030742204 -0.06922891 -0.0061052744 0.07353973 0.046969358 0.032040697 0.102844864
0.05013243 0.037610494 -0.04728806 0.038088497 -0.005871183 0.050762657 0.042074498 -0.014885516
0.007992422 0.028603597 -0.042588495 0.04448594 -0.089954354 0.05906454 -0.06893092 -0.05865512
0.03547346 0.011823339 0.020972138 0.009863734 -0.023578782 0.02704957 0.08797139 0.00072204287
-0.016793052 -0.014748153 0.052380223 0.013828353 -0.053550914 -0.00015282766 -0.07874022 -0.1045558
-0.06128011 -0.0050132973 0.038365696 0.025736183 0.08302879 0.08237168 0.00014236526 0.017311335
0.07223646 0.033617135 -0.06648989 -0.06995905 0.008200947 -0.023228139 -0.051792067 0.010062318
-0.046121135 -0.053803932 0.023937244 -0.018957786 0.015714543 0.010646878 0.024693083 -0.05507466
-0.010571143 0.046747535 0.04570938 -0.05822496 0.038608097 -0.019200753 0.064135864 -0.062644206
-0.08181953 -0.018896008 -0.024293413 0.021406451 0.054497708 0.005387654 0.068473026 -0.0859678

network_body.linear_encoder.seq_layers.0.bias f4 [128]
00000000: 92fb a63d 76a9 053e 60bd 973a d818 b2bc
00000010: 1388 823c c7d4 dbbc fe89 48bb e62e 5bbd
00000020: 21cc e1bd 748f fcbb a20d bdbc 40b8 633c
00000030: 21bc e2bd 487f 80bd a6fc 52bd 2a9a 4ebe
00000040: 66ba df39 50e0 2fbd 68dc b03d aa13 133e
00000050: 97fb 593d d3a4 cb3c 2c17 083e 1541 b83d
00000060: 1806 8dbd 1c45 84bd a89b 91bc 5d64 d93c
00000070: 04e2 0e3e 8311 c73d 5008 833d 3b02 013e
00000080: 5515 9b3d 9663 873d dc78 01be 4665 e83d
00000090: ad68 e3bb 1076 6fbd f60b fdbc 52c4 723e
000000a0: 3e22 34bd 276a eabd e1c7 1ebe 086a bfbd
000000b0: 37f6 6a3d c140 173e 013c 003d 4fe9 11bc
000000c0: c8ed acbd de2e b93d cd9a 52bd e6ca 26bd
000000d0: 3a96 103e fb10 c5bd 9ed3 7fbd ab6c 433d
000000e0: d5b0 8e3d dc21 70bd 7b59 06be 68a2 42bd
000000f0: f455 05be 877e 783b c2d1 cb3d 1fc3 89bd
00000100: 0944 4d3c c54e 0f3e e176 e1bd ecdd 973b
00000110: 1a2a e7bd b4e0 0dbe c763 163e b113 4e3d
00000120: 8e0e 1cbe ba58 e23c 470d 4bbd 617d 993c
00000130: 6fa3 c9bd 0890 373e c3fa cfbd 1d22 2fbd
00000140: c3d0 97bd cd5f bfbd 29f1 f7bc 7f10 133e
00000150: 1ea3 723b 701c 4d3b b3c6 113c 89b0 b1bc
00000160: 6351 b73c fcf2 07be f007 1e3c d9b3 343e
00000170: 7797 213e dd38 a2bd 866e e4bd d53c 2fbd
00000180: 531c aabd a516 c2bd 29a6 713d d347 1f3d
00000190: 8097 373e e785 20be 7eea bf3d 40ca 8cbd
000001a0: 8a45 4dbd b8f2 ef3d b5e1 363c c553 ec3c
000001b0: 3e69 a13c 68fa 9b3d 81aa 69bd 5f0a c5bd
000001c0: 1f3e d03d cfb4 b4bd 53dc 64bd f650 c93d
000001d0: 41a8 693d e7d3 0abe 3bb2 d33d 99e5 48be
000001e0: 5e33 f6bd 6221 49bd 205f aebd c12b ac3d
000001f0: 907d b33d 0f12 78bc 7e4b 49bc f468 6e3d
0.08153452 0.13052925 0.0011576824 -0.021740362 0.015934026 -0.026834859 -0.0030599828 -0.053511523
-0.110252626 -0.0077075306 -0.02307779 0.013898909 -0.11071039 -0.06274277 -0.051510476 -0.20175996
0.00042672752 -0.04293853 0.08635789 0.1436297 0.05321845 0.024858868 0.1329009 0.089967884
-0.06885928 -0.06458494 -0.017774418 0.026537115 0.13953406 0.09720137 0.0639807 0.12598507
0.07572428 0.066107914 -0.1264376 0.113474414 -0.0069399686 -0.058462203 -0.030889492 0.23707703
-0.04397797 -0.11446028 -0.15505935 -0.09346396 0.057363715 0.14770795 0.031307224 -0.008905723
-0.08443791 0.09042142 -0.05141716 -0.040720843 0.14119807 -0.096223794 -0.062457673 0.047711056
0.06967322 -0.05862604 -0.13120072 -0.047518164 -0.1302107 0.0037917213 0.099521175 -0.067266695
0.012528428 0.13994892 -0.110090025 0.0046346094 -0.11287327 -0.13855249 0.146865 0.050311748
-0.15239927 0.027630199 -0.04957321 0.018736543 -0.098456256 0.17926037 -0.10155251 -0.042757142
-0.07412865 -0.093444444 -0.030266361 0.14361762 0.0037023495 0.0031297468 0.008897471 -0.021690624
0.022377675 -0.13276285 0.009645447 0.17646731 0.15780436 -0.07921002 -0.11153893 -0.042782623
-0.08306184 -0.09476975 0.058996353 0.038886856 0.17928886 -0.1567608 0.09370898 -0.068745136
-0.050115146 0.11716217 0.011162211 0.028848538 0.019703504 0.076161206 -0.05704737 -0.09621119
0.10168099 -0.08823549 -0.05587418 0.09829895 0.057045225 -0.13557397 0.10336729 -0.19618835
-0.12021516 -0.049104102 -0.085142374 0.08406783 0.087641835 -0.015141024 -0.012286065 0.05820556

network_body.linear_encoder.seq_layers.0.weight f4 [128, 6]
00000000: 4a20 d6ba 6c73 6cbd 3727 ef3c 7979 993d
00000010: d1fc 9bbd 41e9 bcbe 2387 2a3e 3b6c 743f
00000020: 9068 753e 4539 883c c271 c13f ddcc 563f
00000030: 15c9 0d3f dad8 853d 22ef dcbe 6d7e dbbe
00000040: a101 18be dae1 113f f565 1e3f 7d8e f5bc
00000050: 5511 12bf 6c1e 98be 4b4a 0bbe bfec 733e
00000060: e7c4 bf3d a097 fdbd c62c 993d dbe8 7b3e
00000070: 8aca 58bf 0984 b1be 15db 2dbf 9516 3237
00000080: 1780 9d3e 6923 1b3f 6125 fc3e a6c3 e13e
00000090: cc21 223e 45cb 403e 9c3d e5be e9cd cfbe
000000a0: d5d5 413e 7da2 90be ce0d 67bd cf2b f23e
000000b0: 8cc0 8ebe 62fc d73e 4bdb b63e 7687 243f
000000c0: bcc8 0a3f 707a 2fbe cf4b 073f 3d8e d4be
000000d0: f3e2 3e3e 5457 acbe c6af 0bbf 4c6a 4f3d
000000e0: 7fb4 213f 82cd df3e 5219 123e 0394 babe
000000f0: 5f9c f3bd 214e b5be e0e9 70bd 77ab e1be
00000100: 0f91 0ebf 0c32 483f 6409 c1bd 35c3 753e
00000110: e16a 8b3e 1273 923e 848a 983f ced0 efbe
00000120: 2662 2d3e d710 cabe e4d0 e0be 1a6c 4f3e
00000130: 0a5a 7ebe ebcb 85bf 7bdd 0dbf 8831 65be
00000140: e26e 9e3e 8bc7 8ebe 621d 11bf fa1f aebe
00000150: 5781 f5be 9f6e 87be ed36 01bf 03fc 03bf
00000160: 56e1 15be 6319 a4be d054 af3e b156 3ebd
00000170: d8ab f53e feea a6be 38db 6dbd adb3 dabd
00000180: cbb8 9bbe f138 343f 3010 57bf 3c85 24bd
00000190: a9c0 093e 4e1f 4bbf 7c36 7f3f 2173 1bbf
000001a0: 3643 5bbd 1989 af3d d28a 1bbe 90c6 093e
000001b0: 76ed 5dbe f42a 293e df66 80be db57 1cbf
000001c0: e573 1b3e 51f7 a7be 11ea e93e c864 923e
000001d0: 5b37 77be 4755 61bf f60a 63be 0a84 f6be
000001e0: fe9b b7be def0 82be e154 2c3d 23df 99bf
000001f0: c784 07bd 7655 d0be 3f55 aabe e019 b33e
00000200: 8fb1 05be 2de4 123f 3a21 8e3e 332a 10bf
00000210: 6963 72be b5ad ea3e 3a14 b6bb 09ee 04be
00000220: cdbe 123f 2e24 863e 59d1 7fbd 2fdc 503d
00000230: a431 c43c f938 75be b8af 88bc 75f3 663f
00000240: ca3e 23bd 2ffd fcbd 9997 8f3e b9d3 f5bc
00000250: 8540 1b3e 4573 05be 9eb5 8bbd 2e01 04bf
00000260: af4c febe 1eaf 95be 7d00 5d3e 7a53 86be
00000270: 81d5 94be 2563 cfbe ccc2 2b3c 751b 413e
00000280: ed4c 813e 186c 473f d675 a63e 7ad3 88be
00000290: 824f 5bbe a08a 243f 8185 25bd 1700 043f
000002a0: 5fa1 a2bd f3b8 8a3e 2ac5 cb3c 8270 a83e
000002b0: af01 43be 4d26 db3d 9b03 213f d866 113f
000002c0: 24f0 18bf f8b1 9b3e 308b 05bd 5317 87be
000002d0: c3c3 633e 478b 0fbe 1a9a 84be aeed 96bc
000002e0: 0c21 09bf b981 ed3e 7ce5 da3e 0e44 203f
000002f0: eefe 55be 1bea aabd a991 393f eedb cabd
00000300: 3d1a 463e 658c 1b3f ea87 efbe 3e50 9b3d
00000310: 74a9 e63e 3e20 5d3e ae17 7c3e e93b b1be
00000320: d03c 193f e161 623f 4aa8 d43e d598 8abd
00000330: 0385 45bc 487f 4ebe 3b86 983e 3429 d0be
00000340: 3d98 8fbe ef42 0ebf 6b04 583e 0002 e33e
00000350: 7497 0f3f f0c8 4abe 12a1 0bbf 12db 35bf
00000360: 22e9 a63e 4094 debd 9339 3cbf 1525 f03e
00000370: fde4 033f 5857 d8be bc43 393f c28c f0bb
00000380: f617 56bd 2fea dfbe cfcb 9b3e e359 bc3e
00000390: e17c 28be c776 c13d c6e8 243e fb9d ee3e
000003a0: e1dd 8f3d f4d9 3bbe a03c 0f3f 551c d83e
000003b0: adf4 073b a109 b43d e310 e33d 7c32 9ebe
000003c0: e4e3 07bf 03c7 093f 9d82 f0bd 78ac d6be
000003d0: 960f 3a3e 38b7 22bf 2ffe 653d 29b3 18bf
000003e0: 952e 903e 34e5 4b3e ede9 bbbe 6e39 693c
000003f0: f7e4 153f dcf6 43be caca aabe c38b 36be
-0.0016336527 -0.057727262 0.029193504 0.07493872 -0.0761658 -0.3689671 0.16653113 0.95477647
0.23965669 0.01662887 1.5112841 0.83906347 0.5538495 0.06535502 -0.43151194 -0.42869893
-0.14844371 0.5698525 0.61874324 -0.02997517 -0.57057697 -0.2971071 -0.1360256 0.2382078
0.09363728 -0.12382436 0.07479243 0.24600546 -0.8468405 -0.34671047 -0.6791242 1.0614885e-05
0.30761787 0.60600907 0.49247268 0.4409458 0.15833205 0.18827541 -0.44773567 -0.40586784
0.18929227 -0.2824897 -0.05640965 0.47299048 -0.27881277 0.4218474 0.35714182 0.64269197
0.54212546 -0.1713655 0.5285005 -0.4151477 0.18641262 -0.33660376 -0.54565084 0.050638482
0.6316604 0.43711478 0.14267471 -0.3644105 -0.1189506 -0.3541117 -0.05881679 -0.4407613
-0.5569009 0.78201365 -0.09425619 0.24000247 0.2722998 0.28603417 1.1917272 -0.46838993
0.16931972 -0.39465973 -0.4390937 0.20256081 -0.24839035 -1.0452856 -0.5541608 -0.22382176
0.30943972 -0.27886614 -0.5668546 -0.3400877 -0.4795024 -0.26451585 -0.50474435 -0.51556414
-0.1463674 -0.3205062 0.34244394 -0.046469394 0.4798267 -0.3260116 -0.05807039 -0.10678802
-0.30414423 0.70399386 -0.84009075 -0.040166125 0.134524 -0.7934464 0.9969251 -0.6072255
-0.053530894 0.08571071 -0.15189674 0.13454652 -0.21672615 0.16520292 -0.25078484 -0.61071557
0.15180929 -0.32805875 0.4568639 0.28592515 -0.2414221 -0.8802075 -0.2217215 -0.48147613
-0.358612 -0.25574392 0.042073134 -1.2021221 -0.03308561 -0.40690202 -0.33268163 0.3498068
-0.13056014 0.5737942 0.27759725 -0.5631439 -0.23670734 0.45835653 -0.0055566104 -0.12981428
0.5732239 0.26199478 -0.06245551 0.050991233 0.023949452 -0.23947515 -0.016685352 0.90215236
-0.039854802 -0.123529784 0.28045347 -0.030008184 0.15161331 -0.13032253 -0.0682175 -0.515643
-0.4966788 -0.29235166 0.21582218 -0.26235563 -0.2906914 -0.4050533 0.010483455 0.1885813
0.25254002 0.7789931 0.32511777 -0.26723844 -0.21417049 0.64274025 -0.040410522 0.5156264
-0.07940935 0.2709423 0.024874289 0.32898337 -0.19043611 0.10700665 0.62896127 0.5679755
-0.59741426 0.30409217 -0.032603443 -0.26384982 0.22242646 -0.14017974 -0.2589882 -0.018423881
-0.5356605 0.46388033 0.42753208 0.62603843 -0.20898029 -0.08345433 0.72487885 -0.099052295
0.19345947 0.607611 -0.46783382 0.07583664 0.45051157 0.2159433 0.24618408 -0.3461602
0.5985842 0.884306 0.41534644 -0.06767432 -0.012055638 -0.20165741 0.2978991 -0.40656435
-0.28045836 -0.5557088 0.21095435 0.44337463 0.56090474 -0.19803214 -0.5454265 -0.710374
0.3259974 -0.1086812 -0.7352535 0.4690329 0.51521283 -0.42254138 0.7236898 -0.0073409984
-0.052268945 -0.43733355 0.3042893 0.36787328 -0.16453888 0.09446483 0.16104421 0.46604905
0.07024742 -0.18344861 0.5595188 0.42209116 0.0020745203 0.08790899 0.11087205 -0.30897892
-0.5308211 0.5381929 -0.117436625 -0.41928458 0.18170008 -0.6356082 0.05615061 -0.59648377
0.2816054 0.19911653 -0.3670191 0.014234884 0.585525 -0.19137138 -0.3335784 -0.17826752

network_body.linear_encoder.seq_layers.2.bias f4 [128]
00000000: f982 6cbd 81f7 cf3d e39f 8ebe 21a0 97bd
00000010: a179 e13d 9a26 17bd 6569 32be 4f1d e13d
00000020: 1b49 233e aa37 7d3d 0c35 b0bd 2cd5 183e
00000030: 5275 af3d 1371 e5bd e182 50bd c880 903c
00000040: 81a5 973d c7da 97bd 8459 a3bd be8e 2dbd
00000050: 5d75 c3bd 4f66 5abd f732 b03d dbc9 dd3d
00000060: a645 ed3d be08 e23d c171 e43d a4ca 53be
00000070: 9dc2 32bd d9ae 96bd ef13 a03d fa4d ba3d
00000080: a2cf 233d 5982 343e 7ab2 363e 35a0 65be
00000090: 73b4 a23d 832d 03be 7cf8 2fbd af87 8dbd
000000a0: 7f25 95bc c148 9ebc 5051 663d 8ca0 14be
000000b0: dced ac3d 5391 ba3d 247e 133d 5712 49bd
000000c0: 072d 303d 92f8 da3d c38c 3abe 9409 623c
000000d0: d280 f4bd 7745 7dbd 6631 833d 5611 023e
000000e0: 924d 8b3d 68ad 83bd da1c dbbc 0967 ba3d
000000f0: a417 e83d ac11 59bc fb44 b0bd 85ad b13d
00000100: d211 dabd 1bd6 fcbd f85b 16be 772e a33d
00000110: a11f 1d3e f153 343e c621 84bd 379d 92bc
00000120: d13b e6bc d4a8 06be 4075 b4bd 64f8 6fbc
00000130: b558 ef3c 5854 edbd 77d3 393d d715 d23d
00000140: 4853 c03d 3dd9 67bd 8777 973c dfd2 90bc
00000150: 6395 b53d b9a6 873d 79cd 81bd 1d1c d53d
00000160: 8f87 9e3d dd99 483c 6dc3 b63c 6aad af3d
00000170: bf96 04bd b06b d93d 2e24 aa3c 5158 6cbe
00000180: 5b17 8b3d 9bf4 49bd de84 f53d 0e4b cd3d
00000190: c2df 143d d97b a0bd 5c6f 20bd 74d6 183d
000001a0: 8c45 acbd da2d cabd 0f7b f4bd 1779 153e
000001b0: c21b 683c d0e0 e1bd b899 783d b1dc 4e3d
000001c0: eed2 12be 2440 debd b96c 403d 1ff7 59bd
000001d0: b858 a1bd efcb 7e3d a83b 993c 847a 7abd
000001e0: ba97 cebd 2f76 c1bd 4a47 a73d 4892 5fbe
000001f0: 0262 d0bd 3ed9 e2bc f73a ba3d 89c2 463d
-0.057742093 0.101546295 -0.2785636 -0.07403589 0.11009527 -0.036902048 -0.17423017 0.10991918
0.15945856 0.061820664 -0.08603868 0.14925069 0.08567299 -0.11203208 -0.050906066 0.017639533
0.07404614 -0.07414775 -0.07976058 -0.042372458 -0.0954387 -0.053320225 0.08603471 0.108295165
0.1158555 0.11036824 0.11154509 -0.2068277 -0.04364263 -0.07357568 0.07816302 0.09096904
0.039992936 0.17627849 0.17841521 -0.22424395 0.07944574 -0.1281033 -0.042961583 -0.06910645
-0.018206356 -0.019321801 0.05622989 -0.14514369 0.084438056 0.0910975 0.03600897 -0.049089756
0.04301169 0.10691942 -0.18217759 0.013796229 -0.11938633 -0.061833825 0.064059064 0.12701926
0.06801905 -0.06429559 -0.026747156 0.09101684 0.11332634 -0.013248842 -0.08606907 0.08675674
-0.1064793 -0.12345525 -0.14683521 0.07967847 0.15344097 0.17610146 -0.06451754 -0.017897232
-0.028104695 -0.1315034 -0.08811426 -0.014646623 0.029217103 -0.11588353 0.045367684 0.10258072
0.09390885 -0.05660366 0.018489612 -0.017678676 0.08866384 0.06623597 -0.06338019 0.10405753
0.077406995 0.012243715 0.022309983 0.08577998 -0.032370325 0.10616243 0.020769205 -0.23080565
0.06791564 -0.04930554 0.11988233 0.10024081 0.036346205 -0.07836122 -0.0391687 0.037313893
-0.084117025 -0.09872027 -0.11937534 0.14596973 0.014166774 -0.11029208 0.060693473 0.050503436
-0.14338276 -0.108520776 0.046978686 -0.05321419 -0.0787825 0.062206205 0.018705204 -0.061151996
-0.10087533 -0.0944637 0.08167894 -0.21833146 -0.101749435 -0.02769148 0.09093278 0.048525367

network_body.linear_encoder.seq_layers.2.weight f4 [128, 128]
00000000: 3c20 3bbd 80da 9ebd 2096 a93d d154 dc3d
00000010: d245 553d 91b7 213d 1d49 2b3d 3e7f 233e
00000020: 1500 65bc f23c 623d c1f4 c53d 4fdd ac3c
00000030: 5fbc c13d a6a9 3a3d 1881 57bd 3ebe a63d
00000040: 7ceb ea3d d193 27be 787c d9bc ccce 81be
00000050: 2092 853c ff2b 1fbe c0a1 b2bd 9f84 c33c
00000060: a6c0 0fbe 1a29 1c3e 78e2 dfbd 9b9a 09bd
00000070: 671b 5abd 8f25 b8bd 1f4f 5b3d cd0a 12bd
00000080: e55a a2bc 77a0 05bd d14d bcbd 0b20 42be
00000090: 9981 773b 5b43 da3d 570f acbd 86fc 04bd
000000a0: 23ef 813d 32cd 043d d802 383e cfc0 8e3d
000000b0: 1743 25bd 060e 07be d76b 753d 03d7 873d
000000c0: 5cff d9bd 7e07 1dbe 5813 403e 5783 b33d
000000d0: 950b a7bc 7079 0bbd 40a4 c8bc 47c2 b1bd
000000e0: 8d64 9e3c 822a 69bd 0988 483d dbca 1fbe
000000f0: 3777 81bd ab04 d13d 309d cf3d 2eca 14be
00000100: 019f a83d a7b7 22be 8907 27be 25d2 1e3c
00000110: 5d57 bfbd 8119 67bc 4366 b6bc 60d0 24bd
00000120: acc5 873b 786b e1bd 4a06 1dbd c0d7 753d
00000130: b8b4 d7bd 808c ecbc 4277 aa3d f942 243d
00000140: 1125 063b 879b 1dbe 6af1 7ab9 c788 c93d
00000150: c2b8 cf3c 3390 d63d 2aa2 21be af9b d83d
00000160: c5b7 a9bd ebcd 26bc 7a98 0f3d e886 6fbd
00000170: 1961 123e afdc 8b3d d86b 1a3e 87d8 d83b
00000180: 41b4 b73d b182 24bd 7690 f2bd a1ac 6ebd
00000190: fa64 9bbd dff6 083e fdd8 51bd 98b8 053d
000001a0: 3b59 4f3c 5747 0c3c c435 aebd 9f1b 83bd
000001b0: db28 483d b657 f3bb cbf5 5bbd 3b1e bcbd
000001c0: a95f e23d 2305 d53c cec5 e13d 6398 38be
000001d0: 7fba 3b3d dc78 c03d 6a55 11be e4e9 083c
000001e0: cfd3 a3bd 6f40 00be 0788 913d d8a0 ea3d
000001f0: e519 3fbd e212 bc3c 01fe c6bd 8bfc b3bd
00000200: 1378 d5bc e207 e53d 7fbb 82be 1227 e13d
00000210: cbd6 cbbd 47df ba3d 824a 053d 4304 113d
00000220: fa4b c5bb b689 03be 6b87 92bd 5e0c a33d
00000230: f2c8 d4bd c2b9 27bd 5685 babd dfae 14be
00000240: 803a a3bd 2a87 e9bd 28ca 24be 7e1f eebd
00000250: 6c33 b9bd 2e10 163e d81a c73b 2e7d 053e
00000260: a9c3 96bd 1b4b 93bd 7398 abbb aba8 a8bd
00000270: 07f7 823d b954 e0bd cd3f b23d 5215 03be
00000280: 0cf4 e63d ba7d 88bd 3f78 623d 88c1 dcbb
00000290: 8826 e7bd 2002 b0bd e7b1 9c3d 8734 893e
000002a0: 013d 913c 6590 2d3d 4114 b6bc 4fab c3bc
000002b0: 515e 6d3d 7119 9b3d 8deb 0dbe 6a43 35bd
000002c0: 209b a93d a285 a43d 4c5d c9bd 03d9 e2bd
000002d0: 6e4a 1c3e de1c 2cbe 3104 11be a43e 193e
000002e0: 31ab a4bd fd96 18bc 29fd 9cbd d40e 6cbd
000002f0: 11fa 04be 735a ad3d ab79 3fbd cd40 653d
00000300: 3664 813d b62f 103e d0b3 c13d 6499 4f3d
00000310: 03c9 f03d 5302 c7bd e3bd df3d 39cd bfbd
00000320: 72fc dbbc f1cf a43d a4b0 e93c 54f1 303c
00000330: 4fd1 143d 10a5 243e 7b4b 723d f7e5 b03d
00000340: c610 d2bc b0b8 85bd 8109 0ebe 3ea0 f8bd
00000350: 34ad 8c3d 0cf6 14bd 1923 553d 1389 74be
00000360: 33ab 6dbe 1add cfbd 8ac9 283d 3432 13bd
00000370: 45c0 113e 3619 2fbe fc93 bebd 41f7 b3bc
00000380: 8d36 263e 0cca 07be 9a41 84bd 2a30 3e3c
00000390: 3813 113e d895 c5bd 89cd 00be 59fe 9ab9
000003a0: 864f 0abe 379e 623d 5f19 533c caf7 79bd
000003b0: bb61 6bbc ce18 b13c 5d27 d83b 04dd 6fbc
000003c0: 0506 503d 3d05 623d e1ea a3bd 86b6 f93d
000003d0: 8439 303e 939c 113c b46f d23d fba7 15bd
000003e0: 119d bebd 75f7 273d ef62 a0bd 38a8 e2bd
000003f0: 5c6e 4bbd 872c 643d 82af 473e 2e7a 1d3e
-0.045685038 -0.07756519 0.08280587 0.10758365 0.05206854 0.039481703 0.041817773 0.15966508
-0.01397707 0.055233903 0.09665824 0.021101622 0.09459757 0.045571946 -0.052613348 0.081417546
0.11470696 -0.16364981 -0.02654861 -0.25353086 0.01630503 -0.15544127 -0.087222576 0.02386695
-0.14038333 0.15250054 -0.10931867 -0.03359471 -0.05324879 -0.08991539 0.053542253 -0.03565483
-0.019818733 -0.032623734 -0.0919453 -0.18957536 0.0037766455 0.10657378 -0.08401363 -0.032467388
0.0634444 0.032422252 0.17969835 0.06970369 -0.040347185 -0.13188943 0.059917297 0.06632807
-0.10644409 -0.1533489 0.18757379 0.087652855 -0.020391265 -0.03405136 -0.024492383 -0.086796336
0.019335056 -0.056925304 0.04895786 -0.15604727 -0.063215666 0.102059685 0.10137403 -0.1453025
0.082334526 -0.1589037 -0.16311468 0.009693657 -0.09342835 -0.014105202 -0.022265559 -0.040237784
0.0041434374 -0.11006826 -0.038336076 0.06002021 -0.10532516 -0.02887559 0.08323528 0.040102933
0.002046887 -0.1539136 -0.00023931792 0.09840541 0.025356654 0.104767226 -0.15784517 0.10576569
-0.082870044 -0.010180931 0.035057522 -0.058478266 0.14294852 0.068292014 0.15080202 0.006617609
0.089699276 -0.0401637 -0.1184396 -0.0582701 -0.07587619 0.13375424 -0.051232327 0.032646745
0.012655552 0.008561931 -0.08506349 -0.06401753 0.048867088 -0.0074262274 -0.053701203 -0.091854535
0.11053402 0.026003426 0.110240564 -0.18026881 0.045832153 0.09398052 -0.14192739 0.008356545
-0.07999384 -0.1252458 0.07106023 0.1145646 -0.046655554 0.022958223 -0.09716416 -0.08788403
-0.026058232 0.11183144 -0.25533673 0.1099378 -0.09953078 0.09124618 0.03254176 0.035404455
-0.00602102 -0.12845501 -0.07154735 0.07961343 -0.1038989 -0.040948637 -0.09107463 -0.14519833
-0.07970142 -0.114027336 -0.16092741 -0.116271004 -0.09043011 0.1465461 0.006076198 0.13036034
-0.07361538 -0.071920596 -0.005236679 -0.08235296 0.06394773 -0.109536596 0.08703575 -0.12801102
0.11277017 -0.066646054 0.055290457 -0.006736938 -0.11286646 -0.08594155 0.0765112 0.26797888
0.017729284 0.042374033 -0.022226455 -0.023885397 0.057951275 0.07573212 -0.13859387 -0.044253744
0.08281541 0.08033301 -0.09832248 -0.11076548 0.15262768 -0.16807887 -0.14161755 0.14965302
-0.08040465 -0.009313342 -0.07665474 -0.05763133 -0.12986018 0.084645174 -0.04674689 0.055970002
0.06317942 0.140807 0.09458125 0.050683394 0.1175709 -0.0971724 0.1092489 -0.09365315
-0.026853774 0.08047474 0.028526612 0.010799725 0.036332425 0.16078591 0.059154015 0.08637612
-0.025642764 -0.06529367 -0.13870813 -0.12139939 0.068689734 -0.03636746 0.052035425 -0.23880415
-0.23209839 -0.10149594 0.041207828 -0.03593655 0.14233501 -0.17099461 -0.093055695 -0.021968486
0.16231747 -0.13260669 -0.06457825 0.011608163 0.14167488 -0.09647721 -0.12578405 -0.00029562673
-0.13506898 0.055326667 0.012884467 -0.061027326 -0.0143665625 0.021618273 0.0065964893 -0.014640097
0.05078699 0.055180777 -0.08003784 0.12193017 0.1720944 0.008887428 0.10275212 -0.03653715
-0.09307302 0.041007478 -0.0783137 -0.110672414 -0.049665794 0.055706527 0.19500545 0.15378639

network_body.linear_encoder.seq_layers.4.bias f4 [128]
00000000: 0a71 913d 1e41 c2bd 32a6 afbd 20f6 fabd
00000010: 14b2 d0bd 5ab5 b03d f25c f7bd 9561 8f3c
00000020: f80c ed3d c528 8cbc 9bac 133c 5429 01bd
00000030: 09b1 1bbe b01d e6bd 4116 b3bd 7a86 c53d
00000040: 4f22 083c d99e a33d 2fb2 f33d 782e 663d
00000050: 541e 173c d750 753d 2ae6 d33d fe7b 4abd
00000060: 077a fc3d beae d0bd 011e ecbd d934 dabd
00000070: c2c4 ab3d 0c0a d0bd 5782 ecba ca68 cb3c
00000080: 8f79 a8bd 481c f3bd dcfb 0bbd de84 213c
00000090: 24ec fa3c bd51 703c 11ab e73c 8b60 3fbd
000000a0: 59c0 e63d 14a3 ba3d 905a a63d ece3 dbbd
000000b0: 8b21 2f3c 8f95 a2bd 8c57 b5bd 9414 3fbc
000000c0: 2c84 cebd 6794 f13d c398 fabd 464e 4cbd
000000d0: a9a7 b43d 590a a83d 0980 c13d c061 ed3d
000000e0: 231f 57bb 4d66 063e b08b c83d da0a f53d
000000f0: 0b3a 60bd 7e6c de3d 7966 883d dc9d 4e3c
00000100: 1614 c53d 8a1c 08bd a837 f6bd 624d 093e
00000110: b0eb 46bd 7b40 023e 49ed 6dbd 4557 6e3c
00000120: cfff 883d 5901 b2bc 3c2a 3cbd eae4 d93c
00000130: 9b40 aabd 0222 913d baa7 2f3d 3c85 8abd
00000140: 25a2 543d 2f64 813d b513 c83d 4ba5 fa3d
00000150: 09d2 f3bd 736d 66bd 6c86 083d 5e80 6cbc
00000160: d3cf 15be 73b9 99bd ad73 e13d 9e74 d13d
00000170: 3344 b23d d2b0 153e 3bbd 35bd 3fac a73d
00000180: 6536 933d 7e07 033d feb9 dcbd cc92 87bd
00000190: 1ad9 e53d 805c b1bd 4c53 7b3c 28b6 b23d
000001a0: 7226 fcbd 51f3 26bd 15bb 25bc fd38 88bd
000001b0: 6123 e3bc 5390 dbbc 8c64 cf3d 5e69 b7bd
000001c0: 2d23 96bd 22a1 043e a00e aa3d 9df4 debd
000001d0: 8974 ca3b 15c1 883d 0348 883d 0c83 15bc
000001e0: 2b1d 9bbd 4c7f 5c3c bd45 86bd 0f0f b23d
000001f0: 52a8 af3d 4e44 033d ac80 0f3e 198f 043c
0.071016386 -0.09485076 -0.08576621 -0.12253976 -0.10190216 0.0862834 -0.12078275 0.017502585
0.11574739 -0.017109284 0.00901332 -0.031533554 -0.15204252 -0.11236131 -0.08744479 0.0964479
0.008308961 0.07989282 0.1189922 0.05619666 0.009223539 0.059891548 0.10346635 -0.049434654
0.12327962 -0.101895794 -0.1152916 -0.10654611 0.08387138 -0.10158166 -0.0018044215 0.02483024
-0.082263105 -0.118706286 -0.03417574 0.009858338 0.030630179 0.014667925 0.028279813 -0.04672293
0.11267156 0.09113136 0.08122742 -0.10736832 0.01068915 -0.07938682 -0.08854589 -0.011662621
-0.100838035 0.117958836 -0.12236168 -0.049879335 0.08821041 0.08205099 0.09448249 0.1159091
-0.0032824955 0.13124962 0.09792268 0.119649604 -0.054742854 0.10860537 0.0666017 0.012610879
0.09622972 -0.033230342 -0.12022334 0.13408425 -0.048564613 0.1271991 -0.05808762 0.014547174
0.066894166 -0.021729158 -0.045938715 0.026598413 -0.08313104 0.070865646 0.042884566 -0.06763694
0.051912446 0.06317937 0.09769384 0.122385584 -0.119052954 -0.056256723 0.03333132 -0.014434902
-0.1463006 -0.07506075 0.110083915 0.10227321 0.08704414 0.14618233 -0.044369917 0.0818715
0.07188109 0.031989567 -0.10777663 -0.06619796 0.112230495 -0.08660221 0.015339684 0.0872615
-0.1231202 -0.04075939 -0.010115405 -0.06651495 -0.02772683 -0.026802218 0.101266 -0.08955644
-0.07330928 0.12952092 0.08303571 -0.108865 0.006178443 0.066774525 0.0665436 -0.009125482
-0.07573923 0.013458084 -0.0655627 0.086942784 0.085770264 0.032047562 0.14013928 0.008090758

network_body.linear_encoder.seq_layers.4.weight f4 [128, 128]
00000000: 9af3 26bd 734b 58be eb8e 26be d7ed 0e3e
00000010: 649c 823c 2745 83be be39 40bd ab1a 2cbd
00000020: 8bc3 823c c7b8 54bc face b0bd 605d 003e
00000030: 26da a23d af10 cfbd ddf8 3bbd bd98 9dbd
00000040: 0b66 efbc 722d 1abe 941b 34bd a44c 1cbe
00000050: a3fb 03be 8d56 afbd 28d8 7ebc ae81 36bd
00000060: 6d97 5bbd 1a9a 823d f34e 183d 7f3e 2fbc
00000070: 80c9 e9bc 2f97 78be 2bc3 583d 675b eb3c
00000080: 7e9f 013e 5594 e33d 25be 263e fe01 11bc
00000090: 5096 17be 35ec 7abd a94b 12be 681a 13be
000000a0: e0ed 263e f259 a1bd 14db 573e 1632 dfbb
000000b0: 68c3 013d 3637 2b3e 98dc 4c3e 1958 d7bd
000000c0: ed73 6e3d f2dc 573e 4db6 56be 7ddd 8c3d
000000d0: 7973 0fbe 0053 5abe dbab b9bd 8801 073e
000000e0: 8da9 2abe 5aca 2f3d 3d35 f7bd af57 a83c
000000f0: 2fc2 cfbd 3d10 053e 5c72 82be ccc9 48bd
00000100: d677 45bd 085e 973d c18f 91bd 59c5 223d
00000110: 7475 f4bd 6640 e7bd fbe2 8bbd 90fe b03d
00000120: 935c 25bc d9d5 f3bb ae6b 21be 03a2 ca3c
00000130: 34f4 f1bd 376c 21bc faeb 17be 7599 c1bd
00000140: 47f3 0dbe 4a44 043e b0fc 26bd 1646 4d3d
00000150: 66fb 3c3d 4129 31bd 6ca6 603b a8ea 43bc
00000160: 458f f83c 1050 9ebd 1481 4cbc 8d2c d53c
00000170: c04e 383d 8298 ed3d 3cf4 c33c 5d78 9bbd
00000180: 2029 aabb 9465 3bbe aa62 523d 80a1 033c
00000190: ff3b 49bd b4d8 e03c c7e0 f03d 33e6 ec3a
000001a0: 548a 24bd 63df 013d feb4 0abe 7346 a7bd
000001b0: 3664 b73c 1067 41bd 60a2 103d 1db6 31bd
000001c0: 5e45 4d3d 7465 9abd fc8f b83b e9ab f2bb
000001d0: 2c80 49be 4175 683e 2f25 1d3d 8840 2abc
000001e0: fb9b 99bd cf94 423c f747 0c3c 25e7 4bbe
000001f0: 20b3 a83d b064 a4bd f36d 1fbe 1ce3 1e3d
00000200: 9568 bb3d 102a dfbd ba84 9a3e 0293 47bc
00000210: 8d72 c6bd b933 7e3c a803 8c3d 19fa 673d
00000220: a0d6 b9bd 51c5 f53c 2563 8c3d 8d5d 79bb
00000230: c718 f33d fa6d c2bd f21f 2b3c 0318 37bd
00000240: 13cc 03be 32aa 443c 8627 9b3d 02c7 2cbd
00000250: e82e e0bc 13bf 803d a4ed 0a3e f2cc b2bb
00000260: 4a5c b13c 4d64 e53b 93fd d1bd fd2a 063d
00000270: 169f d43d 1372 9c3d 19c7 083e c6a6 f93d
00000280: c134 e13b fc5c 73be 1f4f 8eba 44ce b13d
00000290: 9c8f d6bc 5807 4b3d ff6e 1bbc 7105 443e
000002a0: 2a52 933d 853d 91bc 88bc 953d 7301 ab3d
000002b0: e6ab dc3d b5ba 6fbe 3caf 28be d529 f03d
000002c0: 0c84 14bc 3618 173e aac9 963d 8657 673a
000002d0: 9b2f 3e3d a6aa 923c ce6b 2abe 75d6 073c
000002e0: 7c9e 093e 85aa 193e 1f9a 60be 6e9a 063d
000002f0: 20bc 94bd 8b07 bebd ee23 2dbc 8aa3 0f3c
00000300: c226 763c ed28 473d 3ae1 e63c c35f dc3a
00000310: 79b6 263e 95fe 25be ee81 a83c 05b4 f33c
00000320: 0c60 843d 43ba fdbc 2a9c 243d 73d3 14bd
00000330: 59b8 07bd 0ad5 febc cdeb 4bbc 9ce6 08be
00000340: c9cf 10be a6ce bd3b 1511 2c3e 139b ad3c
00000350: 270d 4c3d 9943 cabd 9699 a13c 2cb5 853c
00000360: bb22 8bbd fbd1 9c3c 37e8 a23d 14af 8d3b
00000370: f20a e7bd 0dc1 0e3d b7cf 4f3c eda6 073e
00000380: f81e 8a3d e7e8 ad3d fe3c e5bd 0ff8 8cbd
00000390: 1ffc 3fbd 8e80 97bb ab6c cd3c e5ae 2e3e
000003a0: 99b5 8a3c 33b9 99bd 304e 6b3c f92f b63d
000003b0: 75a7 6bbd 2a7f 463e 963b 39bd 285c 23bc
000003c0: 0239 2abe fc41 dc3d 0881 3c3c a8d1 87bd
000003d0: 3431 d8bd 9200 c03d 0d32 d4bd 21c7 d7bd
000003e0: c171 af3d 3023 0abe a3e8 2a3e 974d 833d
000003f0: ed6d c1bd d46c 213d 80a4 d83d 4bc4 8cbd
-0.04075966 -0.21122532 -0.16265456 0.13957916 0.015943713 -0.25638697 -0.046930067 -0.04201762
0.015962383 -0.0129835075 -0.08633228 0.1253562 0.07951765 -0.10110604 -0.04589163 -0.07695148
-0.029223463 -0.15056399 -0.043971613 -0.15263611 -0.1288896 -0.0856143 -0.015554465 -0.044557266
-0.053611208 0.06377049 0.037184667 -0.010696053 -0.028538465 -0.24276422 0.0529205 0.028730107
0.12658498 0.111122765 0.16283472 -0.008850573 -0.14803433 -0.06126042 -0.14286675 -0.14365542
0.1630168 -0.07878484 0.21079665 -0.0068113906 0.031680495 0.1672028 0.20006025 -0.1051485
0.058216024 0.21080378 -0.2096798 0.06878183 -0.14008893 -0.21320724 -0.09065982 0.13184178
-0.16666241 0.042917587 -0.12070701 0.020549623 -0.101444595 0.12994476 -0.25477874 -0.049020573
-0.048209988 0.07390982 -0.07107497 0.039738987 -0.11936465 -0.1129158 -0.068304025 0.08642304
-0.010092872 -0.007441264 -0.15763733 0.024735456 -0.11814156 -0.009852461 -0.14836112 -0.09453098
-0.13862334 0.12916675 -0.040768325 0.050115667 0.04613819 -0.043252233 0.0034278883 -0.011957802
0.030341754 -0.077301145 -0.0124819465 0.02602222 0.044996977 0.11601354 0.023920171 -0.07591317
-0.0051928908 -0.18300468 0.051363625 0.00803411 -0.049129482 0.027447082 0.11761623 0.0018073976
-0.040170982 0.03170718 -0.13545606 -0.08167734 0.022386651 -0.04721743 0.035311103 -0.043386567
0.05011498 -0.07538882 0.0056323987 -0.007405747 -0.196778 0.22700979 0.03836554 -0.010391362
-0.07500454 0.011876299 0.00856208 -0.19912393 0.082372904 -0.08027017 -0.15569286 0.038790807
0.09150807 -0.10896695 0.30179387 -0.0121810455 -0.096898176 0.015515261 0.06836635 0.056634996
-0.090741396 0.030001314 0.06854848 -0.0038050145 0.1186996 -0.094936326 0.010444628 -0.044700634
-0.12870817 0.012003468 0.07575898 -0.042181976 -0.027366117 0.062864445 0.13567215 -0.0054565603
0.021650452 0.007000482 -0.102534436 0.03275584 0.10381906 0.076389454 0.133572 0.12190013
0.006872744 -0.2376594 -0.001085732 0.0868192 -0.026191525 0.04956755 -0.009486913 0.191427
0.07193406 -0.01772953 0.0731135 0.08349886 0.107749745 -0.23411067 -0.16473097 0.11726729
-0.009064686 0.1475533 0.07362683 0.00088249927 0.04643212 0.017903637 -0.16642687 0.008290877
0.13439363 0.15006454 -0.21933793 0.03286212 -0.072624445 -0.092787825 -0.010567648 0.008767018
0.015023889 0.048623014 0.028183568 0.0016813207 0.16280545 -0.16210397 0.020569768 0.029748926
0.06463632 -0.030972606 0.040187992 -0.036334466 -0.033134792 -0.031107444 -0.012446356 -0.1336922
-0.14141764 0.0057924567 0.16803391 0.02119211 0.04981723 -0.098761745 0.019726556 0.016321741
-0.06793734 0.019143095 0.07954448 0.0043238495 -0.112813845 0.034852076 0.0126838 0.13247271
0.06744188 0.08491688 -0.11193274 -0.06883251 -0.0468713 -0.004623479 0.025076231 0.17058904
0.016932296 -0.07506027 0.014361903 0.08895869 -0.057532746 0.19384447 -0.04522284 -0.009970702
-0.16623309 0.10754773 0.011505373 -0.06631786 -0.1055626 0.09375109 -0.10361109 -0.10536028
0.08566619 -0.13489985 0.16690306 0.064112835 -0.09444795 0.039410427 0.10578251 -0.068733774

network_body.vector_processors.0.normalizer.running_mean f4 [6]
00000000: c286 e43f 7827 f93e 1b33 603f e968 75c0
00000010: ecfe ff3e 8c5a 6cc0
1.7853625 0.48662925 0.8757798 -3.8345282 0.49999177 -3.6930265
