Assets/Scripts/2.3 Balls/BallEngineAI.onnx (onnx, 154666 bytes, 11 tensors)

69 f4 [35]
0.24062076 0.13188677 0.2494133 0.13756129 0.23415554 0.13102493 0.23939763 0.13130197
0.22059233 0.12385004 0.22976618 0.12762445 0.21778758 0.12278014 0.21927273 0.1213677
0.21927273 0.1213677 4.6256166 0.056958977 4.612006 3.9756138 0.024969185 4.0049815
4.684524 0.060364578 4.6677103 0.00019772205 0.00019772205 0.00019772205 0.00019772205 0.00019772205
0.00019772205 0.00019772205 0.00019772205
00000000: 4a65 763e 530d 073e 3366 7f3e dedc 0c3e
00000010: 78c6 6f3e 662b 063e a724 753e 0674 063e
00000020: f5e2 613e 17a5 fd3d d347 6b3e fcaf 023e
00000030: b503 5f3e 2774 fb3d 0889 603e a18f f83d
00000040: 0889 603e a18f f83d 0d05 9440 d14d 693d
00000050: 8e95 9340 7570 7e40 2d8c cc3c cf28 8040
00000060: 9fe7 9540 d940 773d e25d 9540 9c53 4f39
00000070: 9c53 4f39 9c53 4f39 9c53 4f39 9c53 4f39
00000080: 9c53 4f39 9c53 4f39 9c53 4f39

action_model._continuous_distribution.log_sigma f4 [1, 2]
2.3077211 2.1079264
00000000: b4b1 1340 44e8 0640

action_model._continuous_distribution.mu.bias f4 [2]
0.082878456 0.01804333
00000000: 2ebc a93d 9bcf 933c

action_model._continuous_distribution.mu.weight f4 [2, 128]
-0.34768686 0.12796772 0.22974485 0.02913211 0.17867625 -0.06969795 0.2466017 0.07354594
0.28939617 0.16351116 -0.021280391 -0.108107194 0.11929968 0.333022 -0.20048264 -0.40750682
-0.4716988 -0.1966067 0.20333208 -0.024452256 0.084487356 -0.0101317465 -0.32422248 0.39069644
-0.3691917 0.21944477 -0.23260514 -0.16385646 -0.42188972 0.29224935 0.059378687 0.28202894
0.082457796 0.24632269 0.34548828 0.31877124 -0.19583419 -0.013778358 -0.24074416 -0.036337335
-0.31842688 -0.148965 -0.21415272 -0.10949217 -0.29576823 -0.43364835 0.17420311 0.21627574
-0.28432748 -0.20721643 -0.1086414 0.19572617 0.050107863 -0.23235768 -0.18087518 -0.06047938
0.4897979 0.34034076 0.2746004 0.29585558 0.24750848 0.19304425 -0.15719222 0.22024286
-0.41830954 0.24162327 0.26651055 -0.4933374 -0.20748726 -0.124934785 -0.092365235 -0.22710253
0.040104736 0.062594794 -0.22449149 0.1740378 0.1514992 0.35198164 -0.35324878 -0.16769263
0.28494525 0.32287377 -0.25413215 0.10024515 0.5491709 -0.066108584 0.4979474 -0.03578934
0.4445584 -0.27809474 -0.15089734 0.01883865 -0.17595378 -0.19319971 0.13471979 -0.21486616
0.4826985 0.34240988 -0.13005938 -0.075507015 0.1984117 -0.05665232 0.35645434 0.06028049
0.035462447 0.05063009 0.19293019 -0.016746864 -0.25680274 0.20666839 0.30666137 0.24172945
-0.31403795 0.23133971 0.10328793 0.2554668 -0.2019779 -0.24622606 -0.21901117 -0.20232823
-0.32063973 0.030943712 0.044138495 -0.16439368 -0.056468517 -0.2276109 -0.4031827 0.085991636
0.13370895 -0.21473496 -0.1580161 -0.33203548 0.24322173 0.30414993 0.3086644 -0.35020894
0.20961723 0.18989182 0.37655064 -0.16533881 -0.217877 0.090336025 -0.26236168 0.106050685
-0.11596912 -0.22898343 -0.30740982 -0.2553972 -0.18124032 0.19770032 -0.08953715 0.11873301
-0.35243136 -0.24966279 -0.12983799 -0.21939422 0.19935754 0.056113593 0.29413825 -0.16179052
-0.101329245 -0.3732284 -0.18045418 -0.03870227 0.0022649644 0.32210898 0.2157014 -0.16710195
-0.15003589 0.30455747 0.32908925 0.27991104 -0.11616273 -0.24747457 0.06834871 -0.09214249
0.019817555 -0.22254093 0.25003868 0.07310275 0.23804402 0.37808314 -0.16888747 0.26825032
-0.17306344 0.09457209 -0.15571027 -0.07781744 0.2186704 0.06429545 0.20172781 0.018891843
-0.0012645125 -0.09659537 -0.22653693 -0.028348254 -0.28784114 -0.1157599 -0.43300462 -0.1362045
0.22457507 -0.23638794 -0.22420746 0.06587812 0.003915594 0.18267825 0.01121911 -0.012475461
-0.21354863 0.17915931 -0.17632928 -0.43752587 0.025784748 0.2097295 0.01887193 -0.30315936
-0.11343918 -0.07885053 -0.0016293545 -0.32065803 -0.2775021 0.25283036 -0.3493318 0.29926693
-0.006235808 -0.14236473 -0.109420925 -0.06787919 0.18057314 -0.25647873 0.0044103446 0.12849636
0.2397653 0.15420878 -0.42172864 -0.16717826 -0.012707378 -0.26934654 0.016037252 0.3303261
-0.12473778 -0.2582835 0.20583703 0.13947725 -0.16879515 -0.018199177 -0.19326559 0.19631648
-0.07115943 0.12064618 0.21869117 0.108414724 0.27655318 0.08210231 -0.10483508 -0.18094847
00000000: 0304 b2be f809 033e 3c42 6b3e 76a6 ee3c
00000010: e8f6 363e ccbd 8ebd 2885 7c3e 419f 963d
00000020: bc2b 943e 786f 273e 3754 aebc 4e67 ddbd
00000030: 6453 f43d dc81 aa3e 524b 4dbe bca4 d0be
00000040: 8182 f1be 4453 49be 4936 503e 1950 c8bc
00000050: b507 ad3d a0ff 25bc 7d00 a6be 5d09 c83e
00000060: b206 bdbe 21b6 603e 0b30 6ebe fdc9 27be
00000070: ee01 d8be b5a1 953e 1137 733d 1966 903e
00000080: a2df a83d 043c 7c3e d7e3 b03e fc35 a33e
00000090: c288 48be 9fbe 61bc a385 76be 75d6 14bd
000000a0: d908 a3be 488a 18be da4a 5bbe 6e3d e0bd
000000b0: ef6e 97be 2807 debe 4d62 323e 6377 5d3e
000000c0: 5f93 91be 8b30 54be 627f debd 716c 483e
000000d0: e73d 4d3d 2cef 6dbe 5837 39be 3ab9 77bd
000000e0: cac6 fa3e 2541 ae3e 6c98 8c3e 627a 973e
000000f0: dd72 7d3e 64ad 453e fff6 20be 5887 613e
00000100: ab2c d6be 176c 773e 1274 883e b896 fcbe
00000110: 8a77 54be cfdd ffbd fc29 bdbd 918d 68be
00000120: dd44 243d b331 803d 19e1 65be f736 323e
00000130: 9b22 1b3e f036 b43e 06dd b4be 9eb7 2bbe
00000140: 58e4 913e b64f a53e 9c1d 82be 544d cd3d
00000150: 7796 0c3f f063 87bd f6f2 fe3e d897 12bd
00000160: 299d e33e 6f62 8ebe d584 1abe 8353 9a3c
00000170: 3a2d 34be 25d6 45be fcf3 093e e005 5cbe
00000180: 4224 f73e 5950 af3e 492e 05be 6ca3 9abd
00000190: 702c 4b3e 430c 68bd 2f81 b63e ade8 763d
000001a0: 1241 113d 7f61 4f3d 7e8f 453e b830 89bc
000001b0: a67b 83be e1a0 533e b802 9d3e ed87 773e
000001c0: 95c9 a0be 51e4 6c3e 9f88 d33d 8bcc 823e
000001d0: 4bd3 4ebe af22 7cbe 7744 60be 222f 4fbe
000001e0: e42a a4be ab7d fd3c 91ca 343d d156 28be
000001f0: 884b 67bd d512 69be f66d cebe 621c b03d
00000200: 00eb 083e 7be3 5bbe f9ce 21be 8e00 aabe
00000210: 1e0f 793e 8ab9 9b3e 4309 9e3e 964e b3be
00000220: e6a5 563e 0073 423e 3fcb c03e 944e 29be
00000230: 261b 5fbe 1802 b93d 4554 86be 1a31 d93d
00000240: 3881 edbd a27a 6abe d264 9dbe 6cc3 82be
00000250: 1097 39be f471 4a3e 415f b7bd 4b2a f33d
00000260: e271 b4be 9aa7 7fbe 40f4 04be e1a8 60be
00000270: 6224 4c3e 5ed7 653d 4a99 963e 6aac 25be
00000280: b585 cfbd cb17 bfbe fbc8 38be 4586 1ebd
00000290: cc6f 143b 78eb a43e d4e0 5c3e c61c 2bbe
000002a0: 02a3 19be f5ee 9b3e 637e a83e 8050 8f3e
000002b0: bae6 edbd f969 7dbe 69fa 8b3d 34b5 bcbd
000002c0: 6d58 a23c c5e1 63be 1205 803e e5b6 953d
000002d0: d0c1 733e 1d94 c13e d6f0 2cbe 1b58 893e
000002e0: 8b37 31be 03af c13d 8372 1fbe c05e 9fbd
000002f0: 22eb 5f3e 55ad 833d bc91 4e3e 11c3 9a3c
00000300: 00be a5ba cbd3 c5bd 4cf9 67be 993a e8bc
00000310: ea5f 93be 8713 edbd c8b2 ddbe 3179 0bbe
00000320: 02f7 653e ae0f 72be a496 65be 1ceb 863d
00000330: 624e 803b 0210 3b3e 5cd0 373c e065 4cbc
00000340: 7eac 5abe 8a75 373e aa8f 34be 6403 e0be
00000350: 893a d33c 54c3 563e 4e99 9a3c b437 9bbe
00000360: cd52 e8bd 637c a1bd 1190 d5ba 4a2d a4be
00000370: c114 8ebe fb72 813e 9edb b2be 8439 993e
00000380: c055 ccbb 0fc8 11be 1418 e0bd 3f04 8bbd
00000390: 2ae8 383e 2e51 83be a784 903b 8d94 033e
000003a0: 0985 753e e8e8 1d3e d1ec d7be c730 2bbe
000003b0: 9b32 50bc cae7 89be 8e60 833c 8120 a93e
000003c0: 8576 ffbd bc3d 84be f1c6 523e 20d3 0e3e
000003d0: a3d8 2cbe 7116 95bc 6ae7 45be 3007 493e
000003e0: 09bc 91bd 5815 f73d 94f0 5f3e 8a08 de3d
000003f0: 6198 8d3e 4225 a83d c6b3 d6bd 8e4a 39be

network_body.linear_encoder.seq_layers.0.bias f4 [128]
-0.034830853 -0.28017583 -0.14830153 -0.2974901 -0.14188646 -0.051223077 -0.3994226 -0.08450506
-0.23917931 0.041250266 -0.24635586 0.15051128 -0.48263314 -0.3103754 -0.15184823 0.0056880913
-0.24391674 -0.27291155 -0.22597899 0.14536919 -0.06607599 -0.08379258 -0.08024344 0.09084282
-0.07781321 -0.15954915 -0.021817906 -0.23354487 -0.19001585 -0.13375388 -0.27627513 -0.35914838
0.019208636 -0.24544428 -0.39255014 -0.16223213 -0.09358663 -0.47413746 -0.1357534 -0.507607
-0.08999248 -0.06441579 -0.25731435 -0.56745046 -0.34620684 -0.14538749 -0.021951962 -0.22195965
0.03381284 -0.2738455 -0.25216427 -0.20142493 -0.22838691 0.15603127 -0.21153057 0.067112826
-0.09791073 -0.36366895 -0.028420506 -0.21142456 0.0065848413 -0.30519268 0.021951918 -0.014122241
-0.46237564 0.04758826 0.027122056 -0.081390575 -0.2773369 -0.31464788 -0.061470274 -0.32112488
-0.1703501 -0.10060774 -0.32500646 -0.011734888 -0.0249973 0.06943571 -0.021352945 -0.09207056
-0.3160555 0.08364327 -0.29420015 -0.0045493874 -0.19694501 -0.246706 -0.07741841 -0.33494428
0.010442471 -0.0030857564 -0.09188247 -0.20952974 -0.25428292 -0.46517876 -0.17817234 -0.22147498
-0.21128243 -0.086232424 0.09124205 -0.3904465 -0.119140014 -0.29572168 -0.04004333 0.07742517
-0.10815142 -0.29835343 -0.20046099 -0.027953342 0.07174392 -0.43570068 -0.22259824 -0.13347943
-0.5712015 -0.36007905 -0.2673768 -0.34590134 0.033432234 -0.28488737 -0.2776966 -0.07876785
-0.30721974 -0.23433998 -0.27499694 0.12990804 -0.13672055 -0.42291465 -0.036226407 -0.5225816
00000000: ccaa 0ebd 3573 8fbe 5bdc 17be 9f50 98be
00000010: af4a 11be 4acf 51bd 1e81 ccbe fd10 adbd
00000020: 6ceb 74be 0af6 283d b644 7cbe a11f 1a3e
00000030: b11b f7be 86e9 9ebe 1a7e 1bbe 2b63 ba3b
00000040: 4fc5 79be 10bb 8bbe 0967 67be a9db 143e
00000050: d952 87bd 729b abbd ac56 a4bd cd0b ba3d
00000060: 885c 9fbd da60 23be 77bb b2bc 6326 6fbe
00000070: 8493 42be c7f6 08be ef73 8dbe 4ce2 b7be
00000080: 6e5b 9d3c bf55 7bbe 55fc c8be 2e20 26be
00000090: 59aa bfbd 25c2 f2be f002 0bbe 88f2 01bf
000000a0: fa4d b8bd 6dec 83bd b5be 83be 6f44 11bf
000000b0: 0642 b1be 75e0 14be 9ad4 b3bc 6449 63be
000000c0: 557f 0a3d 7a35 8cbe ad1b 81be 5642 4ebe
000000d0: 42de 69be a9c6 1f3e 789b 58be 7372 893d
000000e0: 6c85 c8bd d132 babe 1fd2 e8bc ae7f 58be
000000f0: a7c5 d73b 3742 9cbe 82d4 b33c f960 67bc
00000100: 80bc ecbe e8eb 423d 132f de3c 1ab0 a6bd
00000110: 1aff 8dbe 8719 a1be 41c8 7bbd 7b6a a4be
00000120: 4270 2ebe 6e0b cebd 3f67 a6be b043 40bc
00000130: 23c7 ccbc 4f34 8e3d 5fec aebc 7d8f bcbd
00000140: 07d2 a1be 2a4d ab3d 67a1 96be 0713 95bb
00000150: f4ab 49be 7fa0 7cbe 8b8d 9ebd d17d abbe
00000160: e616 2b3c 673a 4abb e02c bcbd f78e 56be
00000170: 5f31 82be e92b eebe cf72 36be 56ca 62be
00000180: 6c5a 58be a09a b0bd 1ddd ba3d 9be8 c7be
00000190: aeff f3bd d568 97be 7a04 24bd 1691 9e3d
000001a0: 7e7e ddbd c8c1 98be a545 4dbe 68fe e4bc
000001b0: 7aee 923d 2914 dfbe cbf0 63be d5ae 08be
000001c0: 433a 12bf 485c b8be 9de5 88be fb19 b1be
000001d0: 3df0 083d c2dc 91be 402e 8ebe 0a51 a1bd
000001e0: e84b 9dbe d2f6 6fbe 66cc 8cbe 9d06 053e
000001f0: 7900 0cbe 4588 d8be 2462 14bd e8c7 05bf

network_body.linear_encoder.seq_layers.0.weight f4 [128, 35]
0.3258133 -0.43034887 0.06538834 -0.05063082 -0.05160328 0.17553742 -0.08485049 0.00029232958
-0.06742147 0.14913017 0.08477676 -0.20481794 -0.041402806 0.037610095 -0.2573711 0.019349474
0.167045 -0.11616853 0.56017643 -0.16663224 0.036746155 -0.6600994 0.06884056 0.39880896
0.81684405 -0.17242482 -0.43733004 -0.32714736 -0.20945178 -0.08648666 0.07637767 -0.11042516
0.33809334 -0.020266088 0.04319951 0.11460228 0.30836377 0.0007337755 -0.36167678 -0.017425738
-0.06695541 -0.098614804 -0.108801715 -0.21969433 0.26961952 0.20857567 -0.27102956 0.024378844
0.14108227 -0.32876843 0.20675999 0.078113005 -0.011415973 -0.17080638 -0.29635072 0.025744347
0.52083117 -0.58115613 0.15433294 -0.22023691 0.20061159 -0.14957051 0.024737058 0.053675625
-0.0049007963 0.02497587 0.22210838 0.029952105 -0.11074813 -0.09043745 -0.521866 0.19014677
-0.06675823 -0.2929239 -0.032281112 -0.05503818 -0.2085839 0.050253745 0.09117346 -0.09425007
0.50676465 0.37143937 0.14151564 -0.46668229 0.3094928 -0.11948455 -0.25577724 -0.0939774
-0.8902975 0.19887444 0.27399847 -0.0891412 0.03458978 -0.32979497 0.3575885 -0.0067957817
-0.18356241 0.3287307 -0.2305012 0.08081343 0.15119483 0.046184115 0.12120655 0.2491842
0.09905057 0.07563289 -0.164102 0.17660277 -0.11989982 -0.053395614 -0.052159198 0.06128872
-0.21693435 0.040217124 0.26552004 0.16457768 -0.20761682 0.0039023706 0.10985241 -0.07840746
0.22402717 -0.17160672 0.02965602 0.34511328 0.013867308 -0.15029521 0.11454774 -0.61985976
0.25331822 -0.2657691 0.11511892 -0.39689702 0.116504095 -0.009060224 0.21430878 0.058517832
0.058895268 0.23304678 -0.07687628 0.0038830384 -0.11036609 0.24795024 0.09997443 -0.2840905
-0.0065751695 0.14100115 -0.19249794 0.17485385 -0.11520998 -0.2237006 0.041120004 -0.10869922
-0.22584264 0.1475565 0.068690196 -0.032101735 0.08942899 -0.08657931 -0.6605149 0.39326957
0.22397466 -0.3802723 -0.70351595 0.5754752 0.74729276 -0.10621479 -0.4253428 -0.07457829
0.258047 -0.0027698283 0.21249427 -0.32478678 -0.123851344 -0.015526246 0.13664085 -0.08649217
-0.18098159 -0.20958458 -0.19860435 0.28190857 0.008872934 -0.012412704 -0.06797419 0.22327887
0.06155606 0.10508608 -0.024208348 0.050649483 0.085120626 -0.31293836 0.07721391 0.020479642
0.12628156 0.51525676 -0.32557964 -0.34450608 0.4253849 -0.4214552 0.24299087 -0.71819663
-0.029627072 -0.08946312 0.13065928 -0.09406357 -0.19819675 -0.046645142 -0.28415334 0.10317849
-0.1215331 -0.20932715 0.13898438 -0.23117846 0.037530683 -0.08683979 0.28728455 0.3372393
0.39249265 -0.1356592 -0.04659049 0.03761253 -0.11924309 -0.101176105 0.19172728 0.24422659
0.043447956 0.124240644 0.13173808 0.036654733 -0.09751958 0.31132963 0.038564153 -0.04383232
-0.023331972 -0.33025232 0.23958547 -0.062649965 0.34766233 0.124910876 -0.19659716 0.15996715
0.042911243 0.26950002 0.14773528 0.17471994 -0.064285666 0.13990869 -0.27638927 0.16064864
-0.48703542 -0.0040863487 0.03477911 0.22847424 0.14689724 0.16533218 -0.23641062 0.2786675
00000000: 00d1 a63e b056 dcbe 52ea 853d 4362 4fbd
00000010: f65d 53bd 15c0 333e 18c6 adbd d043 9939
00000020: 4514 8abd 94b5 183e 709f ad3d cbbb 51be
00000030: fd95 29bd 0b0d 1a3d 25c6 83be ca82 9e3c
00000040: d80d 2b3e c4e9 edbd b967 0f3f a4a1 2abe
00000050: 2383 163d 46fc 28bf 48fc 8c3d b030 cc3e
00000060: b11c 513f 2290 30be b9e9 dfbe dc7f a7be
00000070: 877a 56be eb1f b1bd e56b 9c3d 9626 e2bd
00000080: 921a ad3e 1105 a6bc f8f1 303d 9ab4 ea3d
00000090: dbe1 9d3e d75a 403a b32d b9be 6cc0 8ebc
000000a0: eb1f 89bd 8ff6 c9bd 6fd3 debd 8df7 60be
000000b0: 920b 8a3e dc94 553e 63c4 8abe 24b6 c73c
000000c0: df77 103e 5654 a8be e4b8 533e b6f9 9f3d
000000d0: 100a 3bbc dee7 2ebe 48bb 97be cfe5 d23c
000000e0: 3155 053f a6c6 14bf 7409 1e3e c985 61be
000000f0: 206d 4d3e 0329 19be 5fa5 ca3c f9da 5b3d
00000100: dc96 a0bb 329a cc3c 6170 633e 1e5e f53c
00000110: eacf e2bd 4537 b9bd 0399 05bf d6b5 423e
00000120: 8ab8 88bd 1ffa 95be 3339 04bd b76f 61bd
00000130: 0597 55be dfd6 4d3d 27b9 ba3d 2e06 c1bd
00000140: 54bb 013f 4d2d be3e 7ae9 103e fbf0 eebe
00000150: d775 9e3e 51b4 f4bd 3cf5 82be 3977 c0bd
00000160: 89ea 63bf bea5 4b3e 8749 8c3e a98f b6bd
00000170: 03ae 0d3d e3da a8be d715 b73e 26af debb
00000180: c9f7 3bbe 644f a83e 8208 6cbe 8381 a53d
00000190: d1d2 1a3e 8e2b 3d3d 243b f83d 252a 7f3e
000001a0: 06db ca3d 6be5 9a3d 5b0a 28be 5bd7 343e
000001b0: 098e f5bd 5cb5 5abd e2a4 55bd e209 7b3d
000001c0: 0a24 5ebe b6ba 243d 3ef2 873e 0d87 283e
000001d0: 8199 54be eabe 7f3b 4dfa e03d 1794 a0bd
000001e0: 6167 653e acb9 2fbe 2ff1 f23c b0b2 b03e
000001f0: b533 633c fde6 19be 0198 ea3d 21af 1ebf
00000200: edb2 813e e312 88be 78c3 eb3d 1636 cbbe
00000210: b399 ee3d 5571 14bc c373 5b3e 65b0 6f3d
00000220: 2a3c 713d d1a3 6e3e 5071 9dbd 937a 7e3b
00000230: 9e07 e2bd abe6 7d3e 65bf cc3d 4f74 91be
00000240: 8574 d7bb 9b62 103e 2e1e 45be e30c 333e
00000250: 36f3 ebbd c511 65be 736d 283d b29d debd
00000260: 4b43 67be 0d19 173e 72ad 8c3d 1c7d 03bd
00000270: 8c26 b73d 7e50 b1bd 8117 29bf a15a c93e
00000280: 9d59 653e 0db3 c2be 9f19 34bf 5852 133f
00000290: 944e 3f3f 2487 d9bd 88c6 d9be 81bc 98bd
000002a0: bd1e 843e 0286 35bb 1998 593e 744a a6be
000002b0: c6a5 fdbd cc61 7ebc 94eb 0b3e cf22 b1bd
000002c0: 3d53 39be 579d 56be f05e 4bbe 5256 903e
000002d0: c85f 113c a75e 4bbc 0d36 8bbd 37a3 643e
000002e0: 3522 7c3d 5f37 d73d 9650 c6bc d575 4f3d
000002f0: b953 ae3d 7539 a0be 5422 9e3d ecc4 a73c
00000300: f44f 013e dee7 033f 60b2 a6be 1a63 b0be
00000310: 0dcc d93e fac8 d7be 99d2 783e bcdb 37bf
00000320: 79b4 f2bc 7138 b7bd 8ccb 053e 67a4 c0bd
00000330: 17f4 4abe fa0e 3fbd 8c7c 91be 3f4f d33d
00000340: 59e6 f8bd db59 56be ec51 0e3e 0cba 6cbe
00000350: c6b9 193d 0fd9 b1bd f616 933e a1aa ac3e
00000360: ccf4 c83e 3fea 0abe abd5 3ebd 990f 1a3d
00000370: b935 f4bd 6b35 cfbd 2854 443e 8916 7a3e
00000380: 7cf6 313d e171 fe3d 59e6 063e 4623 163d
00000390: 58b8 c7bd 9966 9f3e 72f5 1d3d 8589 33bd
000003a0: b122 bfbc d516 a9be e555 753e a04e 80bd
000003b0: cc00 b23e 46d1 ff3d c450 49be 6ece 233e
000003c0: b3c3 2f3d e8fb 893e eb47 173e c9e9 323e
000003d0: 34a8 83bd 3944 0f3e e582 8dbe 1481 243e
000003e0: b55c f9be c7e6 85bb 8a74 0e3d 27f5 693e
000003f0: 3b6c 163e d74c 293e a015 72be 82ad 8e3e

network_body.linear_encoder.seq_layers.2.bias f4 [128]
-0.06927441 0.058727488 -0.084960714 -0.0034585358 -0.13261479 0.03891494 -0.02471122 -0.43480232
-0.092185386 -0.31303516 -0.3162216 0.06846042 -0.4121324 -0.17697011 -0.24622002 -0.28634056
-0.17861241 -0.16969422 0.034772452 -0.08820638 -0.042823207 -0.007416765 -0.16832238 0.16384588
-0.2765929 0.13808207 -0.38169414 -0.24469218 0.10720448 0.12810741 -0.1604647 0.104310684
-0.026648838 -0.2165904 0.10298262 -0.3585464 -0.35503262 -0.30639812 -0.30301887 -0.008713779
-0.36080498 -0.31138852 -0.0939617 -0.44540888 -0.084704325 -0.042415272 -0.26724473 -0.12506177
-0.38678825 -0.22845757 -0.45556155 -0.06276722 0.09834592 -0.29647908 0.14234829 -0.124519825
-0.09103671 -0.093044944 0.024837082 -0.11020806 -0.30857977 -0.0772547 -0.114223816 -0.31557006
0.07434594 -0.35977435 0.20732318 -0.024691382 -0.55676323 -0.3646662 -0.40537083 -0.12037112
-0.28259456 -0.106241465 0.16466455 -0.12668759 -0.108375214 0.028741995 -0.15904114 -0.052582167
-0.2517844 0.0021641883 -0.013708955 0.13542111 -0.22663715 0.005444297 0.0004839282 -0.33991784
0.04506773 -0.50299764 0.13465506 -0.35447678 -0.2981361 -0.20113567 -0.096181214 -0.21134369
0.11379863 -0.06890945 -0.06699216 -0.07534224 -0.30957475 0.024254225 -0.029240046 -0.09956547
-0.4415135 -0.12509772 -0.0123298485 0.15986599 0.08252273 -0.17677364 -0.08219765 -0.09696401
-0.1863145 -0.44431993 -0.1533382 -0.068485774 -0.04520389 -0.3866845 -0.29056218 -0.19072671
0.11585808 -0.03866474 -0.23007642 0.04878028 -0.35757938 -0.30585468 -0.28007242 0.00082413224
00000000: bedf 8dbd 3c8c 703d e2ff adbd 9aa8 62bb
00000010: 2ccc 07be 4665 1f3d 2f6f cabc 699e debe
00000020: b1cb bcbd 2546 a0be cce7 a1be fa34 8c3d
00000030: 0503 d3be a737 35be 1a21 7cbe 3b9b 92be
00000040: 2ce6 36be 52c4 2dbe 8f6d 0e3d 8ca5 b4bd
00000050: 6367 2fbd 5608 f3bb b45c 2cbe 37c7 273e
00000060: 969d 8dbe 6365 0d3e 6a6d c3be 9690 7abe
00000070: 068e db3d 972e 033e dc50 24be d7a0 d53d
00000080: aa4e dabc e0c9 5dbe 8de8 d23d 6593 b7be
00000090: d6c6 b5be 37e0 9cbe 4a25 9bbe 3dc4 0ebc
000000a0: 6ebb b8be 516e 9fbe fe6e c0bd a20c e4be
000000b0: 7679 adbd a3bb 2dbd 4dd4 88be 3110 00be
000000c0: 1c09 c6be c8f0 69be 5d3f e9be 1a8c 80bd
000000d0: 9669 c93d 1bcc 97be c0c3 113e 4004 ffbd
000000e0: 7471 babd 598e bebd 2377 cb3c c3b4 e1bd
000000f0: 2bfe 9dbe b637 9ebd 2dee e9bd 6692 a1be
00000100: af42 983d 5834 b8be 874c 543e 9545 cabc
00000110: 0988 0ebf 87b5 babe c48c cfbe 2285 f6bd
00000120: 3cb0 90be 2095 d9bd d39d 283e 64ba 01be
00000130: d3f3 ddbd 5574 eb3c aedb 22be 6660 57bd
00000140: e3e9 80be 0ed5 0d3b 869b 60bc d5ab 0a3e
00000150: 9213 68be 1366 b23b beb7 fd39 b609 aebe
00000160: f198 383d 74c4 00bf 04e3 093e fb7d b5be
00000170: 4ba5 98be 82f6 4dbe a8fa c4bd 7b6a 58be
00000180: 420f e93d 6620 8dbd 3033 89bd 084d 9abd
00000190: 9580 9ebe ccb0 c63c d288 efbc fbe8 cbbd
000001a0: 0f0e e2be 9e19 00be 2203 4abc e9b3 233e
000001b0: ad01 a93d 2604 35be 3e57 a8bd 1195 c6bd
000001c0: 3ac9 3ebe e77d e3be b004 1dbe 4542 8cbd
000001d0: b727 39bd 83fb c5be 91c4 94be dd4d 43be
000001e0: 0047 ed3d eb5e 1ebd 2799 6bbe d5cd 473d
000001f0: a514 b7be fc98 9cbe a765 8fbe 940a 583a

network_body.linear_encoder.seq_layers.2.weight f4 [128, 128]
-0.03180351 -0.0812277 -0.009122321 -0.11266985 0.057220936 -0.21116653 -0.26158768 -0.17866588
-0.17697717 -0.18530227 -0.023156835 0.16368188 -0.10655076 -0.4955592 0.1529184 -0.0605256
-0.16896187 -0.014071369 -0.024839409 0.340791 -0.3436446 0.052019533 0.04854975 0.066527665
-0.046778865 -0.043494184 -0.21453992 -0.22479996 -0.30131522 -0.10259893 -0.12890428 0.12415166
0.13704197 0.03310499 0.21544564 -0.32111385 0.10739804 -0.10801099 -0.25291958 0.17627618
0.13855603 -0.09105288 -0.041823756 0.010232331 -0.1710343 0.08347865 0.13393725 0.2713346
0.2228506 -0.15131676 -0.012982701 -0.29019752 -0.4064726 -0.1338722 -0.2074211 -0.41085854
-0.06683296 0.11745065 0.095299505 -0.0011095628 0.15190107 0.21082157 -0.34177202 -0.02649971
0.008233364 -0.048155263 0.08725349 -0.52117157 0.06804988 0.18129186 0.096432544 0.07231924
-0.048605945 0.021814894 0.059622135 -0.16562757 -0.1715782 0.27232793 -0.04612632 -0.15433842
-0.05387066 0.27413836 0.083105765 0.14189814 -0.3266004 0.07571283 0.103243716 -0.21306115
0.041285846 -0.07236169 -0.09343214 0.090888605 -0.3788667 -0.34117106 -0.082685664 -0.4306403
0.04339981 0.10136037 -0.3695062 0.21012974 -0.3707775 0.07879242 0.2027062 -0.24669534
-0.078989014 0.16507931 -0.39301252 -0.26031995 -0.29134315 -0.10863978 -0.24069318 -0.20989147
0.15794265 -0.16834243 0.2465506 -0.4611742 -0.45732006 -0.012595878 0.26824903 0.21889524
-0.37310687 -0.09154223 -0.033981815 -0.14709845 0.48574987 -0.36449328 -0.33790725 -0.41644564
-0.36051545 0.083970875 0.019069606 0.15565847 -0.08750059 -0.039805442 -0.17799526 -0.37820303
6.9847025e-05 -0.2824348 0.2458689 -0.18288444 0.011969763 -0.31437555 -0.2431314 0.09153621
0.4189018 0.188853 -0.26917118 -0.14213866 0.060260847 -0.2236887 -0.19717482 -0.09985191
-0.20346688 -0.17649245 -0.69760764 0.31495816 -0.13245153 -0.6224711 -0.08195297 -0.34284487
0.027708426 -0.15953009 -0.27911797 -0.02411927 -0.22201188 -0.0063611628 -0.158697 -0.046583746
-0.25894073 -0.25657922 0.14662781 -0.3404143 -0.25469708 -0.0635152 -0.13128133 -0.20976898
-0.093193494 -0.11113159 0.022282906 0.18296541 0.09677389 -0.29779893 -0.2767033 0.18769191
-0.44193578 0.18869819 -0.16437413 -0.4150927 -0.38337794 -0.38097322 -0.24207133 -0.2812127
-0.011044396 -0.14998442 0.17785554 -0.09424822 -0.44599548 -0.08924297 -0.33234712 0.3668305
0.01617123 0.010070087 -0.086434506 0.6374093 0.17963046 -0.15423074 -0.25519106 0.36489463
-0.41963616 -0.8073163 0.21741833 0.06690091 0.048497666 -0.38335893 -0.31819043 -0.21373917
0.041093744 0.4053519 -0.08738897 -0.26651257 -0.17025729 0.041222528 0.11884072 0.04785599
-0.027172707 -0.108808935 -0.13545927 0.29286164 -0.8039961 -0.44974563 -0.19469547 -0.051845334
-0.32708 -0.022666812 -0.16050336 -0.14785568 -0.17807765 -0.02150967 -0.13358329 -0.20252465
-0.51561207 0.15082425 -0.31285888 0.09040223 -0.044124793 0.13567035 -0.19522198 -0.18737131
0.23217794 -0.16088131 0.09912892 0.09569061 -0.02635479 -0.21641211 0.27364573 -0.37352213
00000000: 6644 02bd b55a a6bd ca75 15bc 73bf e6bd
00000010: 8060 6a3d 0a3c 58be d2ee 85be 30f4 36be
00000020: 8139 35be e1bf 3dbe 67b3 bdbc 399c 273e
00000030: 4937 dabd efb9 fdbe a496 1c3e b1e9 77bd
00000040: 5704 2dbe 998b 66bc 047c cbbc 287c ae3e
00000050: 2ff2 afbe 6f12 553d 1adc 463d a83f 883d
00000060: 329b 3fbd f526 32bd 5ab0 5bbe f631 66be
00000070: fd45 9abe 631f d2bd 7cff 03be 3a43 fe3d
00000080: bb54 0c3e 1999 073d c89d 5c3e 0969 a4be
00000090: 81f3 db3d de34 ddbd ad7e 81be be81 343e
000000a0: a2e1 0d3e ef79 babd 634f 2bbd 82a5 273c
000000b0: 9e23 2fbe dbf6 aa3d d926 093e 5eec 8a3e
000000c0: f332 643e c8f2 1abe 65b5 54bc c594 94be
000000d0: 2d1d d0be cb15 09be 3266 54be 0d5c d2be
000000e0: b8df 88bd f789 f03d 632c c33d c06e 91ba
000000f0: f48b 1b3e 9ce1 573e befc aebe eb15 d9bc
00000100: 3be5 063c 743e 45bd f5b1 b23d 806b 05bf
00000110: bc5d 8b3d 93a4 393e 6d7e c53d 1c1c 943d
00000120: 0717 47bd 26b5 b23c 5736 743d 469a 29be
00000130: 32b2 2fbe 916e 8b3e f4ee 3cbd e40a 1ebe
00000140: 7ba7 5cbd dd5b 8c3e 5b33 aa3d bf4d 113e
00000150: 2b38 a7be 540f 9b3d 7171 d33d b42c 5abe
00000160: 591b 293d 5e32 94bd 5a59 bfbd ce23 ba3d
00000170: d1fa c1be f9ad aebe 1a57 a9bd e37c dcbe
00000180: 00c4 313d 0796 cf3d eb2f bdbe 402c 573e
00000190: 8cd6 bdbe ec5d a13d 3792 4f3e b49d 7cbe
000001a0: fec4 a1bd 8d0a 293e f038 c9be a848 85be
000001b0: ee2a 95be 887e debd 4678 76be caed 56be
000001c0: b8bb 213e f561 2cbe c377 7c3e 061f ecbe
000001d0: db25 eabe f15e 4ebc f057 893e 1326 603e
000001e0: dd07 bfbe 7e7a bbbd 8430 0bbd faa0 16be
000001f0: 35b4 f83e dd9e babe 2e02 adbe 5d38 d5be
00000200: 7b95 b8be ecf8 ab3d dd37 9c3c ef64 1f3e
00000210: 8233 b3bd 080b 23bd 6444 36be d4a3 c1be
00000220: d67a 9238 4b9b 90be 0fc5 7b3e 0f46 3bbe
00000230: d31c 443c d5f5 a0be 70f7 78be 5677 bb3d
00000240: 4c7a d63e ae62 413e ced0 89be cc8c 11be
00000250: 14d4 763d a70e 65be 32e8 49be 287f ccbd
00000260: 9f59 50be 70ba 34be 6a96 32bf 3242 a13e
00000270: 60a1 07be 445a 1fbf f5d6 a7bd 5d89 afbe
00000280: c8fc e23c db5b 23be 8de8 8ebe c695 c5bc
00000290: 1557 63be 4d71 d0bb 7781 22be 99ce 3ebd
000002a0: e193 84be 5a5e 83be 9a25 163e c84a aebe
000002b0: a867 82be 4214 82bd 9d6e 06be aecd 56be
000002c0: 3bdc bebd f698 e3bd a48a b63c 495b 3b3e
000002d0: 6431 c63d 1a79 98be 0eac 8dbe 4f32 403e
000002e0: 6845 e2be 193a 413e b151 28be 0887 d4be
000002f0: 1d4a c4be ec0e c3be 8ce1 77be 1cfb 8fbe
00000300: 8ef3 34bc 8495 19be c31f 363e 3605 c1bd
00000310: 8559 e4be 05c5 b6bd 6729 aabe 35d1 bb3e
00000320: 8779 843c 02fd 243c 9304 b1bd 422d 233f
00000330: 0cf1 373e aaee 1dbe 67a8 82be 78d3 ba3e
00000340: 8dda d6be 48ac 4ebf e9a2 5e3e 5803 893d
00000350: 7da5 463d 9f47 c4be dbe9 a2be 71de 5abe
00000360: ea51 283d 498a cf3e fdf8 b2bd 5674 88be
00000370: ed57 2ebe f4d8 283d c362 f33d a404 443d
00000380: 4c99 debc 38d7 debd d6b5 0abe f6f1 953e
00000390: b0d2 4dbf 0f45 e6be 405e 47be c65b 54bd
000003a0: 0877 a7be c0af b9bc fe5a 24be 7b67 17be
000003b0: fd59 36be 0c35 b0bc 0fca 08be 9f62 4fbe
000003c0: 27ff 03bf ac71 1a3e 0a2f a0be ce24 b93d
000003d0: 33bc 34bd 2bed 0a3e 45e8 47be 44de 3fbe
000003e0: 0ec0 6d3e 12be 24be 1a04 cb3d 70f9 c33d
000003f0: 00e6 d7bc 239b 5dbe 4b1b 8c3e 4b3e bfbe

network_body.linear_encoder.seq_layers.4.bias f4 [128]
0.33024377 -0.13250022 -0.118487865 0.5462562 -0.13551252 0.18506482 0.34537175 0.51893055
0.3897265 0.16226384 0.54028755 -0.4114086 0.11940367 0.13850641 0.12877706 0.0058542164
-0.3758852 -0.122744985 0.25709474 -0.04397803 -0.07511485 -0.22155029 0.12271719 0.13575557
-0.115473814 0.20855439 0.25091326 0.32114887 0.13836262 0.42339742 -0.24344978 0.45243016
-0.057539698 0.12096328 -0.077383965 0.11279891 0.1630597 -0.016219368 -0.025070868 0.0239416
0.37463498 -0.17499924 0.55348974 0.034647793 0.44196996 0.13006812 -0.06740424 0.21987745
-0.07487304 -0.04197307 0.41701815 -0.27447292 0.24000436 0.039025247 0.18012968 -0.17097384
0.12559567 0.18677817 -0.11662685 -0.14765577 0.35406113 -0.11956331 0.29742932 -0.47024432
0.5067494 -0.1042445 0.33777064 0.6020733 0.22359407 -0.26786086 0.02429967 -0.23850149
-0.18859841 0.1594396 0.45066342 -0.06468875 -0.044574607 0.62808734 0.31520575 0.16027685
-0.039025284 0.07567614 0.16525897 0.34155494 0.0934219 0.32681626 -0.021718817 0.015241142
0.16849515 0.15496781 -0.45220754 0.18944414 0.49581605 0.25630865 0.029197793 0.47111407
0.18441452 0.48422033 -0.07275881 0.10290635 -0.013331589 0.31693816 -0.052123424 0.12599641
0.0727747 0.0112581225 0.032206994 0.018902212 0.24356194 0.06290852 0.059175976 0.569797
0.21746172 0.005960687 0.019664627 0.48750833 0.047288287 0.013114841 0.14679435 0.3489265
0.05630115 -0.2609413 0.032228377 -0.042552896 0.3894549 0.22671813 0.42498294 -0.12779349
00000000: b615 a93e 23ae 07be c4a9 f2bd 72d7 0b3f
00000010: cbc3 0abe a281 3d3e 91d4 b03e a2d8 043f
00000020: 3b8a c73e 7e28 263e 4950 0a3f 26a4 d2be
00000030: e989 f43d a0d4 0d3e 22de 033e bad4 bf3b
00000040: 0674 c0be b961 fbbd eca1 833e 4f22 34bd
00000050: d1d5 99bd 14de 62be 2653 fb3d 8203 0b3e
00000060: 897d ecbd 488f 553e b477 803e a06d a43e
00000070: eeae 0d3e 8cc7 d83e e64a 79be eda4 e73e
00000080: bfae 6bbd 99bb f73d 7c7b 9ebd 1d03 e73d
00000090: 1ff9 263e 7bde 84bc 6c61 cdbc 2d21 c43c
000000a0: 28d0 bf3e 0033 33be 81b1 0d3f d8ea 0d3d
000000b0: e349 e23e 9430 053e 3c0b 8abd 8e27 613e
000000c0: 0957 99bd f4eb 2bbd 6783 d53e b787 8cbe
000000d0: b4c3 753e f0d8 1f3d ea73 383e c413 2fbe
000000e0: 279c 003e c742 3f3e 0fda eebd 1333 17be
000000f0: 8047 b53e 9cdd f4bd a848 983e ddc3 f0be
00000100: 54ba 013f 247e d5bd 46f0 ac3e 7a21 1a3f
00000110: d8f5 643e 0f25 89be 1a10 c73c bc39 74be
00000120: f11f 41be 2244 233e 5bbd e63e 897b 84bd
00000130: dd93 36bd 55ca 203f a662 a13e 9d1f 243e
00000140: fad8 1fbd 18fc 9a3d a639 293e 4ae0 ae3e
00000150: fb53 bf3d 7654 a73e a9eb b1bc fcb5 793c
00000160: fe89 2c3e e2af 1e3e bf87 e7be a5fd 413e
00000170: 9adb fd3e e33a 833e 3630 ef3c dd35 f13e
00000180: 29d7 3c3e baeb f73e 9202 95bd 90c0 d23d
00000190: bd6c 5abc b845 a23e 5f7f 55bd 3405 013e
000001a0: e70a 953d fd73 383c 7beb 033d d0d8 9a3c
000001b0: 4d68 793e 2fd6 803d 8262 723d 37de 113f
000001c0: 49ae 5e3e de51 c33b b617 a13c b19a f93e
000001d0: 5db1 413d a1df 563c 4251 163e 7fa6 b23e
000001e0: 099c 663d 199a 85be e701 043d f24b 2ebd
000001f0: a266 c73e cc28 683e 5d97 d93e 4cdc 02be

network_body.linear_encoder.seq_layers.4.weight f4 [128, 128]
-0.18057838 -0.091469966 -0.19847398 -0.078347124 -0.1371521 0.085023105 0.02271888 0.52798104
0.10071399 -0.34795773 -0.73882824 0.043864083 0.21202953 -0.20500614 -0.031949878 -0.10697538
0.42577136 -0.06234623 -0.17920434 -0.2252337 -0.065697365 -0.14127526 0.06589932 -0.7217681
0.2883793 -0.15267801 -0.2917609 -0.0008140683 -0.010302823 0.061974403 -0.6369067 0.25851062
-0.45309582 -0.49190852 -0.13805479 -0.098459296 -0.4429489 0.009951553 -0.29122198 -0.03980172
-0.12816644 -0.23431204 0.028384186 -0.4151935 -0.07709708 -0.05567799 -0.07247946 0.19583134
-0.27911454 -0.61491185 -0.16364141 0.06991521 -0.54315686 -0.13345799 -0.056802485 -0.74213606
-0.043364435 -0.17913833 -0.20600507 0.07993511 -0.37839216 -0.4852378 0.26711783 0.03424707
-0.058893315 -0.39878976 -0.23792146 -0.08000773 -0.5684825 0.0107253315 -0.1833934 0.021215564
0.09211758 -0.46876556 0.12926383 -0.057721864 0.38236105 -0.5340787 -0.33072975 0.20912068
-0.1107443 -0.26363033 -0.119248785 -0.029139938 0.23658475 0.30299804 0.045971155 0.019175777
-0.09431928 -0.4863387 0.15908584 0.021301452 -0.042218015 -0.22268221 -0.48992664 -0.016572068
0.009908967 -0.47320673 -0.0038498696 0.07526878 -0.06692809 -0.9332227 -0.21119034 -0.21127102
-0.34879053 0.24660239 -0.6576394 -0.07928212 -0.39362448 0.4322997 -0.26762533 -0.97576344
-0.25516978 0.030257197 -0.16885203 -0.1820915 -0.009933818 -0.086792395 0.12275423 -0.022198513
0.05866004 0.031297907 0.19977516 -0.10163309 -0.39138675 -0.09971094 0.07219002 -0.18398027
0.14823194 0.09030816 0.11210672 -0.068458445 -0.06021944 -0.20196144 -0.48830345 -0.0037204702
0.21680401 -0.1732197 -0.015548744 0.13810986 0.006992579 0.058440834 -0.080842406 0.05565314
0.07723528 0.07492804 -0.38437337 0.14718886 -0.026920764 -0.4662595 -0.053345837 -0.35656247
0.24655569 -0.2808965 0.060147475 0.18471338 0.15283938 0.045111895 -0.11827315 -0.17936324
0.29638103 0.082866795 0.17946927 0.35410672 0.18608199 -0.24098349 -0.56174153 0.00035295132
0.07243852 0.17915422 0.035378523 0.2832865 -0.05005963 -0.095988035 0.27804184 0.16220692
0.071242824 -0.21552794 -0.32060912 -0.26699033 -0.062326953 0.20720245 0.27818042 -0.015471835
0.32934183 -0.56165856 -0.083088376 -0.34887037 -0.45619136 0.48097757 -0.0008912258 -0.018565744
0.14563248 0.11714355 0.026533166 0.52901775 0.20758812 -0.31917623 -0.07492618 -0.34960058
0.12627675 -0.074240394 -0.24199422 0.121649005 -0.39995477 0.107636094 0.28286126 -0.6161189
0.2736259 0.02714547 0.16811454 -0.0751457 0.189159 0.01286578 0.11813127 0.28706738
0.14740369 -0.064853385 -0.1459339 0.26985994 0.109231055 0.19526678 0.47009224 -0.035730153
0.1451419 0.029338958 0.035347044 -0.43880457 0.30611473 0.3797594 0.23244084 0.13674745
-0.31883916 0.18798858 -0.106015116 0.15720712 0.53236204 -0.46282566 -0.20813964 0.20791012
0.15556185 0.45780227 -0.5275618 0.13013834 -0.21506429 -0.04643142 0.38119432 0.044494525
0.0074686883 0.065721616 -0.20237842 0.5118866 -0.18524797 0.5130531 0.12900764 0.44375324
00000000: 8ae9 38be 9b54 bbbd c33c 4bbe 7574 a0bd
00000010: 9a71 0cbe 9820 ae3d f21c ba3c c429 073f
00000020: 2343 ce3d 8427 b2be d923 3dbf d3aa 333d
00000030: 451e 593e 21ed 51be e0dd 02bd e815 dbbd
00000040: b4fe d93e c35e 7fbd 5881 37be aaa3 66be
00000050: 578c 86bd 76aa 10be 39f6 863d cbc5 38bf
00000060: 74a6 933e a057 1cbe af61 95be 3367 55ba
00000070: 2ccd 28bc dfd8 7d3d 510c 23bf 815b 843e
00000080: 2dfc e7be 6fdb fbbe 3c5e 0dbe 07a5 c9bd
00000090: 33ca e2be d70b 233c 0c1b 95be 2107 23bd
000000a0: 103e 03be 7fef 6fbe f485 e83c 3e94 d4be
000000b0: 13e5 9dbd 9b0e 64bd 1c70 94bd 0388 483e
000000c0: 1ae8 8ebe dd6a 1dbf 9d91 27be b52f 8f3d
000000d0: 540c 0bbf 36a9 08be b9a9 68bd a1fc 3dbf
000000e0: e89e 31bd 0a70 37be fef2 52be 05b5 a33d
000000f0: 9ebc c1be 1771 f8be abc3 883e a846 0c3d
00000100: 1e3a 71bd 2c2e ccbe afa1 73be 18db a3bd
00000110: 1288 11bf 4db9 2f3c 7bcb 3bbe 43cc ad3c
00000120: 24a8 bc3d 0a02 f0be bd5d 043e c36d 6cbd
00000130: d4c4 c33e 62b9 08bf 6955 a9be bb23 563e
00000140: e8cd e2bd 8efa 86be b538 f4bd e1b6 eebc
00000150: 4643 723e 8f22 9b3e 404c 3c3d 8516 9d3c
00000160: 772a c1bd 6301 f9be 66e7 223e 6280 ae3c
00000170: ccec 2cbd ce06 64be aad7 fabe 25c2 87bc
00000180: 3859 223c 2748 f2be 184e 7cbb 8526 9a3d
00000190: 9811 89bd afe7 6ebf 4842 58be 6e57 58be
000001a0: ac94 b2be 5685 7c3e 0e5b 28bf aa5e a2bd
000001b0: 2689 c9be 6356 dd3e 3006 89be a2cb 79bf
000001c0: 9da5 82be f1dd f73c 8ce7 2cbe 3276 3abe
000001d0: 74c1 22bc 36c0 b1bd 9266 fb3d a8d9 b5bc
000001e0: 8345 703d 3c32 003d dc91 4c3e 0225 d0bd
000001f0: d863 c8be 4035 ccbd 5cd8 933d 5365 3cbe
00000200: 1dca 173e 7cf3 b83d 3598 e53d f133 8cbd
00000210: a9a8 76bd fbce 4ebe e902 fabe 22d3 73bb
00000220: df01 5e3e 8160 31be 29c0 7ebc ac6c 0d3e
00000230: 0122 e53b a85f 6f3d b490 a5bd 8cf4 633d
00000240: 882d 9e3d df73 993d 96cc c4be adb8 163e
00000250: ef88 dcbc 91b9 eebe 2a81 5abd 5b8f b6be
00000260: 1879 7c3e abd1 8fbe 335d 763d 8125 3d3e
00000270: ed81 1c3e 40c7 383d 3139 f2bd ffaa 37be
00000280: 41bf 973e 11b6 a93d cbc6 373e 7a4d b53e
00000290: 478c 3e3e 60c4 76be 4bce 0fbf 530c b939
000002a0: a65a 943d 3474 373e 12e9 103d ee0a 913e
000002b0: 540b 4dbd 6095 c4bd 805b 8e3e 9219 263e
000002c0: c2e7 913d 5bb3 5cbe e126 a4be f5b2 88be
000002d0: 8c4a 7fbd e12c 543e aa6d 8e3e 947d 7dbc
000002e0: 7e9f a83e dbc8 0fbf 3d2a aabd 239f b2be
000002f0: ea91 e9be b142 f63e 27a1 69ba 3017 98bc
00000300: ae20 153e f5e8 ef3d 155c d93c b56d 073f
00000310: fb91 543e 116b a3be e672 99bd d9fe b2be
00000320: b14e 013e 590b 98bd 55cd 77be 1d23 f93d
00000330: dfc6 ccbe 5070 dc3d 31d3 903e f8b9 1dbf
00000340: b218 8c3e 2d60 de3c 3826 2c3e fde5 99bd
00000350: e6b2 413e feca 523c cfee f13d 7ffa 923e
00000360: fef0 163e dad1 84bd b26f 15be 152b 8a3e
00000370: 88b4 df3d 04f4 473e eeaf f03e c859 12bd
00000380: 14a0 143e 4158 f03c 10c8 103d feaa e0be
00000390: 12bb 9c3e d36f c23e f904 6e3e 8607 0c3e
000003a0: e33e a3be 1480 403e 741e d9bd e7fa 203e
000003b0: e148 083f 7cf7 ecbe 8f22 55be 64e6 543e
000003c0: 9b4b 1f3e 0f65 ea3e 4a0e 07bf fc42 053e
000003d0: d039 5cbe df2e 3ebd e72b c33e e43f 363d
000003e0: e6bb f43b 0e99 863d 4a3c 4fbe 000b 033f
000003f0: a5b1 3dbe 7357 033f 941a 043e a033 e33e

network_body.vector_processors.0.normalizer.running_mean f4 [35]
0.9384017 0.9697226 0.9332398 0.96695423 0.9417046 0.9705669 0.93904036 0.97003585
0.94866115 0.9739459 0.94409966 0.97195953 0.95001626 0.9743722 0.9492321 0.9746914
0.9492321 0.9746914 0.01638513 -8.069173e-05 -0.0623994 -0.53742254 0.49868432 -0.51806355
-0.4038234 0.26708603 -0.45387298 0.0 0.0 0.0 0.0 0.0
0.0 0.0 0.0
00000000: 183b 703f be3f 783f cee8 6e3f 508a 773f
00000010: 8d13 713f 1377 783f f364 703f 4554 783f
00000020: 75db 723f 8554 793f 84b0 713f 57d2 783f
00000030: 4434 733f 7570 793f e000 733f 6085 793f
00000040: e000 733f 6085 793f 1c3a 863c 0b39 a9b8
00000050: 8396 7fbd 8694 09bf 8d53 ff3e d09f 04bf
00000060: f1c1 cebe 80bf 883e 0a62 e8be 0000 0000
00000070: 0000 0000 0000 0000 0000 0000 0000 0000
00000080: 0000 0000 0000 0000 0000 0000
