Assets/Scripts/2.2 SensorBall&TooManyCats/TooManyCats-30M.onnx (onnx, 192106 bytes, 11 tensors)

69 f4 [107]
0.353942 0.22385024 0.35852295 0.22658056 0.34768596 0.22079694 0.35990575 0.22838204
0.34288028 0.21859439 0.359631 0.22888768 0.34079736 0.21753766 0.35914654 0.22829702
0.3381749 0.2161242 0.3572161 0.22634377 0.33485064 0.21375321 0.35618052 0.22406773
0.3289938 0.2099226 0.35432622 0.22181726 0.3251699 0.20740369 0.35185966 0.21958812
0.32455313 0.20668367 0.3463763 0.21677724 0.31963035 0.20514527 0.3423266 0.21504176
0.31850207 0.20420277 0.33989072 0.2141692 0.3153694 0.20290163 0.33543816 0.21245329
0.3163401 0.20300275 0.33258834 0.21128221 0.32007885 0.20378286 0.32992473 0.20939219
0.318198 0.20296264 0.32816437 0.20760664 0.32050318 0.20351632 0.32664996 0.20590092
0.32665 0.20590094 4.1335444 0.041955464 4.079327 4.5031633 0.045894645 4.48778
4.0532603 0.057250977 4.077492 0.0001825745 0.0001825745 0.0001825745 0.0001825745 0.0001825745
0.0001825745 0.0001825745 0.0001825745 0.0001825745 0.0001825745 0.0001825745 0.0001825745 0.0001825745
0.0001825745 0.0001825745 0.0001825745 0.0001825745 0.0001825745 0.0001825745 0.0001825745 0.0001825745
0.0001825745 0.0001825745 0.0001825745 0.0001825745 0.0001825745 0.0001825745 0.0001825745 0.0001825745
0.0001825745 0.0001825745 0.0001825745
00000000: e337 b53e ff38 653e 5290 b73e bc04 683e
00000010: e503 b23e 9818 623e 9145 b83e fbdc 693e
00000020: 018e af3e 35d7 5f3e 8e21 b83e 8861 6a3e
00000030: fe7c ae3e 31c2 5e3e 0ee2 b73e b2c6 693e
00000040: 4325 ad3e aa4f 5d3e 07e5 b63e a9c6 673e
00000050: 8b71 ab3e 1fe2 5a3e 4b5d b63e 0372 653e
00000060: e071 a83e f3f5 563e 3f6a b53e 1024 633e
00000070: ab7c a63e a261 543e f326 b43e b5db 603e
00000080: d42b a63e e2a4 533e 3c58 b13e dafa 5d3e
00000090: 97a6 a33e 9a11 523e 6f45 af3e e833 5c3e
000000a0: b412 a33e 881a 513e 2806 ae3e 2c4f 5b3e
000000b0: 1978 a13e 72c5 4f3e 8dbe ab3e 5b8d 593e
000000c0: 54f7 a13e f4df 4f3e 0549 aa3e 5d5a 583e
000000d0: 60e1 a33e 74ac 503e e5eb a83e e86a 563e
000000e0: d9ea a23e 70d5 4f3e 2905 a83e d696 543e
000000f0: fe18 a43e 9566 503e aa3e a73e b1d7 523e
00000100: ab3e a73e b2d7 523e ff45 8440 7ed9 2b3d
00000110: d989 8240 ea19 9040 06fc 3b3d e59b 8f40
00000120: 4fb4 8140 0080 6a3d d17a 8240 7871 3f39
00000130: 7871 3f39 7871 3f39 7871 3f39 7871 3f39
00000140: 7871 3f39 7871 3f39 7871 3f39 7871 3f39
00000150: 7871 3f39 7871 3f39 7871 3f39 7871 3f39
00000160: 7871 3f39 7871 3f39 7871 3f39 7871 3f39
00000170: 7871 3f39 7871 3f39 7871 3f39 7871 3f39
00000180: 7871 3f39 7871 3f39 7871 3f39 7871 3f39
00000190: 7871 3f39 7871 3f39 7871 3f39 7871 3f39
000001a0: 7871 3f39 7871 3f39 7871 3f39

action_model._continuous_distribution.log_sigma f4 [1, 2]
-0.07633852 -0.12649453
00000000: 5f57 9cbd c887 01be

action_model._continuous_distribution.mu.bias f4 [2]
-0.14303973 -0.04616785
00000000: 0279 12be 801a 3dbd

action_model._continuous_distribution.mu.weight f4 [2, 128]
-0.027968489 0.2519245 -0.19614266 0.18900575 0.22241913 0.11623666 -0.067750245 -0.03862363
0.15837464 -0.04839679 -0.26210922 0.19695349 0.11545586 -0.02657697 0.34440672 -0.066542946
0.09351681 0.045578666 0.09345291 -0.111227736 -0.010417292 -0.06317372 0.288006 0.18008861
0.039221138 -0.2582081 0.15492524 -0.06599686 -0.066849485 0.085437216 0.079240575 0.1720918
0.058704924 0.007931653 -0.09714423 -0.0075112437 -0.3611881 -0.013604839 0.291329 0.19698568
-0.07827849 0.270692 0.09168039 -0.10522605 -0.027752314 0.251396 0.22782286 0.06384984
0.1368228 -0.26648644 -0.056775533 -0.07173424 -0.20064366 -0.13904797 0.12765512 0.13783766
-0.3040258 -0.119297154 0.07517186 0.12430505 -0.12875295 -0.09634177 -0.1393088 0.12619056
0.2067513 -0.15267198 -0.2689503 0.038636412 -0.028427675 0.099468395 -0.20575075 -0.025002178
-0.052565057 0.06242482 0.032877035 -0.033287995 -0.07726552 -0.016946722 0.094315894 0.059359934
-0.17009391 0.12199952 -0.12979512 0.040700123 -0.08101177 -0.15624136 0.011644314 -0.22326024
0.3793492 0.0402185 0.020268662 0.060828142 0.12040376 0.25187925 -0.14971471 -0.1984127
-0.28415787 0.009261711 -0.18638656 0.27491477 0.022232862 0.19472158 0.13819145 -0.069950186
0.26913404 0.20092471 -0.2494064 0.12078699 -0.15439986 -0.12934239 -0.030262165 -0.11332793
0.28276125 0.24151812 0.095734306 -0.15693717 0.17944446 -0.09424512 -0.1400499 0.28147337
0.15849951 0.12250717 -0.10905455 0.23060146 -0.20322013 -0.14432895 -0.24134183 0.068999924
-0.46614408 -0.14865339 -0.12069064 -0.18791036 0.012786536 -0.30314216 -0.07269704 -0.12836453
-0.13867354 -0.21032633 -0.12908475 -0.022531753 -0.12208162 -0.20005345 -0.11573421 0.19436148
-0.069157735 -0.18515204 0.12484564 0.1282627 0.2956777 -0.17072664 -0.030350186 0.06467686
-0.23198423 -0.013905242 -0.03497017 -0.14140156 -0.29564115 -0.08282857 0.060667083 0.12199854
-0.16193701 0.15200506 0.17639303 -0.09691902 -0.004438916 0.10032968 0.15712263 -0.052201483
0.29649645 -0.14127801 0.09855383 -0.057727717 0.12915646 0.09042237 0.08027442 -0.27373442
-0.097278796 0.10537465 0.1501292 0.18023552 0.10248953 -0.11320024 -0.025238262 -0.13322288
-0.0032791945 -0.17925794 -0.11160795 -0.047530662 0.15132977 -0.080608405 -0.056479316 -0.10799706
0.0025708722 0.06827201 -0.27185696 0.03992128 0.24130023 0.03407587 0.182366 0.14910756
-0.26944238 0.21312942 0.28509793 0.17084292 -0.3394536 0.19876933 0.16916221 -0.2816967
-0.0017968977 0.027608227 0.028184306 0.26092187 -0.20673862 -0.13808687 0.23527637 -0.06698822
0.04641919 -0.02141982 -0.2132237 0.0625235 -0.13065644 -0.022329254 0.10632389 -0.23658979
-0.19434823 -0.20760714 0.07548961 0.13836558 -0.2551706 -0.35237592 -0.16856442 0.11984101
-0.1401987 0.10277325 -0.06421493 -0.08694094 -0.14607257 -0.27165434 0.09581387 0.17406128
0.11600322 0.13034238 0.09085763 0.02468178 0.16296495 -0.32300624 -0.01787505 0.067238525
-0.2529977 -0.27805683 0.073388316 -0.17442551 0.05061874 0.136806 -0.12343852 -0.16343504
00000000: 2c1e e5bc 40fc 803e 9fd9 48be b98a 413e
00000010: d7c1 633e 7c0d ee3d a4c0 8abd d033 1ebd
00000020: f62c 223e b63b 46bd 2e33 86be 2dae 493e
00000030: 1f74 ec3d f2b7 d9bc 1456 b03e ab47 88bd
00000040: be85 bf3d b2b0 3a3d 3d64 bf3d 5ecb e3bd
00000050: 4aad 2abc 3961 81bd 8675 933e 2669 383e
00000060: 58a6 203d da33 84be b9a4 1e3e 5d29 87bd
00000070: 62e8 88bd b5f9 ae3d e248 a23d d538 303e
00000080: 9374 703d c4f3 013c 8ef3 c6bd e120 f6bb
00000090: a6ed b8be d5e6 5ebc 1329 953e 9db6 493e
000000a0: 7950 a0bd 2498 8a3e eec2 bb3d c180 d7bd
000000b0: d258 e3bc fab6 803e 654a 693e b4c3 823d
000000c0: 471b 0c3e e970 88be 768d 68bd 67e9 92bd
000000d0: 8875 4dbe 9762 0ebe 06b8 023e 5125 0d3e
000000e0: 45a9 9bbe 1152 f4bd b4f3 993d a593 fe3d
000000f0: d0d7 03be d54e c5bd f7a6 0ebe 1938 013e
00000100: 9db6 533e 0b56 1cbe dbb3 89be 3741 1e3d
00000110: 28e1 e8bc 16b6 cb3d 53b0 52be 5ed1 ccbc
00000120: 754e 57bd 2bb1 7f3d 12aa 063d fe58 08bd
00000130: 633d 9ebd dad3 8abc b128 c13d 6723 733d
00000140: 192d 2ebe e2da f93d 03e9 04be 2cb5 263d
00000150: 80e9 a5bd bcfd 1fbe cbc7 3e3c 559e 64be
00000160: 0f3a c23e 27bc 243d 770a a63c ee26 793d
00000170: 3f96 f63d 51f6 803e d04e 19be b32c 4bbe
00000180: 247d 91be 6ebe 173c 1edc 3ebe a1c1 8c3e
00000190: b121 b63c 1865 473e 0f82 0d3e 0b42 8fbd
000001a0: f0cb 893e 35bf 4d3e 6464 7fbe 2b5f f73d
000001b0: ff1a 1ebe 5572 04be 5ce8 f7bc 7918 e8bd
000001c0: 15c6 903e 8750 773e 5910 c43d 23b4 20be
000001d0: 4ac0 373e 9603 c1bd 3e69 0fbe 471d 903e
000001e0: b24d 223e 0ae5 fa3d fe57 dfbd ca22 6c3e
000001f0: f018 50be f8ca 13be 5022 77be d54f 8d3d
00000200: 70aa eebe 9838 18be a72c f7bd 936b 40be
00000210: 9e7e 513c 7335 9bbe 30e2 94bd fe71 03be
00000220: 7000 0ebe c95f 57be cb2e 04be 8394 b8bc
00000230: ee05 fabd d0da 4cbe 0f06 edbd b206 473e
00000240: 92a2 8dbd 7f98 3dbe 12af ff3d 4c57 033e
00000250: 1163 973e f7d2 2ebe f4a0 f8bc 4d75 843d
00000260: 468d 6dbe d0d2 63bc e23c 0fbd 92cb 10be
00000270: 475e 97be 06a2 a9bd 0c7e 783d 5fda f93d
00000280: d1d2 25be 37a7 1b3e 60a0 343e 7b7d c6bd
00000290: 5474 91bb a679 cd3d c1e4 203e 39d1 55bd
000002a0: 62ce 973e 2fab 10be 97d6 c93d e673 6cbd
000002b0: 9741 043e 5d2f b93d ea66 a43d eb26 8cbe
000002c0: 1b3a c7bd aace d73d 78bb 193e a98f 383e
000002d0: 08e6 d13d 87d5 e7bd 79c0 cebc 946b 08be
000002e0: c1e7 56bb 658f 37be b592 e4bd 83af 42bd
000002f0: 31f6 1a3e 0516 a5bd db56 67bd 902d ddbd
00000300: 147c 283b 32d2 8b3d d630 8bbe 7f84 233d
00000310: 6817 773e 2493 0b3d 27be 3a3e a7af 183e
00000320: 5af4 89be 993e 5a3e 5bf8 913e 72f1 2e3e
00000330: ddcc adbe 308a 4b3e dc38 2d3e 8d3a 90be
00000340: e285 ebba a62a e23c c6e2 e63c 8d97 853e
00000350: 4ab3 53be a566 0dbe 4aec 703e 1f31 89bd
00000360: 0c22 3e3d 9e78 afbc 5057 5abe 520c 803d
00000370: cdca 05be d7eb b6bc 57c0 d93d 9844 72be
00000380: 3903 47be f796 54be 4c9a 9a3d b5af 0d3e
00000390: b9a5 82be 9e6a b4be 279c 2cbe 346f f53d
000003a0: 3f90 0fbe c87a d23d 1e83 83bd 170e b2bd
000003b0: 0c94 15be 4716 8bbe 103a c43d 1f3d 323e
000003c0: 1993 ed3d 7978 053e 9113 ba3d 7231 ca3c
000003d0: 49e0 263e 1361 a5be b26e 92bc 5ab4 893d
000003e0: ea88 81be 775d 8ebe 9d4c 963d 9a9c 32be
000003f0: 9955 4f3d df16 0c3e 56cd fcbd 845b 27be

network_body.linear_encoder.seq_layers.0.bias f4 [128]
-0.2894708 -0.77689755 -0.20393953 -0.2716497 -0.02751516 -0.45550564 -0.6644823 -0.14883941
-0.22629596 -0.4135885 -0.036864184 -0.10375835 -0.24967115 -0.3633955 0.07619316 -0.01605743
-0.22500598 -0.10577887 -0.35291785 -0.36801004 -0.6319054 0.14006929 -0.1552068 -0.4825406
-0.042001195 -0.12600932 -0.62974584 -0.4717864 -0.094183385 -0.06433825 -0.5731053 -0.4497808
-0.016273366 -0.24946573 0.06902987 0.06522447 -0.41056898 -0.10222917 -0.4619754 -0.39212945
-0.07721664 -0.029571198 -0.083536185 -0.20886603 -0.35598284 -0.32994524 -0.48531452 -0.35544673
-0.1123068 -0.023364874 -0.4171628 -0.27696857 -0.0029320768 -0.3202284 -0.16420159 -0.4274066
-0.299608 -0.673222 -0.19466256 -0.7405382 -0.431149 -0.57105684 -0.23378839 -0.12769681
-0.5479015 -0.41438118 -0.11924357 -0.38475347 0.025789304 -0.30961794 -0.40018794 -0.053621467
-0.5248844 -0.39080203 -0.2470197 -0.31223306 -0.092015274 -0.2960618 -0.27955228 -0.4080669
-0.14044188 -0.28622815 -0.17621374 -0.20101604 -0.0958603 0.10788084 -0.4775111 -0.088029355
-0.19766982 -0.42453963 -0.21835332 -0.31734204 -0.023718107 -0.60295874 -0.2970344 -0.5099125
-0.429839 -0.39317626 -0.26615584 -0.28502306 -0.2585677 -0.0026316703 -0.039001334 -0.51800895
-0.3244534 -0.17771657 -0.38246658 -0.35618967 -0.08031323 -0.43647185 -0.54565656 -0.21858862
-0.34035662 -0.1686288 -0.45020306 -0.05127533 -0.27664232 -0.107460655 -0.099629276 -0.2065746
-0.31647897 -0.106839396 0.06621472 -0.42373204 -0.16313288 -0.5064205 -0.5854004 -0.3664668
00000000: 8435 94be c2e2 46bf 86d5 50be ab15 8bbe
00000010: 7967 e1bc 0938 e9be 831b 2abf 5c69 18be
00000020: 21ba 67be dfc1 d3be e6fe 16bd 427f d4bd
00000030: cba9 7fbe fa0e babe 290b 9c3d df8a 83bc
00000040: f867 66be 98a2 d8bd a6b1 b4be d06b bcbe
00000050: 8dc4 21bf 536e 0f3e 88ee 1ebe 900f f7be
00000060: 7209 2cbd 9608 01be 0637 21bf fd8d f1be
00000070: 38e3 c0bd c6c3 83bd 07b7 12bf ab49 e6be
00000080: b94f 85bc f273 7fbe 885f 8d3d 6894 853d
00000090: 1936 d2be 875d d1bd 0a88 ecbe 31c5 c8be
000000a0: c223 9ebd 4c3f f2bc 0515 abbd fae0 55be
000000b0: 6243 b6be 95ee a8be 257b f8be 1dfd b5be
000000c0: 1c01 e6bd b167 bfbc 5d96 d5be d3ce 8dbe
000000d0: 1628 40bb faf4 a3be 7624 28be 0ad5 dabe
000000e0: 3866 99be 4758 2cbf 9f55 47be e993 3dbf
000000f0: 90bf dcbe c830 12bf 3966 6fbe f4c2 02be
00000100: 4643 0cbf c529 d4be f935 f4bd 68fe c4be
00000110: 1744 d33c 3e86 9ebe 6fe5 ccbe 2fa2 5bbd
00000120: d35e 06bf 3417 c8be bbf2 7cbe 03dd 9fbe
00000130: 8172 bcbd 6a95 97be 7a21 8fbe 25ee d0be
00000140: ffcf 0fbe 7f8c 92be 6071 34be 26d7 4dbe
00000150: 6852 c4bd a1f0 dc3d 567c f4be bc48 b4bd
00000160: f569 4abe 425d d9be 0398 5fbe a87a a2be
00000170: 7a4c c2bc 815b 1abf e514 98be a089 02bf
00000180: db13 dcbe 664e c9be 9445 88be 8bee 91be
00000190: fc62 84be 1a78 2cbb ddbf 1fbd 3c9c 04bf
000001a0: c21e a6be 55fb 35be a9d2 c3be 7e5e b6be
000001b0: 437b a4bd 3d79 dfbe 26b0 0bbf b2d5 5fbe
000001c0: 3943 aebe 07ad 2cbe 0481 e6be 1506 52bd
000001d0: 10a4 8dbe 5514 dcbd 6f0a ccbd 4b88 53be
000001e0: 8809 a2be 9dce dabd 959b 873d 68f3 d8be
000001f0: 4e0c 27be c6a4 01bf cddc 15bf 89a1 bbbe

network_body.linear_encoder.seq_layers.0.weight f4 [128, 107]
-0.17756242 -0.23084742 0.39517578 -0.109600365 -0.12659624 -0.09774079 0.22031161 0.16057181
-0.23193069 -0.26079127 0.03443349 -0.1227416 -0.17833264 -0.15810873 0.14385949 0.004575879
0.60607225 0.4426691 0.10967232 0.22639203 -0.2353831 0.26579458 0.057761937 0.10102943
0.38861895 0.29715362 -0.23149167 -0.010402049 0.29604614 0.37718418 0.07397614 0.18917626
0.093630366 -0.044481505 -0.053563625 -0.12617803 -0.45425087 0.006599027 -0.16464664 -0.046491787
-0.07160524 0.21417776 0.28768617 -0.11767317 -0.122434415 -0.07944654 0.011541388 -0.014115575
-0.1859141 -0.1668924 0.05882818 0.16131087 -0.36204484 -0.046790976 -0.34602782 -0.42455932
0.02821978 0.17503259 -0.04025478 -0.07147328 -0.15623137 0.04760113 0.36259195 0.34621197
0.3208772 0.18274201 -0.02733696 -0.19123991 0.38430578 -0.03542636 -0.032392852 -0.12673788
0.7907101 -0.18712035 0.2681653 -0.010597452 -0.10931094 0.0146045415 -0.063458435 0.006160666
-0.16025852 -0.121969715 0.12160711 0.20666075 -0.14071289 0.074404895 -0.0013063384 -0.12540944
-0.0065522366 0.09189537 0.07277947 -0.048670087 0.14769448 -0.014271404 0.007523121 -0.061521642
0.033858597 0.1671883 0.039460886 -0.16398105 0.041304804 0.15561047 0.06747662 -0.029469114
0.02739573 0.10664846 0.026803441 -0.07702582 -0.04702463 -0.47088 -0.11746477 0.29444578
0.2637216 -0.08247192 -0.115267485 0.026741311 0.008378241 -0.029042866 0.16907515 -0.008418106
0.07572153 0.2701105 -0.08988112 0.095673576 -0.061558638 0.2068683 -0.025886854 -0.33163178
0.015375879 0.07984064 -0.13449009 -0.06874769 0.08293522 -0.07348035 -0.12979542 0.05408635
-0.1307367 0.13397504 0.43391228 0.042471763 -0.06740359 -0.2133242 0.06552939 0.24899821
-0.009734329 0.19171667 0.115329 -0.46442235 -0.31908274 -0.11111946 0.2318034 0.086645395
-0.1716262 -0.20951045 0.05905427 0.41077548 -0.13100919 -0.36773783 -0.22350371 0.08017226
0.15213288 0.019653542 0.093306236 0.084263794 -0.06356137 0.21874264 0.11769801 0.003364462
0.008245986 0.202913 -0.18287756 0.075820856 -0.056169793 0.8086255 -0.631681 -0.20848234
-0.8113124 -0.1584474 0.17163359 0.45452774 0.3238961 0.47062194 -0.2520955 0.023402119
-0.099704675 -0.07383562 -0.0675028 -0.09530268 0.019164868 0.0696234 0.0030426062 0.09047768
-0.0033640012 0.06068622 -0.15431802 0.015690776 0.13364609 -0.038165886 -0.010382964 0.00060857274
0.070356645 0.04591231 -0.11348655 -0.1268489 0.0010266759 0.0060343742 -0.11638873 -0.09302712
0.023514373 0.088881426 -0.06647471 -0.14529969 0.12680615 0.058686882 0.2435093 -0.085788086
-0.06832617 0.026151106 -0.13542606 -0.12444104 -0.17592546 0.18229099 0.08307025 0.3125763
0.2937214 0.18004353 0.42349386 0.7025536 -0.09448884 0.054342024 0.17200404 -0.065795034
-0.3703098 -0.35507601 0.05297483 0.26119635 0.1659788 0.045330882 -0.0331152 -0.12149903
0.15818453 0.08430518 -0.26133755 -0.07635085 -0.020323835 0.0044054356 0.020662766 -0.053614486
-0.2869181 -0.06563665 -0.16696489 -0.30716926 0.02960812 -0.18574004 0.08058314 0.06086045
00000000: ecd2 35be 4463 6cbe 7b54 ca3e 2876 e0bd
00000010: 72a2 01be 532c c8bd 5e99 613e f06c 243e
00000020: 3d7f 6dbe 6f86 85be 220a 0d3d f35f fbbd
00000030: d59c 36be 41e7 21be e74f 133e 41f1 953b
00000040: 8d27 1b3f 86a5 e23e e29b e03d 50d3 673e
00000050: 4408 71be 3a16 883e c897 6c3d 85e8 ce3d
00000060: 10f9 c63e 8524 983e 270c 6dbe 5b6d 2abc
00000070: 5c93 973e 491e c13e cd80 973d 6cb7 413e
00000080: 47c1 bf3d 3d32 36bd 8865 5bbd d034 01be
00000090: 9293 e8be a73c d83b 2199 28be 2c6e 3ebd
000000a0: c5a5 92bd 6a51 5b3e 9a4b 933e a2fe f0bd
000000b0: e5be fabd deb4 a2bd 1718 3d3c 0345 67bc
000000c0: 4460 3ebe d7e5 2abe d1f5 703d ad2e 253e
000000d0: f15d b9be e5a7 3fbd 8f2a b1be d75f d9be
000000e0: 2b2d e73c be3b 333e 32e2 24bd 9560 92bd
000000f0: 1efb 1fbe 67f9 423d a7a5 b93e b242 b13e
00000100: 044a a43e b920 3b3e c3f1 dfbc 65d4 43be
00000110: bac3 c43e 3b1b 11bd 5eae 04bd 93c7 01be
00000120: fa6b 4a3f 7a9c 3fbe f64c 893e efa0 2dbc
00000130: 6ade dfbd e347 6f3c 7ff6 81bd 69df c93b
00000140: cf1a 24be 42cb f9bd 260d f93d e09e 533e
00000150: 0a17 10be 9861 983d 7139 abba 556b 00be
00000160: 25b4 d6bb a433 bc3d 670d 953d 495a 47bd
00000170: 393d 173e 9bd2 69bc 8384 f63b 1efe 7bbd
00000180: 50af 0a3d 6933 2b3e bda1 213d a6ea 27be
00000190: 3a2f 293d 5a58 1f3e 2f31 8a3d 3669 f1bc
000001a0: 036d e03c 826a da3d e492 db3c b7bf 9dbd
000001b0: e69c 40bd 2f17 f1be 5f91 f0bd 99c1 963e
000001c0: 8406 873e 0ae7 a8bd 5c11 ecbd 9810 db3c
000001d0: e444 093c 4eeb edbc 0922 2d3e 18ec 09bc
000001e0: e413 9b3d ec4b 8a3e 9813 b8bd 82f0 c33d
000001f0: e924 7cbd 49d5 533e ab10 d4bc a4cb a9be
00000200: 1ceb 7b3c 7d83 a33d c5b7 09be 97cb 8cbd
00000210: f1d9 a93d de7c 96bd 17e9 04be a689 5d3d
00000220: d7df 05be c130 093e c029 de3e dff6 2d3d
00000230: e50a 8abd a971 5abe 4634 863d 63f9 7e3e
00000240: bc7c 1fbc 6051 443e 9c31 ec3d c4c8 edbe
00000250: d05e a3be 9992 e3bd df5d 6d3e 2473 b13d
00000260: c7be 2fbe e889 56be e4e2 713d 2a51 d23e
00000270: 4627 06be 2248 bcbe 28de 64be 5b31 a43d
00000280: b9c8 1b3e 7700 a13c 5717 bf3d 7f92 ac3d
00000290: 772c 82bd 12fe 5f3e a70b f13d 4e7e 5c3b
000002a0: 2c1a 073c 6dc8 4f3e 4144 3bbe f747 9b3d
000002b0: 4c12 66bd 1502 4f3f d9b5 21bf 657c 55be
000002c0: 2bb2 4fbf 0940 22be b7c0 2f3e dcb7 e83e
000002d0: b6d5 a53e 5cf5 f03e a912 81be cdb5 bf3c
000002e0: f731 ccbd 2137 97bd e83e 8abd 0d2e c3bd
000002f0: a4ff 9c3c b796 8e3d 7666 473b 5d4c b93d
00000300: 9376 5cbb 1d92 783d 8b05 1ebe f189 803c
00000310: 85da 083e d553 1cbd 4f1d 2abc a088 1f3a
00000320: 2517 903d 8c0e 3c3d a36b e8bd aee4 01be
00000330: 8791 863a 00bc c53b 375d eebd 0185 bebd
00000340: 37a1 c03c 7707 b63d e523 88bd 71c9 14be
00000350: 79d9 013e a861 703d 805a 793e aab1 afbd
00000360: 97ee 8bbd d83a d63c 21ad 0abe f2da febd
00000370: ce25 34be 7daa 3a3e bc20 aa3d 000a a03e
00000380: a762 963e 555d 383e 30d4 d83e 8dda 333f
00000390: 5d83 c1bd be95 5e3d d421 303e 8cbf 86bd
000003a0: 3f99 bdbe 86cc b5be 23fc 583d 87bb 853e
000003b0: 59f6 293e e0ac 393d cea3 07bd 7cd4 f8bd
000003c0: 20fb 213e 32a8 ac3d 09ce 85be d65d 9cbd
000003d0: 2c7e a6bc 795b 903b f644 a93c dd9a 5bbd
000003e0: eee6 92be 826c 86bd d8f8 2abe 4a45 9dbe
000003f0: ba8c f23c a332 3ebe c608 a53d cf48 793d

network_body.linear_encoder.seq_layers.2.bias f4 [128]
-0.19515567 0.04812624 -0.15263285 -0.03175794 0.0027116246 -0.08325684 -0.17970496 -0.028322222
0.021207064 0.03958288 -0.4941093 -0.047710456 0.0013572687 -0.05586562 -0.21339704 -0.35828847
-0.23236793 -0.053853516 -0.2044874 -0.03032989 -0.30710936 0.02261124 -0.31186444 -0.20663165
-0.20862545 -0.2493404 0.23428509 -0.0045063538 -0.13268895 0.05530924 -0.24038827 -0.1128342
-0.30739105 0.082593024 0.0083205355 -0.017440746 -0.26130083 -0.100880206 -0.2793002 -0.09077327
-0.27957416 -0.2844005 -0.46187142 -0.09980744 -0.055040807 -0.05233345 -0.078504786 -0.04410486
-0.10903103 -0.096317016 -0.14890198 -0.054951537 -0.1941697 -0.24268329 -0.028953156 -0.17986186
-0.22163208 -0.05135015 -0.042150542 -0.10758358 -0.28055298 -0.015290824 -0.13128237 -0.044842444
-0.15801477 -0.28278607 -0.14992227 0.026278367 -0.11239739 -0.2614649 -0.24285118 -0.20576042
-0.07865081 -0.44200268 0.15096867 -0.11505019 -0.23221666 0.022623938 -0.42171314 -0.014995194
-0.20942439 -0.1067657 -0.1144093 -0.32415694 -0.2072442 -0.25324312 -0.048670266 -0.1535845
0.024089273 -0.25460252 -0.31123015 -0.052761715 -0.05986803 -0.18660478 -0.10661226 -0.27160123
-0.07934729 -0.021507507 -0.16373487 -0.011618082 -0.24426472 0.17916515 -0.23898791 0.0020594986
-0.043290704 -0.54151434 0.016187185 -0.16781233 -0.09578247 -0.1884574 0.14004827 -0.38801208
-0.30498174 -0.03655389 -0.22116525 0.05677917 -0.307375 -0.1905694 0.048317343 0.264031
-0.17119795 -0.16055089 -0.3124933 0.11359061 -0.22633252 -0.2028362 -0.17076866 0.0277829
00000000: e3d6 47be 0520 453d c94b 1cbe 9d14 02bd
00000010: 83b5 313b 9082 aabd 9404 38be 0104 e8bc
00000020: 70ba ad3c a821 223d e5fb fcbe 0a6c 43bd
00000030: 61e6 b13a 59d3 64bd c184 5abe 9671 b7be
00000040: dcf1 6dbe 8195 5cbd 2565 51be 6476 f8bc
00000050: 703d 9dbe 353b b93c b2ac 9fbe 3f97 53be
00000060: e9a1 55be 1753 7fbe 6ee8 6f3e 09aa 93bb
00000070: 9ddf 07be f18b 623d 5828 76be 9e15 e7bd
00000080: 5c62 9dbe 8826 a93d db52 083c e5df 8ebc
00000090: 39c9 85be 489a cebd 7000 8fbe 56e7 b9bd
000000a0: 5824 8fbe f19c 91be 697a ecbe d867 ccbd
000000b0: 7872 61bd 9a5b 56bd 1ec7 a0bd 4ca7 34bd
000000c0: a94b dfbd db41 c5bd c379 18be dd14 61bd
000000d0: 6cd4 46be f881 78be 2b2f edbc b52d 38be
000000e0: 85f3 62be 8954 52bd 0ca6 2cbd c854 dcbd
000000f0: a4a4 8fbe 5d86 7abc e36e 06be b6ac 37bd
00000100: a0ce 21be 56c9 90be 3985 19be bb45 d73c
00000110: 9a30 e6bd bade 85be fbad 78be dcb2 52be
00000120: ad13 a1bd 2d4e e2be 8897 1a3e 6f9f ebbd
00000130: 34ca 6dbe d655 b93c c9ea d7be 67ae 75bc
00000140: 5973 56be faa7 dabd 6c4f eabd e6f7 a5be
00000150: d337 54be 15a9 81be 795a 47bd 4145 1dbe
00000160: de56 c53c 435b 82be 8f59 9fbe ab1c 58bd
00000170: 2e38 75bd 5315 3fbe 8757 dabd 510f 8bbe
00000180: d580 a2bd 8330 b0bc 1daa 27be c559 3ebc
00000190: 8820 7abe 1277 373e 3fb9 74be a7f8 063b
000001a0: 9851 31bd afa0 0abf fd9a 843c ffd6 2bbe
000001b0: 9a29 c4bd fafa 40be d068 0f3e 85a9 c6be
000001c0: 9126 9cbe 88b9 15bd 2579 62be 4691 683d
000001d0: 4260 9dbe a024 43be 68e8 453d 122f 873e
000001e0: 844e 2fbe 7467 24be 1fff 9fbe 32a2 e83d
000001f0: b6c3 67be 4bb4 4fbe fbdd 2ebe f798 e33c

network_body.linear_encoder.seq_layers.2.weight f4 [128, 128]
0.23186466 0.049093295 -0.031089306 0.17395377 0.3409697 0.073505715 0.18019246 -0.2778559
0.20331296 -0.13321897 0.12746066 -0.019543786 -0.45219913 0.13516326 -0.28877068 -0.6215393
-0.44574517 -0.37882102 -0.08032932 0.021611413 -0.06470152 -0.63176996 -0.15618774 0.10134133
0.2844322 -0.021128146 -0.08722475 -0.2336852 -0.22782098 -0.1696128 0.018103229 -0.29969093
0.008578791 -0.43076748 0.27888784 0.18264268 0.07828693 0.08397282 -0.1321289 -0.28628814
0.008949513 0.19667758 -0.66437376 -0.25540173 0.18514362 0.23589683 0.116386 0.33477488
-0.365167 -0.28773424 0.021820465 -0.13160418 0.3303578 0.17400731 -0.4627481 -0.44241852
0.014595622 0.31675687 -0.08954024 0.11278015 0.10761954 0.0037790656 0.2156616 0.093633495
0.03178152 0.08101994 -0.44891375 0.04203162 -0.27342576 -0.24558756 0.040428508 -0.35940942
-0.24307023 0.3266756 -0.35791558 -0.07147698 0.056032766 0.29356763 0.3717625 0.19022948
-0.17087463 0.195548 0.07685313 -0.2847425 -0.30005175 0.1096919 0.37293762 -0.16817993
0.14660601 -0.28907046 -0.27062273 0.37378326 -0.16152166 0.06832443 -0.21005134 0.04423019
0.060873833 -0.19319586 0.28157017 0.0005101745 -0.42694747 0.287574 -0.28007308 -0.2982628
-0.46019343 0.19269635 0.31731987 0.5113011 0.015060631 0.3566784 0.015160627 -0.56792116
-0.09761143 -0.09093915 -0.3507674 0.04921401 -0.046382084 -0.043932453 0.16436987 0.29031482
0.1116371 -0.13409768 -0.16423106 0.07383774 -0.052744728 -0.1591385 -0.14984386 -0.13768241
0.08504046 -0.23388174 0.089698404 -0.17056979 0.43088815 0.41367015 -0.5808258 -0.2001406
0.13165316 -0.16614494 -0.16429295 -0.22684294 -0.43186703 -0.096726485 0.38044032 -0.18060526
0.034243796 -0.3222206 -0.4445182 0.076842375 -0.24840114 0.007217971 0.17487955 0.00887194
-0.10189226 -0.11962962 0.017456912 0.08325619 0.24188854 0.18354051 -0.2968402 0.025523491
0.28941703 -0.29478353 0.12786253 0.046577796 -0.28302032 -0.06552951 -0.15017234 0.08470797
-0.059038345 -0.4601694 -0.28077376 -0.1721025 -0.32227 -0.11233748 -0.2589844 -0.103894055
-0.20421967 0.31683594 0.072110005 -0.21510006 -0.19826517 -0.15228914 0.21068726 -0.4006586
-0.24449821 0.12575966 0.19649677 0.14286506 0.19143823 -0.167048 -0.036967367 0.22434819
-0.60983336 0.16948481 0.0342491 -0.71110547 0.19723824 0.26081994 0.0830167 0.14113016
0.12722865 -0.26028264 -0.038129333 0.27777916 -0.054957613 -0.76042235 -0.13602214 -0.0025983732
0.02885733 0.31199452 -0.051413886 0.14088216 -0.057371136 -0.46614063 0.059873108 -0.5887163
0.3474071 -0.30805612 -0.20871773 -0.029916158 0.013618976 -0.28135455 0.05660804 0.12360183
0.2772245 -0.017530093 -0.31691882 -0.036140922 -0.51990443 0.19030057 -0.12878764 0.37812442
-0.2921105 0.17007752 -0.2927011 -0.36136022 0.31691974 -0.037131503 0.24337098 0.23257291
-0.5987347 0.29436022 0.27204627 0.37728372 -0.15864235 0.23726758 0.29316518 0.19301572
0.28475255 0.13761581 0.50634956 -0.41999564 0.04766912 -0.1232022 0.12790248 0.17499144
00000000: ee6d 6d3e 0d16 493d 00af febc f020 323e
00000010: 9593 ae3e 2a8a 963d 5f84 383e 2143 8ebe
00000020: 4631 503e 8e6a 08be 0c85 023e 4a1a a0bc
00000030: a586 e7be 3d68 0a3e c0d9 93be 331d 1fbf
00000040: b638 e4be d4f4 c1be b383 a4bd 6b0a b13c
00000050: 3b82 84bd adbb 21bf aeef 1fbe 0b8c cf3d
00000060: 19a1 913e ef14 adbc e4a2 b2bd 2c4b 6fbe
00000070: e749 69be faae 2dbe 394d 943c 1771 99be
00000080: 0f8e 0c3c 8e8d dcbe 63ca 8e3e af06 3b3e
00000090: e654 a03d f1f9 ab3d cc4c 07be 5c94 92be
000000a0: faa0 123c d965 493e 6614 2abf 04c4 82be
000000b0: 4a96 3d3e f08e 713e c85b ee3d 9d67 ab3e
000000c0: 2bf7 babe e751 93be d5c0 b23c 3fc3 06be
000000d0: a824 a93e f92e 323e 52ed ecbe ae84 e2be
000000e0: 7a22 6f3c f52d a23e e060 b7bd 47f9 e63d
000000f0: a267 dc3d 33aa 773b 65d6 5c3e ebc2 bf3d
00000100: 572d 023d c8ed a53d 06d8 e5be 5929 2c3d
00000110: 76fe 8bbe 4e7b 7bbe 5d98 253d 8304 b8be
00000120: 67e7 78be 0642 a73e b640 b7be 8662 92bd
00000130: 9d82 653d 7f4e 963e a857 be3e 84cb 423e
00000140: c2f9 2ebe bc3d 483e 2c65 9d3d c5c9 91be
00000150: 62a0 99be 26a6 e03d aef1 be3e 5c37 2cbe
00000160: e31f 163e 0b01 94be 108f 8abe 8560 bf3e
00000170: ef65 25be aeed 8b3d b317 57be b72a 353d
00000180: d756 793d 23d5 45be f729 903e 3bbd 053a
00000190: dc98 dabe e63c 933e bd65 8fbe e7b5 98be
000001a0: 799e ebbe 3152 453e c077 a23e a1e4 023f
000001b0: ddc0 763c 8d9e b63e 4764 783c 4863 11bf
000001c0: 80e8 c7bd 4e3e babd c997 b3be a194 493d
000001d0: 24fb 3dbd 84f2 33bd 9350 283e 25a4 943e
000001e0: fea1 e43d e750 09be 302c 28be 3e38 973d
000001f0: db0a 58bd 34f5 22be ab70 19be 9efc 0cbe
00000200: b129 ae3d b27e 6fbe ccb3 b73d d9a9 2ebe
00000210: 5f9d dc3e 93cc d33e 00b1 14bf a8f1 4cbe
00000220: 16d0 063e e621 2abe 693c 28be 8449 68be
00000230: ad1d ddbe 8918 c6bd 13c9 c23e 96f0 38be
00000240: 3943 0c3d 19fa a4be e497 e3be 895f 9d3d
00000250: de5c 7ebe bb84 ec3b a013 333e 9d5b 113c
00000260: e4ac d0bd 6000 f5bd cc01 8f3c 3982 aa3d
00000270: a1b1 773e 0bf2 3b3e 70fb 97be a416 d13c
00000280: 782e 943e deed 96be 65ee 023e 5cc8 3e3d
00000290: 0ae8 90be 5634 86bd c7c6 19be 5f7b ad3d
000002a0: 31d2 71bd 539b ebbe 94c1 8fbe a33b 30be
000002b0: 9300 a5be 3111 e6bd 9a99 84be 68c6 d4bd
000002c0: f61e 51be 5238 a23e 69ae 933d 3143 5cbe
000002d0: 0606 4bbe aff1 1bbe 67be 573e 2023 cdbe
000002e0: bd5d 7abe 24c7 003e 7336 493e 384b 123e
000002f0: 6208 443e a20e 2bbe 186b 17bd 88bb 653e
00000300: 0a1e 1cbf 6d8d 2d3e c948 0c3d 020b 36bf
00000310: d2f8 493e 318a 853e a904 aa3d 6d84 103e
00000320: 3a48 023e c443 85be 812d 1cbd 1239 8e3e
00000330: 3c1b 61bd 0aab 42bf 6349 0bbe 7849 2abb
00000340: 3566 ec3c bfbd 9f3e 5e97 52bd 6a43 103e
00000350: fffd 6abd fca9 eebe 813d 753d 1db6 16bf
00000360: 58df b13e 88b9 9dbe 1aba 55be bb12 f5bc
00000370: 2022 5f3c b40d 90be d5dd 673d f522 fd3d
00000380: 5ff0 8d3e 459b 8fbc 2f43 a2be 8108 14bd
00000390: 7518 05bf 27de 423e e8e0 03be 8699 c13e
000003a0: 828f 95be cd28 2e3e ebdc 95be 3504 b9be
000003b0: 4e43 a23e 3417 18bd 3e36 793e 9827 6e3e
000003c0: ad46 19bf 62b6 963e a649 8b3e 552b c13e
000003d0: 2473 22be 46f6 723e bf19 963e eaa5 453e
000003e0: 16cb 913e 29eb 0c3e 20a0 013f ab09 d7be
000003f0: b240 433d 6f51 fcbd def8 023e f530 333e

network_body.linear_encoder.seq_layers.4.bias f4 [128]
-0.047659256 -0.039026387 0.6362227 -0.17104432 0.1994083 0.19542292 -0.14581047 0.22870709
0.63463825 0.1470326 0.09513767 -0.11506099 0.115484916 0.11003932 0.0733235 -0.3107848
-0.17129123 -0.06300176 -0.12599787 0.16642761 -0.07531149 0.1832949 0.08278675 0.33838645
-0.018511906 0.41176817 -0.28690538 0.05813169 0.46577227 -0.0839962 -0.20592442 -0.30112654
-0.46857426 -0.14421573 -0.37961072 -0.19517556 0.08638434 -0.42006058 0.043514937 -0.30770633
-0.08889062 -0.113761455 -0.23173985 0.19725324 -0.048657726 -0.15323189 -0.36487916 0.3649527
0.004922391 0.0918312 -0.558079 -0.026633862 -0.03099395 0.13411397 -0.11583078 -0.38261446
0.083548106 0.1274351 -0.07271107 -0.15765798 0.033528015 0.1550784 0.0514239 -0.15599363
-0.40397897 -0.24579884 0.15311578 -0.3275204 0.36994246 -0.19982958 -0.22481878 -0.26924974
-0.10270837 -0.07949924 -0.056434922 -0.013801423 0.0151473135 0.14365645 0.082109295 0.20858674
-0.07681175 0.0075358623 -0.1186852 -0.44717348 0.4313155 -0.19791722 0.15391666 -0.02341186
-0.180494 -0.45752296 0.52827334 -0.13108048 0.04595722 -0.4487476 -0.062441114 0.1572238
-0.09027382 -0.12700523 0.2683277 -0.14949526 -0.06973295 0.43606737 0.056258824 -0.02821195
0.039849427 -0.37403765 -0.1264091 -0.33112523 0.1034406 -0.024802087 -0.1994401 -0.064595304
-0.47171772 -0.29595757 -0.023797153 -0.095710844 -0.04385931 -0.046561044 -0.17039664 -0.13104974
0.41517016 0.27580678 -0.049324334 0.18138048 0.17082039 0.0952526 -0.18281804 0.03698395
00000000: 5a36 43bd 22da 1fbd 7edf 223f 3e26 2fbe
00000010: b031 4c3e f21c 483e 574f 15be 3132 6a3e
00000020: a777 223f b78f 163e 8ad7 c23d 19a5 ebbd
00000030: 5b83 ec3d 4c5c e13d a22a 963d 2f1f 9fbe
00000040: f866 2fbe 1107 81bd 9605 01be 006c 2a3e
00000050: e93c 9abd a9b1 3b3e 198c a93d fd40 ad3e
00000060: 48a6 97bc 47d3 d23e 43e5 92be 7f1b 6e3d
00000070: b479 ee3e 3306 acbd dadd 52be 422d 9abe
00000080: f7e8 efbe 4aad 13be 565c c2be 1adc 47be
00000090: 46ea b03d 2e12 d7be b83c 323d af8b 9dbe
000000a0: 490c b6bd c4fb e8bd 364d 6dbe c1fc 493e
000000b0: 534d 47bd d2e8 1cbe 71d1 babe 15db ba3e
000000c0: 024c a13b ff11 bc3d 44de 0ebf 422f dabc
000000d0: 06e7 fdbc 2c55 093e b038 edbd 0be6 c3be
000000e0: 451b ab3d 597e 023e 8be9 94bd 1871 21be
000000f0: ac54 093d dfcc 1e3e dea1 523d cbbc 1fbe
00000100: 55d6 cebe b1b2 7bbe 62ca 1c3e c1b0 a7be
00000110: 1969 bd3e 20a0 4cbe e536 66be 1adb 89be
00000120: c458 d2bd 7fd0 a2bd 4e28 67bd 5d1f 62bc
00000130: 702c 783c ad1a 133e eb28 a83d c397 553e
00000140: 7b4f 9dbd 65ef f63b 3a11 f3bd ecf3 e4be
00000150: 63d5 dc3e d0aa 4abe 549c 1d3e 3bca bfbc
00000160: 6bd3 38be 7340 eabe ec3c 073f f639 06be
00000170: a33d 3c3d 3fc2 e5be 41c2 7fbd 47ff 203e
00000180: 7be1 b8bd a90d 02be 4062 893e 4915 19be
00000190: 26d0 8ebd 3944 df3e a76f 663d bf1c e7bc
000001a0: 2739 233d dd81 bfbe 6371 01be 3f89 a9be
000001b0: aad8 d33d bf2d cbbc 073a 4cbe 8b4a 84bd
000001c0: fc84 f1be c087 97be 3ff2 c2bc 0c04 c4bd
000001d0: d2a5 33bd cbb6 3ebd 757c 2ebe e731 06be
000001e0: 2f91 d43e 8c36 8d3e 5008 4abd cebb 393e
000001f0: 8aeb 2e3e cc13 c33d a734 3bbe 7b7c 173d

network_body.linear_encoder.seq_layers.4.weight f4 [128, 128]
-0.05513863 -0.5618989 0.1347996 -0.050647564 -0.29868153 -0.159262 -0.050069418 -0.16735943
-0.30014881 -0.6162666 0.14879425 0.0055812537 -0.46807596 0.108816855 0.20604081 0.27323923
0.3839875 -0.13317364 -0.02988721 0.5787202 -0.44313875 -0.55182874 0.07617666 0.28495374
0.094408505 -0.13157178 0.12571324 -0.1708314 0.24581678 0.29319963 -0.77006 0.032970954
-0.17044708 -0.17001726 -0.54240835 -0.54417425 -0.15159923 0.13337815 0.010915132 0.27294978
-0.06422294 0.36066222 -0.29700345 0.09320322 0.010348615 0.038216162 -0.5352914 0.0070971646
-0.29783168 -0.24749632 -0.26842427 -0.29413435 -0.017395362 0.16761915 -0.3099018 -0.39976504
0.22044615 0.33768278 -0.29460323 -0.14492051 0.15428138 -0.23338474 -0.124898106 0.14792661
0.15606217 -0.08222835 -0.39119577 -0.36938146 -0.12836383 -0.32159427 0.30146858 -0.23068498
-0.42236903 -0.2785473 0.09559408 -0.31450474 0.019178359 -0.77391315 0.038877897 0.08891203
-0.060963366 0.1836987 -0.628887 0.29137844 0.24923213 -0.013208299 -0.06047929 -0.17493208
-0.5393102 -0.0784102 0.5804324 -0.27072787 -0.32062408 -0.21564747 -0.03985788 0.2089604
-0.1765837 0.37094498 -0.054228667 0.0050940104 -0.5181617 -0.069451526 0.0060120965 -0.22739312
-0.3794124 -0.4805278 -0.086967506 -0.23384207 0.2813864 -0.0513173 -0.062066726 -0.83339775
0.09589179 -0.06652742 0.14176898 -0.6377999 0.29996815 0.3850529 -0.44850764 -0.02406557
-0.12662973 0.012021398 -0.24990363 0.10188706 -0.017404448 -0.008383495 0.053797916 0.2679159
-0.6242323 -0.4823717 -0.329206 0.3049488 -0.5039737 -0.030882262 -0.14254741 -0.3659915
0.2048697 0.068386845 0.18211876 -0.1334786 -0.17363164 0.2381535 -0.2515782 0.14917715
0.32011572 -0.31700763 0.15063263 0.23841083 -0.17997758 -0.41970092 -0.32053232 -0.114376
-0.020126518 -0.29869092 -0.11270132 0.37938014 0.28049594 0.11467 0.0030171452 0.3153508
0.013506841 -0.033399563 -0.5186879 -0.27925348 0.093275145 -0.014952877 0.21441838 -0.3367894
0.21197018 0.41205066 0.28725967 0.4678045 0.26137838 -0.016328411 -0.36642733 0.2821381
-0.3440425 0.133396 -0.35028908 0.31335846 0.6027941 -0.50879204 -0.39682484 -0.24695837
-0.32879558 0.06679241 -0.16217943 0.0794864 -0.04579297 -0.07771859 0.0652616 0.0029742108
0.050246812 -0.2523649 0.2650426 -0.17547935 -0.019561034 -0.24640451 -0.43729335 0.10939183
0.52880627 0.23818792 0.04576293 0.21994302 -0.039265398 -0.01541871 0.08536934 0.008247557
0.25795257 0.41817632 -0.48677903 -0.09411439 0.31663823 -0.18890981 -0.053795874 -0.53826714
-0.13863726 0.03828833 -0.37434024 0.17130227 -0.46676987 -0.36987805 -0.7300346 -0.58262867
-0.032260295 -0.031195104 -0.3668934 -0.1327409 -0.3002239 0.06726323 0.014678448 -0.46038103
-0.25743616 -0.63146883 -0.080558926 -0.27857277 0.07365581 0.14455856 0.18116516 0.2080556
-0.49500912 0.2518685 -0.4154596 -0.14456655 -0.25534746 0.24728964 -0.089208394 0.023266977
-0.09784492 -0.06992251 -0.1292447 -0.014394915 0.026320778 -0.09663529 -0.21557951 0.39620137
00000000: 0bd9 61bd 9bd8 0fbf e808 0a3e d273 4fbd
00000010: c9ec 98be 9415 23be 9715 4dbd 4560 2bbe
00000020: 1bad 99be a6c3 1dbf 855d 183e f3e2 b63b
00000030: a7a7 efbe 5fdb de3d 5dfc 523e 03e6 8b3e
00000040: 029a c43e ac5e 08be 06d6 f4bc 0227 143f
00000050: 15e3 e2be a644 0dbf 8202 9c3d 75e5 913e
00000060: 3f59 c13d c1ba 06be f9ba 003e 6dee 2ebe
00000070: 65b7 7b3e 431e 963e a722 45bf 8d0c 073d
00000080: ae89 2ebe 0119 2ebe 46db 0abf 014f 0bbf
00000090: d43c 1bbe 4894 083e 62d5 323c 13c0 8b3e
000000a0: 5187 83bd b8a8 b83e d610 98be 54e1 be3d
000000b0: 3d8d 293c 8d88 1c3d db08 09bf 558f e83b
000000c0: 657d 98be ad6f 7dbe e86e 89be c798 96be
000000d0: b880 8ebc 5ba4 2b3e 73ab 9ebe 01ae ccbe
000000e0: a3bc 613e c2e4 ac3e 3cd6 96be 0b66 14be
000000f0: f0fb 1d3e 69fc 6ebe 94ca ffbd 137a 173e
00000100: c3ce 1f3e 5667 a8bd d04a c8be 911f bdbe
00000110: cf71 03be 01a8 a4be 175a 9a3e af38 6cbe
00000120: c140 d8be c09d 8ebe d4c6 c33d c406 a1be
00000130: ef1b 9d3c 2c1f 46bf 6e3e 1f3d 8317 b63d
00000140: b9b4 79bd 831b 3c3e bdfe 20bf 8e2f 953e
00000150: b536 7f3e 9f67 58bc 22b9 77bd 6521 33be
00000160: 3c10 0abf 8795 a0bd 3897 143f d89c 8abe
00000170: d728 a4be b1d2 5cbe 0442 23bd b7f9 553e
00000180: 5cd2 34be 80ec bd3e e11e 5ebd a8eb a63b
00000190: 3fa6 04bf 9a3c 8ebd 1f01 c53b bed9 68be
000001a0: 5842 c2be bd07 f6be 051c b2bd 4c74 6fbe
000001b0: e111 903e 1732 52bd ae39 7ebd 8e59 55bf
000001c0: ea62 c43d 873f 88bd e32b 113e db46 23bf
000001d0: 6d95 993e a725 c53e cba2 e5be 2925 c5bc
000001e0: 39ab 01be 66f5 443c bde6 7fbe 2aaa d03d
000001f0: c693 8ebc ed5a 09bc 345b 5c3d 462c 893e
00000200: b0cd 1fbf 6cf9 f6be b08d a8be 4022 9c3e
00000210: 6c04 01bf ccfc fcbc f3f7 11be 3d63 bbbe
00000220: 5dc9 513e 670e 8c3d 577d 3a3e 9dae 08be
00000230: 7ecc 31be 83de 733e dcce 80be e5c1 183e
00000240: 35e6 a33e d34e a2be 713f 1a3e f821 743e
00000250: 0b4c 38be 0ae3 d6be d01c a4be f73d eabd
00000260: 5ee0 a4bc 04ee 98be f3cf e6bd 1d3e c23e
00000270: 2a9d 8f3e 1bd8 ea3d 4cbb 453b a975 a13e
00000280: cc4b 5d3c fbcd 08bd bbc8 04bf 50fa 8ebe
00000290: 0a07 bf3d e9fc 74bc 7e90 5b3e a96f acbe
000002a0: b60e 593e 4ef8 d23e b313 933e 1284 ef3e
000002b0: 63d3 853e 29c3 85bc 5d9c bbbe 6874 903e
000002c0: 5726 b0be f698 083e 1759 b3be 8570 a03e
000002d0: b750 1a3f 3240 02bf a02c cbbe a8e2 7cbe
000002e0: e557 a8be 76ca 883d 5d12 26be c4c9 a23d
000002f0: 6991 3bbd ed2a 9fbd e0a7 853d faea 423b
00000300: 9acf 4d3d f935 81be aab3 873e dcb0 33be
00000310: 763e a0bc 7751 7cbe eae4 dfbe d308 e03d
00000320: d95f 073f 89e7 733e e971 3b3d be38 613e
00000330: c1d4 20bd c29e 7cbc 1fd6 ae3d c320 073c
00000340: 5c12 843e 351b d63e 1a3b f9be 0cbf c0bd
00000350: 681e a23e 9371 41be 1059 5cbd e0cb 09bf
00000360: edf6 0dbe 39d4 1c3d 86a9 bfbe dd69 2f3e
00000370: 76fc eebe a860 bdbe 8ce3 3abf 2727 15bf
00000380: 5f23 04bd e08c ffbc 74d9 bbbe 3bed 07be
00000390: f2b6 99be 4ec1 893d e07d 703c 10b7 ebbe
000003a0: acce 83be f1a7 21bf 14fc a4bd 17a1 8ebe
000003b0: dbd8 963d 2907 143e 5c83 393e 870c 553e
000003c0: d671 fdbe e8f4 803e 1fb7 d4be 4109 14be
000003d0: e7bc 82be 7f39 7d3e e4b2 b6bd 639a be3c
000003e0: eb62 c8bd 8833 8fbd b958 04be a6d8 6bbc
000003f0: ac9e d73c b9e8 c5bd e0c0 5cbe e8da ca3e

network_body.vector_processors.0.normalizer.running_mean f4 [107]
0.8531411 0.9145572 0.8485236 0.91200364 0.85926664 0.9175949 0.84710497 0.91065216
0.86389756 0.919789 0.8473525 0.9104975 0.8658285 0.9206728 0.8478481 0.9109504
0.868299 0.9218928 0.84983325 0.91247004 0.87128025 0.9237675 0.8508669 0.9139079
0.8764907 0.9269688 0.8527955 0.9153956 0.8798147 0.9290092 0.85526556 0.9170251
0.8803925 0.9294722 0.8606243 0.9196685 0.8845127 0.93116313 0.86438787 0.9213372
0.8854315 0.9318339 0.8666347 0.9222766 0.8879528 0.9329943 0.870747 0.92410696
0.8872345 0.9327345 0.87331265 0.9252411 0.88411456 0.93161577 0.8756541 0.9267868
0.88567364 0.93232375 0.87722176 0.92801493 0.8837569 0.93159246 0.87859285 0.92916924
0.8785927 0.92916924 -0.29779008 0.49754345 -0.30061018 -0.27426535 0.26110658 -0.21828127
0.0754555 0.0011274938 -0.1700316 0.0 0.0 0.0 0.0 0.0
0.0 0.0 0.0 0.0 0.0 0.0 0.0 0.0
0.0 0.0 0.0 0.0 0.0 0.0 0.0 0.0
0.0 0.0 0.0 0.0 0.0 0.0 0.0 0.0
0.0 0.0 0.0
00000000: 7567 5a3f 6c20 6a3f d838 593f 1279 693f
00000010: e6f8 5b3f 80e7 6a3f dfdb 583f 8020 693f
00000020: 6428 5d3f 4b77 6b3f 18ec 583f 5d16 693f
00000030: f0a6 5d3f 36b1 6b3f 930c 593f 0c34 693f
00000040: d848 5e3f 2b01 6c3f ac8e 593f a397 693f
00000050: 390c 5f3f 077c 6c3f 6ad2 593f def5 693f
00000060: b261 603f d44d 6d3f ce50 5a3f 5e57 6a3f
00000070: 893b 613f 8cd3 6d3f aff2 5a3f 28c2 6a3f
00000080: 6761 613f e4f1 6d3f e051 5c3f 656f 6b3f
00000090: 6d6f 623f b560 6e3f 8648 5d3f c1dc 6b3f
000000a0: a4ab 623f ab8c 6e3f c6db 5d3f 521a 6c3f
000000b0: e050 633f b7d8 6e3f 47e9 5e3f 4692 6c3f
000000c0: cd21 633f b0c7 6e3f 6b91 5f3f 9adc 6c3f
000000d0: 5555 623f 5f7e 6e3f de2a 603f e641 6d3f
000000e0: 82bb 623f c5ac 6e3f 9b91 603f 6392 6d3f
000000f0: e43d 623f d87c 6e3f 76eb 603f 09de 6d3f
00000100: 74eb 603f 09de 6d3f f177 98be 04be fe3e
00000110: 94e9 99be 826c 8cbe c3af 853e 2085 5fbe
00000120: 6a88 9a3d 6ac8 933a c41c 2ebe 0000 0000
00000130: 0000 0000 0000 0000 0000 0000 0000 0000
00000140: 0000 0000 0000 0000 0000 0000 0000 0000
00000150: 0000 0000 0000 0000 0000 0000 0000 0000
00000160: 0000 0000 0000 0000 0000 0000 0000 0000
00000170: 0000 0000 0000 0000 0000 0000 0000 0000
00000180: 0000 0000 0000 0000 0000 0000 0000 0000
00000190: 0000 0000 0000 0000 0000 0000 0000 0000
000001a0: 0000 0000 0000 0000 0000 0000
