Assets/Scripts/2.2 SensorBall&TooManyCats/TooManyCats-10M.onnx (onnx, 192106 bytes, 11 tensors)

69 f4 [107]
0	0x3eb76436	0.35818642
1	0x3e6177a0	0.2201829
2	0x3eb75d6b	0.3581346
3	0x3e61acb9	0.22038545
4	0x3eb269ab	0.34846243
5	0x3e5cf82b	0.21579044
6	0x3eb5b31e	0.35488218
7	0x3e5fc854	0.21853763
8	0x3eadd798	0.33953547
9	0x3e586cdc	0.21135277
10	0x3eb35125	0.35022846
11	0x3e5c732c	0.2152831
12	0x3eadb250	0.33925104
13	0x3e5757a2	0.21029523
14	0x3eb33dce	0.3500809
15	0x3e5ac9d8	0.2136606
16	0x3ead5794	0.3385588
17	0x3e5719c4	0.21005923
18	0x3eb2e0cb	0.34937128
19	0x3e5963eb	0.21229522
20	0x3eac0f4e	0.33605427
21	0x3e55c120	0.20874453
22	0x3eb38bd9	0.35067633
23	0x3e58a4f5	0.21156676
24	0x3ea8abf8	0.32943702
25	0x3e516127	0.20447217
26	0x3eb3ee37	0.3514268
27	0x3e58c95f	0.21170567
28	0x3ea58f22	0.32335764
29	0x3e4df799	0.20113982
30	0x3eb3a9c0	0.35090446
31	0x3e577521	0.21040775
32	0x3ea66af0	0.32503462
33	0x3e4def1b	0.20110743
34	0x3eade37e	0.33962625
35	0x3e51f384	0.2050305
36	0x3ea3c889	0.31988934
37	0x3e4cca07	0.19998942
38	0x3eab5ce6	0.33469313
39	0x3e508221	0.2036214
40	0x3ea4663f	0.32109258
41	0x3e4cefde	0.20013377
42	0x3ead67c4	0.3386823
43	0x3e530eb5	0.20611079
44	0x3ea2fde6	0.31834334
45	0x3e4bee7e	0.19915196
46	0x3ea84a0b	0.3286899
47	0x3e4f0426	0.20216426
48	0x3ea3eb88	0.32015634
49	0x3e4c598e	0.19956037
50	0x3ea1f826	0.31634635
51	0x3e4a0eef	0.19732259
52	0x3ea62e78	0.32457328
53	0x3e4cd364	0.20002514
54	0x3ea1ddbe	0.31614488
55	0x3e48a4c4	0.19594103
56	0x3ea1e775	0.316219
57	0x3e494f6e	0.19659206
58	0x3ea3127b	0.31850037
59	0x3e489e52	0.19591644
60	0x3ea0a2e2	0.3137427
61	0x3e472a76	0.19449791
62	0x3ea34d41	0.31894878
63	0x3e47e9e1	0.19522811
64	0x3ea34d45	0.3189489
65	0x3e47e9e4	0.19522816
66	0x409023d6	4.5043745
67	0x3d8ed4bd	0.0697417
68	0x4088b2a9	4.271809
69	0x408fe9b1	4.497277
70	0x3d22fcd0	0.039791882
71	0x408f31c2	4.474824
72	0x405a81bb	3.4141681
73	0x3d6fc070	0.058533132
74	0x40601af5	3.5016453
75	0x39a5cb65	0.00031622793
76	0x39a5cb65	0.00031622793
77	0x39a5cb65	0.00031622793
78	0x39a5cb65	0.00031622793
79	0x39a5cb65	0.00031622793
80	0x39a5cb65	0.00031622793
81	0x39a5cb65	0.00031622793
82	0x39a5cb65	0.00031622793
83	0x39a5cb65	0.00031622793
84	0x39a5cb65	0.00031622793
85	0x39a5cb65	0.00031622793
86	0x39a5cb65	0.00031622793
87	0x39a5cb65	0.00031622793
88	0x39a5cb65	0.00031622793
89	0x39a5cb65	0.00031622793
90	0x39a5cb65	0.00031622793
91	0x39a5cb65	0.00031622793
92	0x39a5cb65	0.00031622793
93	0x39a5cb65	0.00031622793
94	0x39a5cb65	0.00031622793
95	0x39a5cb65	0.00031622793
96	0x39a5cb65	0.00031622793
97	0x39a5cb65	0.00031622793
98	0x39a5cb65	0.00031622793
99	0x39a5cb65	0.00031622793
100	0x39a5cb65	0.00031622793
101	0x39a5cb65	0.00031622793
102	0x39a5cb65	0.00031622793
103	0x39a5cb65	0.00031622793
104	0x39a5cb65	0.00031622793
105	0x39a5cb65	0.00031622793
106	0x39a5cb65	0.00031622793

action_model._continuous_distribution.log_sigma f4 [1, 2]
0	0xbf864115	-1.0488611
1	0xbf69646a	-0.91168845

action_model._continuous_distribution.mu.bias f4 [2]
0	0xbc917184	-0.017754324
1	0xbcbe2ef1	-0.023215743

action_model._continuous_distribution.mu.weight f4 [2, 128]
0	0x3b576593	0.003286694
1	0x3d3f3790	0.046683848
2	0xbe07b964	-0.13254315
3	0x3dbb6488	0.09150034
4	0x3d595cc8	0.053067
5	0x3d22664e	0.039648347
6	0x3ce4b725	0.027919361
7	0xbb922f93	-0.0044612377
8	0x3e3f0cae	0.1865718
9	0xbd399bec	-0.045314714
10	0xbe10a55f	-0.14125584
11	0x3d1ca353	0.038241696
12	0xbc379599	-0.0112051
13	0xbc21ddb8	-0.009879522
14	0x3d11b749	0.035575185
15	0xbc80c640	-0.015719533
16	0xbc0cfb0b	-0.008604775
17	0x3d04598d	0.032311965
18	0x3d1bc43f	0.03802895
19	0xbde06508	-0.1095677
20	0x3d1cac92	0.038250513
21	0x3c06bfbc	0.008224424
22	0x3d85fa1b	0.065418445
23	0x3e098ce6	0.13432655
24	0xbc5a4371	-0.013321743
25	0xbc67ab11	-0.0141399065
26	0x3d48c1c2	0.049012907
27	0x3d46e323	0.04855646
28	0x3ca1d59b	0.019755175
29	0x3ce6bb9e	0.028165635
30	0x3c0db5b7	0.008649281
31	0x3d8294bb	0.06376024
32	0xba6bb820	-0.00089919753
33	0x3c71cb95	0.01475801
34	0xbcded295	-0.027200023
35	0x3cf25441	0.029581191
36	0xbd54c0de	-0.051941745
37	0xbcfa2d78	-0.03053926
38	0x3d4aa858	0.04947695
39	0x3ca7460f	0.020419149
40	0xbd27aa0e	-0.04093366
41	0xbda0a8fb	-0.078447305
42	0x3c4232cb	0.01185293
43	0x3c2429dc	0.010019746
44	0x3cb9772e	0.022639837
45	0x3d8d3a58	0.06895894
46	0xbca04b5b	-0.019567182
47	0xbda91a19	-0.08256931
48	0x3c91b823	0.017787999
49	0xbe08b8df	-0.13351773
50	0xbcbea245	-0.023270736
51	0xbd471ec6	-0.048613332
52	0xbcfcc754	-0.030856766
53	0xbc4585b9	-0.012055808
54	0x3c827123	0.015923088
55	0x3d405e18	0.046964735
56	0xbd6bff73	-0.057616662
57	0x3cad9cc4	0.021192916
58	0x3c34c7f8	0.011034004
59	0xb892ee39	-7.006195e-05
60	0xbca42aad	-0.02003988
61	0x3d31ff52	0.043456383
62	0xbd5333a8	-0.051562935
63	0x3dcd6b98	0.100302875
64	0x3d1ed15f	0.03877389
65	0xbb391c3f	-0.0028245596
66	0x3d1b5249	0.03792027
67	0x3dc6f0ef	0.09713923
68	0xbd3edbbb	-0.04659627
69	0x3db1d8e9	0.086839505
70	0xbbaffd63	-0.005370782
71	0x3d0b7c4e	0.034054093
72	0x3c92e397	0.017930789
73	0x3cf872d9	0.030328201
74	0xba60bcec	-0.00085730734
75	0xbd0d6685	-0.0345216
76	0x3cd93bbb	0.02651774
77	0xbd8ac046	-0.067749545
78	0x3d6289d9	0.055307243
79	0xbc2f6503	-0.010705235
80	0xbd9f40f7	-0.07776063
81	0x3d78983d	0.06069206
82	0x3ddf7cb1	0.10912455
83	0x3d8e7af8	0.06957048
84	0xbdb8cb1e	-0.090231165
85	0xbbd80b25	-0.0065931254
86	0xbce542ee	-0.027986016
87	0xbd48aafd	-0.048991192
88	0x3d3af027	0.045639183
89	0x3d57706f	0.05259746
90	0x3d1667b7	0.036720004
91	0x3d22d54d	0.0397542
92	0x3d0e93f0	0.034809053
93	0x3d1d3e96	0.038389765
94	0xbd7a54ba	-0.061115958
95	0xbc76d309	-0.015064963
96	0x3cf8349a	0.03029852
97	0xbbff2d88	-0.00778741
98	0xbdda43ef	-0.106574886
99	0x3d677cf2	0.05651564
100	0x3d1de5fb	0.038549405
101	0xbcbe0675	-0.023196438
102	0x3dba3157	0.09091442
103	0x3db22627	0.08698683
104	0x3d6684b5	0.056278903
105	0x3d11624c	0.035494134
106	0xbd6252a9	-0.055254612
107	0x3bb0e012	0.005397805
108	0xbd532f15	-0.051558573
109	0x3dac2a1b	0.084064685
110	0xbb1afd7f	-0.002364963
111	0xbcc882b3	-0.024476385
112	0x3cecb4d6	0.028894823
113	0x3d4c5439	0.04988501
114	0x3d52af26	0.051436566
115	0x3b9d6b26	0.004804033
116	0x3c9d82a5	0.019227335
117	0x3c8af915	0.016964475
118	0x3d8596d5	0.065229096
119	0x3da7ff22	0.082029596
120	0x3dea17c3	0.114303134
121	0x3b80d1d7	0.003931265
122	0xbe18d43d	-0.14924712
123	0x3e0a93d2	0.13532951
124	0xbdcd70db	-0.10031291
125	0xbd6ff761	-0.05858553
126	0xbcf59f95	-0.029983321
127	0x3db4a0c4	0.08819726
128	0xbd934186	-0.07190232
129	0xbd2c4f46	-0.04206779
130	0xbdcc1b70	-0.09966171
131	0xbc4d1950	-0.012518242
132	0xba996c0d	-0.0011705175
133	0xbd4c3be5	-0.049861807
134	0xbcbbeb24	-0.022939272
135	0xbe3f9274	-0.18708211
136	0xbdbba92a	-0.09163125
137	0xbdb8a633	-0.09016075
138	0xbddfca02	-0.10927202
139	0x3d71bb7a	0.059016682
140	0xbd2d7faa	-0.042358078
141	0xbd8389bd	-0.06422756
142	0xbd57ea4b	-0.052713674
143	0x3e3c2d53	0.18376665
144	0xbbe3ebf7	-0.0069556194
145	0xbbfd80ea	-0.007736315
146	0x3e0a10f3	0.13483028
147	0xbcca4917	-0.024693055
148	0x3db9253a	0.090403035
149	0xbd556b99	-0.052104566
150	0xbd63f7aa	-0.055656113
151	0x3d4ab686	0.049490474
152	0xbd2dafd8	-0.042404026
153	0xbdc816d5	-0.0976998
154	0xbd71f0ba	-0.059067465
155	0xbd4f4ff9	-0.050613377
156	0xbe087542	-0.1332598
157	0xbd365053	-0.044510197
158	0x3dc3e362	0.09564854
159	0x3c5632e3	0.013073656
160	0xbbdc9ef2	-0.006732815
161	0x3c7191eb	0.014744262
162	0x3d311d1e	0.04324066
163	0xbd59e4a4	-0.053196564
164	0x3c8ffcfe	0.01757669
165	0xb9bd68a2	-0.00036126847
166	0x3db9e5e4	0.09077051
167	0xbd0aa9dc	-0.033853397
168	0x3d44ef67	0.048079874
169	0xbd5e7a28	-0.054315716
170	0x3d8d1184	0.068881065
171	0xbdc76d5d	-0.09737656
172	0xbc0e2873	-0.008676636
173	0xbc70f69d	-0.014707235
174	0xbd276042	-0.040863283
175	0xbdd8ef30	-0.105924964
176	0xbd5afe0e	-0.05346494
177	0x3d60fc0a	0.054927863
178	0xbc8ba5e2	-0.017046873
179	0x3dc121ad	0.09430251
180	0x3d2c65ee	0.042089395
181	0xbd976e35	-0.07394067
182	0x3d0e1910	0.03469187
183	0x3ca8f856	0.020626228
184	0x3c9786d5	0.01849691
185	0xbd66b102	-0.05632115
186	0xba7891ec	-0.0009482193
187	0xbba992bb	-0.0051749623
188	0x3d8cd995	0.06877438
189	0xbd30227f	-0.043001648
190	0xbdcbec25	-0.0995715
191	0x3d64e7c0	0.055885077
192	0x3cebe506	0.02879573
193	0xbc0a4eef	-0.008441671
194	0xbd4e871f	-0.05042183
195	0x3b932282	0.0044901976
196	0x3e1fd632	0.15609053
197	0xbd4be1f5	-0.049776036
198	0xbda4e752	-0.08051933
199	0x3c93a7a6	0.018024277
200	0xbd6219fc	-0.055200562
201	0x3db05209	0.08609397
202	0x3d1f6c4e	0.038921647
203	0x3d5da9d4	0.05411704
204	0xbd3951e0	-0.045244098
205	0x3dc82ab5	0.09773771
206	0x3ddecb65	0.10878638
207	0xbd910da7	-0.07082682
208	0xbcaa89fa	-0.020817745
209	0x3c976db4	0.018484928
210	0xbd0c7e6a	-0.034300245
211	0x3ca3ff32	0.020019148
212	0xbe1d1e7d	-0.15343662
213	0x3d5f74ab	0.054554623
214	0x3d43db81	0.047816757
215	0x3cf4506f	0.02982351
216	0x3d2aad5f	0.041669246
217	0x3cb8c557	0.022555036
218	0xbe307b0c	-0.17234439
219	0xbd14812f	-0.03625601
220	0xbd82ea7f	-0.06392383
221	0xbcaf321b	-0.021386197
222	0xbd639234	-0.055559352
223	0xbdbf656d	-0.09345517
224	0xbd5e6af0	-0.054301202
225	0xbce60232	-0.028077219
226	0xbc986bf5	-0.018606165
227	0x3d5bca56	0.05365976
228	0xbc70eab0	-0.014704391
229	0xbdbe29ba	-0.092853025
230	0xbd61198b	-0.054956
231	0x3cb1d52a	0.02170809
232	0x3c803821	0.015651764
233	0x3dbddbaa	0.09270413
234	0xbd3a595c	-0.045495376
235	0xbc8ea09c	-0.017410569
236	0xbe28b871	-0.16476609
237	0xbda3fed9	-0.08007593
238	0xbc8e2110	-0.01734975
239	0xbcf1df46	-0.02952541
240	0x3ce7daa4	0.028302498
241	0x3c990645	0.018679747
242	0x3d8449b8	0.06459373
243	0x3d08102a	0.03321854
244	0xbd54b529	-0.05193058
245	0xbd1871f7	-0.03721806
246	0xbd987e3d	-0.07445953
247	0x3c921b07	0.017835153
248	0xbdca97c7	-0.098922305
249	0xbdd6a609	-0.104808874
250	0xbc13ce5d	-0.009021369
251	0xbd7cc70f	-0.061713275
252	0xbccc4367	-0.024934484
253	0xbca419a1	-0.020031752
254	0xbc797ed3	-0.015227991
255	0xbb43c96d	-0.0029874698

network_body.linear_encoder.seq_layers.0.bias f4 [128]
0	0xbe5d7c83	-0.21629529
1	0xbed14e21	-0.4087992
2	0x3bfa536e	0.00763934
3	0xbdb2395a	-0.08702345
4	0xbd10f930	-0.035393894
5	0xbe6b20c3	-0.22961716
6	0xbe4afed6	-0.19823775
7	0xbd94f1d8	-0.072726905
8	0xbdbd9e05	-0.092586555
9	0xbe50b2bd	-0.20380683
10	0xbcd398cf	-0.0258297
11	0xbd656c2b	-0.05601136
12	0xbe025553	-0.12727861
13	0xbc8ba7e4	-0.01704783
14	0x3c85cfee	0.0163345
15	0xbca79c87	-0.02046038
16	0xbe02c26d	-0.1276948
17	0xbdccbeaa	-0.09997304
18	0xbdc9ff35	-0.0986313
19	0xbcf9e39c	-0.03050404
20	0xbea7c3c7	-0.32766554
21	0xbbde8d76	-0.006791766
22	0xbd8d5a35	-0.06901971
23	0xbe8a792c	-0.27045572
24	0xbd555a16	-0.052087866
25	0x3c58c3a9	0.013230243
26	0xbe66d25d	-0.22541185
27	0xbdfe3867	-0.12413102
28	0xbcfb1a12	-0.03065208
29	0xbca9f6b4	-0.02074752
30	0xbed561be	-0.41676134
31	0xbe57097c	-0.20999712
32	0xbcc29002	-0.023750309
33	0xbd97cfe6	-0.074127
34	0x3d05925c	0.032610282
35	0xbdebb47d	-0.11509035
36	0xbe58ee55	-0.21184666
37	0x3b2616d6	0.00253432
38	0xbe2d1622	-0.16902974
39	0xbe581c7e	-0.21104619
40	0xbda3c35e	-0.07996248
41	0xbd46baf5	-0.04851814
42	0xbd8d58e3	-0.069017194
43	0xbd4733ff	-0.04863357
44	0xbe0a7eb9	-0.13524903
45	0xbd49406f	-0.049133714
46	0xbe197282	-0.14985088
47	0xbdb2f510	-0.08738148
48	0x3d1e0683	0.03858043
49	0x3a9d22cb	0.0011988519
50	0xbdb97165	-0.090548314
51	0xbde8cd37	-0.113672666
52	0x3d924261	0.07141567
53	0xbdda1836	-0.10649149
54	0x3aed6a40	0.001811333
55	0xbe041cb3	-0.12901573
56	0xbd0c1958	-0.034203857
57	0xbeb7cd0f	-0.35898635
58	0xbd85bb0d	-0.06529818
59	0xbec46cd1	-0.3836427
60	0xbdfc9a97	-0.12334173
61	0xbec592ec	-0.38588655
62	0xbe15613b	-0.14587872
63	0xbd0479c4	-0.032342687
64	0xbe5511a4	-0.2080751
65	0xbdd60ea7	-0.104520135
66	0xbd35bc62	-0.04436911
67	0xbea22795	-0.31670824
68	0xbdbfeb8a	-0.093710974
69	0xbd7f4aad	-0.062327076
70	0xbe4a347b	-0.19746582
71	0x3d55a025	0.05215468
72	0xbe68bb88	-0.22727787
73	0xbe798f7b	-0.2437114
74	0xbe495823	-0.19662528
75	0xbe2d43b2	-0.16920355
76	0xbc839bc1	-0.01606548
77	0xbd55ad01	-0.052166943
78	0xbd392aee	-0.045206957
79	0xbe53bb13	-0.20676832
80	0xbd971e88	-0.0737887
81	0xbe1988e7	-0.1499363
82	0xbd964e87	-0.07339197
83	0xbd064fa7	-0.032790806
84	0x3cc6c09c	0.024261765
85	0xbd9463c4	-0.07245591
86	0xbe846d8e	-0.25864834
87	0xbd8c34d3	-0.06846013
88	0xbd19aa93	-0.037516188
89	0xbe87606e	-0.26440758
90	0xbc05eebe	-0.008174596
91	0xbe032b36	-0.12809452
92	0x3bf9d85d	0.0076246695
93	0xbe97f05d	-0.2967557
94	0xbe0ad363	-0.135572
95	0xbe6e8e40	-0.23296452
96	0xbdfd65e5	-0.123729505
97	0xbdc79b56	-0.09746425
98	0xbd54b5ac	-0.05193107
99	0xbd534d85	-0.0515876
100	0xbd74e53c	-0.059788927
101	0x3c91c123	0.01779229
102	0x3d03628b	0.0320764
103	0xbe0ee3d8	-0.13954103
104	0xbd30a110	-0.04312235
105	0xbd91b868	-0.07115251
106	0xbda0084b	-0.07814082
107	0xbe81bdd2	-0.25340134
108	0xbc917464	-0.017755695
109	0xbe5e389f	-0.21701287
110	0xbea4c0ca	-0.32178336
111	0xbda56fda	-0.080779746
112	0xbd8bde9b	-0.06829568
113	0x3d4f9476	0.050678693
114	0xbe6a4b7e	-0.2288036
115	0x3ad11984	0.0015953039
116	0xbe284db3	-0.1643589
117	0x3d2f3b34	0.04278107
118	0xbdf5d3ef	-0.12003314
119	0xbe3cacdf	-0.1842532
120	0xbe0ac3f8	-0.13551319
121	0xbd7205d5	-0.059087593
122	0xbba5e6d7	-0.0050629186
123	0xbe2cde48	-0.16881669
124	0xbe12c4b3	-0.14332847
125	0xbd8f68a0	-0.070023775
126	0xbe1d4822	-0.15359548
127	0xbd2d24bc	-0.04227136

network_body.linear_encoder.seq_layers.0.weight f4 [128, 107]
0	0xbdd7e5ce	-0.10541879
1	0xbd6f016b	-0.05835096
2	0x3cf9cfcb	0.030494591
3	0xbe6b1096	-0.22955546
4	0xbe10e7e2	-0.14150956
5	0xbbac9a06	-0.0052673845
6	0xbd19b6bb	-0.03752778
7	0xbd38244d	-0.044956494
8	0xbe6a9ce3	-0.2291141
9	0xbe3e90af	-0.1860988
10	0x3cf65398	0.030069157
11	0xbe43d2b5	-0.19123347
12	0x3e883e8c	0.2661022
13	0x3e6867e8	0.22695887
14	0x3dba3318	0.090917766
15	0xbd88fe00	-0.06689072
16	0x3e027954	0.12741596
17	0xbd2790c7	-0.040909555
18	0x3ca259ec	0.019818269
19	0xbdd206eb	-0.10255226
20	0xbe81167c	-0.25212467
21	0x3dddbdd7	0.10827225
22	0x3d6cd576	0.05782076
23	0x3cc2aa83	0.023762947
24	0x3cd1e019	0.025619553
25	0xbdc8980a	-0.09794624
26	0xbbe59d88	-0.0070073046
27	0xbd9251ac	-0.07144484
28	0x3de4207a	0.11139007
29	0x3e3abfdf	0.18237256
30	0x3d1f8ca9	0.038952503
31	0x3ce79d7a	0.028273333
32	0x3ea38c82	0.31943136
33	0x3e078993	0.13236074
34	0xbd590463	-0.0529827
35	0xbe56ae90	-0.20965028
36	0xbe747106	-0.2387124
37	0x3e009d9b	0.12560122
38	0xbd4e5056	-0.050369583
39	0x3e024c10	0.12724328
40	0x3d91398f	0.070910566
41	0x3e4d683e	0.20059296
42	0x3e916820	0.28399754
43	0xbd0d9f9c	-0.034576043
44	0xbdde363a	-0.10850187
45	0x3d3c3a47	0.045954015
46	0x3e0e5f44	0.13903528
47	0x3d550bb1	0.052013103
48	0xbdf1f10e	-0.11813556
49	0xbd3c43e4	-0.045963183
50	0xbdb8dc90	-0.09026444
51	0x3d860b79	0.06545157
52	0xbedcd412	-0.43130547
53	0xbe127d69	-0.14305653
54	0xbcb2409b	-0.021759322
55	0xbddd2ee4	-0.10799959
56	0xbda665aa	-0.0812486
57	0x3cdacc46	0.026708733
58	0x3d07e33b	0.03317569
59	0x3c9a01de	0.018799718
60	0xbe26bbd3	-0.16282587
61	0xbd1ffa13	-0.03905685
62	0x3e5968a7	0.21231328
63	0x3e92eddb	0.28697094
64	0x3e2eb189	0.17059912
65	0x3dfceb2b	0.12349542
66	0xbc7d0ec0	-0.015445411
67	0xbe372173	-0.17883854
68	0x3ec55294	0.38539565
69	0xbd814621	-0.06312204
70	0xbe262fe0	-0.162292
71	0xbe3eee5b	-0.18645613
72	0x3e160e92	0.14653996
73	0xbe83bf6d	-0.25731984
74	0x3d109ba5	0.035304684
75	0xbc2da0ef	-0.010597452
76	0xbddfde6a	-0.10931094
77	0x3c6f47e3	0.0146045415
78	0xbd81f67f	-0.063458435
79	0x3bc9df69	0.006160666
80	0xbe241acf	-0.16025852
81	0xbdf9cb42	-0.121969715
82	0x3df90d26	0.12160711
83	0x3e539ee0	0.20666075
84	0xbe10170a	-0.14071289
85	0x3d986198	0.074404895
86	0xbaab3971	-0.0013063384
87	0xbe006b55	-0.12540944
88	0xbbd6b425	-0.0065522366
89	0x3dbc33a4	0.09189537
90	0x3d950d67	0.07277947
91	0xbd475a49	-0.048670087
92	0x3e173d39	0.14769448
93	0xbc69d29b	-0.014271404
94	0x3bf68483	0.007523121
95	0xbd7bfe1e	-0.061521642
96	0x3d0aaf50	0.033858597
97	0x3e2b3369	0.1671883
98	0x3d21a1bd	0.039460886
99	0xbe27eaa6	-0.16398105
100	0x3d292f3a	0.041304804
101	0x3e1f585a	0.15561047
102	0x3d8a312f	0.06747662
103	0xbcf16936	-0.029469114
104	0x3ce06d03	0.02739573
105	0x3dda6a82	0.10664846
106	0x3cdb92e4	0.026803441
107	0xbd88e458	-0.06684178
108	0xbd8eabbc	-0.069663495
109	0xbd6fc5f8	-0.058538407
110	0x3e3dd0a5	0.18536623
111	0xbd83b650	-0.06431258
112	0xbd3b5a08	-0.045740157
113	0x3d85d2bc	0.06534335
114	0x3cdf65a6	0.02727015
115	0xbd4c19d6	-0.049829327
116	0xbd490818	-0.049079984
117	0xbe205dda	-0.15660802
118	0x3bfeecb7	0.0077796835
119	0xbdfa3582	-0.12217237
120	0x3be342c5	0.00693545
121	0x3d524949	0.05133942
122	0xbe87bf50	-0.26513147
123	0x3df45c6b	0.1193169
124	0xbce06414	-0.027391471
125	0x3e12cd9c	0.14336246
126	0xbdbc9f08	-0.0921002
127	0xbe85a355	-0.26101175
128	0x3d78a1cc	0.060701177
129	0x3d06d863	0.032921206
130	0xbdfb67a9	-0.12275631
131	0xbdfe5185	-0.12417892
132	0x3dfdd139	0.12393422
133	0xbe3df1a0	-0.18549204
134	0xbe33c573	-0.1755579
135	0x3ce8d585	0.028422127
136	0xbdb676be	-0.08909367
137	0x3d8a2e70	0.067471385
138	0x3eaa8b32	0.33309323
139	0xbd2d021b	-0.042238336
140	0xbe1a602a	-0.15075746
141	0xbd8474d2	-0.06467594
142	0x3dbe97ca	0.09306295
143	0x3e2dbbb3	0.16966133
144	0xbd685f5a	-0.05673156
145	0x3e232b76	0.15934548
146	0x3dbd83cd	0.09253655
147	0xbe871d3a	-0.26389486
148	0xbde0a4ea	-0.10968955
149	0xbe07d005	-0.13262947
150	0x3e3734e3	0.17891268
151	0x3e2627e1	0.1622615
152	0xbcaac457	-0.020845575
153	0xbd81ce40	-0.06338167
154	0x3e1f700f	0.1557009
155	0x3d3b962e	0.04579752
156	0xbe93cce1	-0.28867248
157	0xbc8693da	-0.016427923
158	0xbb4f1a32	-0.0031601307
159	0xbc9eb84f	-0.019374995
160	0xbd4217d4	-0.047386006
161	0x3d2aa711	0.041663233
162	0x3d6e7519	0.05821714
163	0x3d3dbdc2	0.046323545
164	0xbe0f6307	-0.1400262
165	0x3e584098	0.2111839
166	0x3dc24eda	0.09487696
167	0x3dfb875c	0.12281677
168	0x3db8d6ed	0.09025369
169	0x3dc50401	0.09619904
170	0xbe86b575	-0.26310316
171	0xbcfd0ada	-0.030888963
172	0xbe0baaec	-0.1363942
173	0x3f025d1e	0.50923336
174	0xbebe651a	-0.3718651
175	0xbd2e7a1b	-0.042596918
176	0xbed43fa1	-0.41454795
177	0xbd9aa70d	-0.07551394
178	0x3dc808a0	0.0976727
179	0x3e9a0449	0.30081394
180	0xbdec3b38	-0.115347326
181	0x3dfb0ad9	0.122579284
182	0xbe8112a9	-0.2520955
183	0x3cbfb5cd	0.023402119
184	0xbdcc31f7	-0.099704675
185	0xbd973721	-0.07383562
186	0xbd8a3ee8	-0.0675028
187	0xbdc32e0d	-0.09530268
188	0x3c9cffa4	0.019164868
189	0x3d8e96b7	0.0696234
190	0x3b476676	0.0030426062
191	0x3db94c5d	0.09047768
192	0xbb5c7693	-0.0033640012
193	0x3d78921d	0.06068622
194	0xbe1e058b	-0.15431802
195	0x3c8089f1	0.015690776
196	0x3e08da85	0.13364609
197	0xbd1c53d5	-0.038165886
198	0xbc2a1d4f	-0.010382964
199	0x3a1f88a0	0.00060857274
200	0x3d901725	0.070356645
201	0x3d3c0e8c	0.04591231
202	0xbde86ba3	-0.11348655
203	0xbe01e4ae	-0.1268489
204	0x3a869187	0.0010266759
205	0x3bc5bc00	0.0060343742
206	0xbdee5d37	-0.11638873
207	0xbdbe8501	-0.09302712
208	0x3cc0a137	0.023514373
209	0x3db60777	0.088881426
210	0xbd8823e5	-0.06647471
211	0xbe14c971	-0.14529969
212	0x3e01d979	0.12680615
213	0x3d7061a8	0.058686882
214	0x3dcbb6dd	0.09946988
215	0xbe313459	-0.17305125
216	0x3d2b5c1e	0.041835897
217	0x3cb16ce1	0.021658363
218	0xbe3d0c03	-0.18461613
219	0xbdb11ede	-0.086484656
220	0xbdc889a5	-0.097918786
221	0x3d18d0d2	0.03730852
222	0xbdc30cd6	-0.09523933
223	0x3e0adfa5	0.13561876
224	0x3dbe4513	0.092905186
225	0xbce81523	-0.028330391
226	0x3ea0e962	0.31428057
227	0x3efd9868	0.4953034
228	0xbd867319	-0.06564922
229	0xbd51384a	-0.051079072
230	0x3cc5b555	0.024134317
231	0xbdf48058	-0.11938542
232	0xbe281698	-0.16414869
233	0xbe54e363	-0.20789866
234	0xbbc7d951	-0.006098904
235	0x3e374e02	0.17900851
236	0x3deafae9	0.114736386
237	0xbc0f6aae	-0.008753462
238	0x3d586c91	0.052837912
239	0x3d55d76a	0.052207388
240	0x3e2ace27	0.16680203
241	0x3e100b7c	0.14066881
242	0xbd615f04	-0.055022255
243	0x3dd2b928	0.10289222
244	0xbce5bfba	-0.028045524
245	0xbc6f514a	-0.014606783
246	0x3e4f1129	0.2022139
247	0x3e12fe15	0.14354737
248	0xbe0c2b71	-0.13688447
249	0xbd776660	-0.060400367
250	0xbdd2ba7a	-0.10289474
251	0xbe0d4775	-0.1379679
252	0x3d97d429	0.07413513
253	0xbe4db0e8	-0.20087016
254	0x3e06ac06	0.13151559
255	0x3e0de2bb	0.13856022

network_body.linear_encoder.seq_layers.2.bias f4 [128]
0	0xbe287ad6	-0.16453108
1	0xbd50f051	-0.051010434
2	0xbd5f1f4b	-0.054473203
3	0xbdb47d1b	-0.088129245
4	0xbc8371fc	-0.016045563
5	0x3c9b311e	0.01894432
6	0xbd695f26	-0.056975506
7	0xbd444a07	-0.04792216
8	0xbc82721a	-0.015923548
9	0xbc9262e9	-0.01786943
10	0xbe67eb69	-0.22648396
11	0x3c0333ca	0.008007953
12	0xbcac4ff3	-0.021034217
13	0xbd9f7dab	-0.07787641
14	0xbde029af	-0.109454505
15	0xbe0fc1d9	-0.14038791
16	0xbd4a8d0d	-0.049450923
17	0xbd88c2d9	-0.06677789
18	0xbd44723a	-0.047960497
19	0x3cefa13d	0.02925169
20	0xbe6691d3	-0.22516565
21	0x3d0848c1	0.03327251
22	0xbe11ace5	-0.1422611
23	0xbdfd3828	-0.123642266
24	0xbd9a6cf6	-0.07540314
25	0xbd08337d	-0.033252228
26	0x3d2bfeb7	0.041990962
27	0xbd3af334	-0.045642093
28	0xbe41fca0	-0.18944025
29	0xbd2d300e	-0.042282157
30	0xbddead6c	-0.10872921
31	0xbdeb35e4	-0.11484888
32	0xbda5913a	-0.080843404
33	0x3cdc9131	0.026924701
34	0xbd6edd3c	-0.058316454
35	0xbdab08fb	-0.08351322
36	0xbdeb0b59	-0.11476774
37	0xbdd0f35a	-0.102026656
38	0xbdb87bf4	-0.09008017
39	0xbda32d20	-0.07967591
40	0xbe38f2f7	-0.18061434
41	0xbe33e49e	-0.1756768
42	0xbe702028	-0.23449767
43	0xbda436fd	-0.08018301
44	0xbcfc6104	-0.03080798
45	0xbe00dfb0	-0.1258533
46	0xbd5f69fb	-0.05454443
47	0xbda0ff36	-0.078611776
48	0xbddaf0a3	-0.10690429
49	0xbd289430	-0.041156948
50	0xbdcef0bc	-0.1010451
51	0xbddde4b5	-0.10834638
52	0xbe1e8cfb	-0.15483467
53	0xbe3ce616	-0.18447146
54	0xbde7ebe2	-0.11324288
55	0xbdabbcc2	-0.08385612
56	0xbd957357	-0.0729739
57	0x3cd6fd27	0.02624376
58	0x3ccb5eb3	0.02482543
59	0xbd231ade	-0.039820544
60	0xbe257646	-0.16158399
61	0xbdd28de3	-0.10280969
62	0xbddf91e7	-0.109165005
63	0xbd96e014	-0.07366958
64	0xbdf3c2c6	-0.119023845
65	0xbdf2f864	-0.11863783
66	0xbd635bad	-0.05550735
67	0xbdb71ba1	-0.08940817
68	0xbdbf27b6	-0.09333746
69	0x3c8e3d66	0.017363261
70	0xbe2298f7	-0.15878664
71	0xbe1a5366	-0.15070876
72	0xbc6df9f0	-0.014524922
73	0xbe9963c2	-0.29958922
74	0x3d8294f9	0.063760705
75	0xbdddaa92	-0.10823549
76	0xbe15ee6c	-0.14641732
77	0xbe086b60	-0.1332221
78	0xbe23fb1e	-0.16013762
79	0xbd32a4dc	-0.043614253
80	0xbdd1c127	-0.10241919
81	0xbd8a25bf	-0.06745481
82	0xbd80f9c3	-0.06297638
83	0xbe2f0958	-0.17093408
84	0xbe831262	-0.25599962
85	0xbe189efb	-0.14904396
86	0xbc365c3b	-0.011130388
87	0xbd997f76	-0.07495014
88	0xbcc2775e	-0.02373856
89	0xbe061c7c	-0.13096803
90	0xbe65fbb1	-0.22459294
91	0xbd3b3fa2	-0.04571498
92	0xbdbcb24a	-0.092136934
93	0xbd5e4f42	-0.054274805
94	0xbdd64dbc	-0.104640454
95	0xbddc5466	-0.10758285
96	0xbde62ec5	-0.11239389
97	0xbe00e81e	-0.12588546
98	0xbd847aac	-0.0646871
99	0xbe1a4fa8	-0.15069449
100	0xbe21543c	-0.15754789
101	0x3d571c0f	0.052516993
102	0xbdb2e121	-0.08734346
103	0x3dba6d22	0.09102847
104	0xbb615f6a	-0.0034389147
105	0xbeb467e1	-0.35235503
106	0xbd430c71	-0.047619287
107	0xbddf46bf	-0.109021656
108	0xbda44034	-0.08020058
109	0xbe5b3d2e	-0.21410057
110	0x3dafbdee	0.08581148
111	0xbe6b7ca0	-0.2299676
112	0xbdad9cac	-0.084771484
113	0xbd879b65	-0.06621436
114	0xbe4f2e3a	-0.20232478
115	0x3ce729e4	0.028218217
116	0xbde953fc	-0.11392972
117	0xbdfee327	-0.124456696
118	0xbd2a7c4e	-0.041622452
119	0x3da87f8d	0.082274534
120	0xbdd44f2d	-0.10366664
121	0xbcc46be0	-0.02397722
122	0xbdddd74b	-0.108320795
123	0xbd08caea	-0.03339664
124	0xbd72d848	-0.059288293
125	0xbd9c69d0	-0.0763737
126	0xbe090b14	-0.13383132
127	0xbe0caa87	-0.13736926

network_body.linear_encoder.seq_layers.2.weight f4 [128, 128]
0	0x3e43d76b	0.19125144
1	0x3dfc7818	0.123275936
2	0xbca8b9e5	-0.020596454
3	0x3e3a2b1c	0.18180507
4	0x3da379d0	0.07982218
5	0x3d0cffd3	0.03442366
6	0xbc1257b5	-0.008932044
7	0xbe9f51ab	-0.31116995
8	0x3e2eb1aa	0.17059961
9	0xbe554691	-0.208277
10	0xbd9c2980	-0.07625103
11	0x3c88a7ba	0.01668154
12	0xbd88fab2	-0.06688441
13	0x3d4bf4ce	0.04979401
14	0xbde3c8ee	-0.11122309
15	0xbe9a4a77	-0.30134937
16	0xbe75cec1	-0.24004652
17	0xbe1078a8	-0.14108527
18	0xbd8934b9	-0.06699509
19	0xbe87be47	-0.26512358
20	0xbd841666	-0.06449585
21	0xbeb3c283	-0.35109338
22	0x3cf0e565	0.029406259
23	0x3d865221	0.065586336
24	0x3e26e5c9	0.16298594
25	0x3b5f0f24	0.0034036124
26	0xbdad0d01	-0.08449746
27	0xbe6684b1	-0.22511555
28	0xbd866948	-0.065630496
29	0xbe10aeb7	-0.14129148
30	0xbd9b725d	-0.075901724
31	0xbe906654	-0.2820307
32	0x3d84932d	0.06473384
33	0xbdfc9745	-0.1233354
34	0x3e188b81	0.14896967
35	0x3d2509e2	0.040292628
36	0x3da9a165	0.08282737
37	0x3e080774	0.13284093
38	0xbdd09c2d	-0.10186038
39	0xbe275356	-0.16340384
40	0xbe1ca55f	-0.15297459
41	0x3e082a29	0.13297333
42	0xbf080af5	-0.5314172
43	0x3c206a92	0.009791033
44	0xbdd322f6	-0.10309403
45	0x3d7e9dec	0.062162325
46	0x3e4a742c	0.19770879
47	0x3e6ba966	0.23013839
48	0xbea6b122	-0.32557017
49	0xbe8c2d10	-0.2737813
50	0x3d6b705b	0.057480197
51	0xbe9113ed	-0.28335515
52	0x3e870326	0.2636959
53	0x3e0e618f	0.13904403
54	0xbe5a98fc	-0.21347421
55	0xbe87f10f	-0.265511
56	0xbe67022f	-0.22559427
57	0x3dc37e2a	0.09545548
58	0xbe1cd9e3	-0.15317492
59	0x3e469191	0.19391467
60	0xbba7d950	-0.005122341
61	0xbd5ee9e8	-0.05442229
62	0xbe7d115d	-0.24713655
63	0x3c24a9ad	0.0100502195
64	0x3d712ebf	0.05888247
65	0x3d65bf7f	0.056090828
66	0xbe2e1dac	-0.17003506
67	0x3a5ef92c	0.00085057574
68	0xbe685f45	-0.22692592
69	0xbe0f9813	-0.14022855
70	0x3d4d9501	0.05019093
71	0xbe036d24	-0.12834603
72	0x3c0e535d	0.008686868
73	0x3e4f032a	0.2021605
74	0xbd7830ce	-0.06059342
75	0xbcf6ef40	-0.03014338
76	0x3cb39407	0.02192117
77	0x3e530227	0.2060629
78	0x3e9f5dcd	0.31126252
79	0x3db6d9d9	0.0892827
80	0xbe1adcd3	-0.151233
81	0x3e751648	0.23934281
82	0x3ca2ce67	0.019873811
83	0xbdc43e46	-0.0958219
84	0xbe789f7f	-0.24279593
85	0xbc181ad3	-0.009283739
86	0x3d05c268	0.032656103
87	0x3d637d3b	0.05553935
88	0x3d7fad58	0.062421173
89	0xbdc49567	-0.09598809
90	0x3c45d794	0.012075324
91	0x3e08d941	0.13364126
92	0x3d98e018	0.074646175
93	0x3daba655	0.08381335
94	0xbdd7bdab	-0.10534223
95	0xbba4ba36	-0.005027081
96	0x3d7c206e	0.061554365
97	0xbebd3c6e	-0.36960167
98	0x3e490346	0.19630155
99	0xbdd23901	-0.10264779
100	0x3d379aec	0.04482548
101	0x3de385f5	0.11109535
102	0xbe0f24e2	-0.13978913
103	0xbee6d82f	-0.4508681
104	0xbe8ffb54	-0.28121436
105	0xbb8b0385	-0.004242363
106	0x3ddb6ddd	0.10714314
107	0x3e42a9cb	0.19010083
108	0xb90b2979	-0.00013271523
109	0x3e6ad47c	0.22932619
110	0xbe205915	-0.15658982
111	0xbe6b54a2	-0.22981504
112	0x3c9bf989	0.019039886
113	0xbdb259ca	-0.08708532
114	0xbe42057c	-0.18947405
115	0xbe67987c	-0.22616762
116	0xbe501027	-0.20318662
117	0xbe9e299c	-0.3089112
118	0xbce5915a	-0.02802341
119	0xbd37ecd1	-0.04490358
120	0xbdc79509	-0.09745223
121	0xbe0bdee9	-0.13659252
122	0xbee0d6e3	-0.43913946
123	0xbe9c1022	-0.30481058
124	0x3e1326ba	0.14370242
125	0xbb78848c	-0.00379208
126	0xbccc43ea	-0.024934728
127	0xbb253c10	-0.0025212802
128	0xbd5e2799	-0.054236982
129	0xbe3d6e62	-0.18499139
130	0x3ddc62ba	0.10761018
131	0xbe175add	-0.14780755
132	0x3e42d1b6	0.19025311
133	0x3d4bbdd5	0.049741585
134	0xbee03811	-0.43792775
135	0xbcf21af1	-0.029553862
136	0xbd317e0e	-0.043333106
137	0xbe19eb84	-0.15031248
138	0xbdca5681	-0.098797806
139	0xbd70741c	-0.05870448
140	0xbe2f903b	-0.17144863
141	0xbe1737bb	-0.14767353
142	0x3daca1fc	0.084293336
143	0xbd8251f4	-0.063632876
144	0xbe1d3d7a	-0.15355483
145	0xbdb9ac01	-0.0906601
146	0xbe09306e	-0.1339738
147	0x3dd35004	0.10317996
148	0xbe4fee3a	-0.2030572
149	0xbd2de4bd	-0.04245447
150	0x3e03bc0e	0.12864706
151	0x3d55859e	0.05212938
152	0x3d691f84	0.05691482
153	0x3d161d11	0.036648814
154	0x3db18f38	0.08669895
155	0xbdb1fb78	-0.08690542
156	0x3b043329	0.0020172095
157	0x3d1abad1	0.03777582
158	0xbe91086f	-0.28326747
159	0xbd361831	-0.044456664
160	0x3e62648a	0.22108665
161	0x3b38e0e3	0.0028210215
162	0x3e090eb1	0.1338451
163	0xbe6964aa	-0.22792307
164	0xbdbd320a	-0.0923806
165	0x3d1669d8	0.036722034
166	0x3d47d1c3	0.04878403
167	0x3dcef7e9	0.10105879
168	0xbe2e7a64	-0.17038876
169	0xbe9a98f0	-0.30194807
170	0xbdb6a625	-0.08918408
171	0xbd2feb10	-0.042948782
172	0xbd3e09e1	-0.04639614
173	0xbe9f3b36	-0.31099862
174	0xbe08cff8	-0.13360584
175	0xbd2b6da0	-0.041852593
176	0xbe5a6a0f	-0.2132952
177	0x3d903efd	0.07043264
178	0x3db08a19	0.0862009
179	0x3c94f302	0.018182281
180	0xbe2c1a00	-0.16806793
181	0xbdde936f	-0.108679645
182	0x3b67ab4e	0.0035349908
183	0xbe907d7b	-0.28220734
184	0xbe20d5c6	-0.15706548
185	0xbc5b1e15	-0.013373871
186	0x3e351f37	0.17687689
187	0x3dac72d7	0.084203415
188	0x3e066685	0.13125046
189	0xbe0084c2	-0.12550643
190	0x3d38b628	0.045095593
191	0x3e6d5e96	0.23180613
192	0xbe882f06	-0.26598376
193	0x3d6dfa0b	0.058099788
194	0xbdcae70c	-0.0990735
195	0xbeb63d4f	-0.3559365
196	0xbcc8b122	-0.024498526
197	0x3d20f018	0.03929147
198	0xbd065cbe	-0.03280329
199	0x3df66a56	0.12032001
200	0xba854d61	-0.0010170155
201	0xbe43c8a4	-0.19119507
202	0xbde9e7ab	-0.1142114
203	0x3dce7d1d	0.10082457
204	0x3ca7b9ae	0.020474281
205	0xbeb80841	-0.35943797
206	0xbdf3efc5	-0.11910967
207	0x3d0548db	0.032540184
208	0x3dfc4651	0.12318099
209	0xbc10d7f8	-0.008840553
210	0xbd910dad	-0.070826866
211	0x3d9dc527	0.077036195
212	0xbd6192de	-0.055071704
213	0xbe831bd7	-0.25607178
214	0x3de965a0	0.113963366
215	0xbe70b0e7	-0.23504983
216	0x3e2403e2	0.16017106
217	0xbe89b3aa	-0.26894885
218	0x3d8ae244	0.06781438
219	0xbe24912c	-0.16071004
220	0xbbd0acdb	-0.006368262
221	0xbedbbb95	-0.4291655
222	0x3d7a7e8d	0.061155844
223	0x3d631ee1	0.05544937
224	0x3e883492	0.26602608
225	0xbd86fa58	-0.06590718
226	0xbe2b1a49	-0.16709246
227	0xbe090fd6	-0.13384947
228	0xbe636111	-0.22204997
229	0x3d637d9c	0.055539712
230	0x3de921cf	0.113834016
231	0x3e956a4d	0.29182664
232	0xbf121a63	-0.5707151
233	0xbd33d057	-0.04389986
234	0xbd5c4c05	-0.053783435
235	0xbe4e6db6	-0.20159039
236	0x3dc8bb55	0.09801356
237	0x3d04e08f	0.03244072
238	0x3ddf633d	0.109076
239	0x3e01c49d	0.12672658
240	0xbeb55eda	-0.35423928
241	0x3e15353f	0.14571093
242	0xbe1f43cd	-0.15553208
243	0x3e5b4282	0.2141209
244	0x3d165a4c	0.036707208
245	0x3e4e5bfc	0.20152277
246	0x3eb9e6af	0.3630881
247	0xbc6c83fc	-0.014435764
248	0x3e156ff9	0.14593495
249	0x3e6ab6b0	0.22921252
250	0x3e4a9da9	0.19786705
251	0xbda824d0	-0.082101464
252	0xbe4309be	-0.19046685
253	0xbe40a3f8	-0.18812549
254	0x3d13868b	0.036016982
255	0x3ddef5d7	0.10886734

network_body.linear_encoder.seq_layers.4.bias f4 [128]
0	0xbdbda81d	-0.09260581
1	0xbde2e53b	-0.110788785
2	0x3dba780f	0.091049306
3	0xbdbe905e	-0.093048796
4	0xbda6c15e	-0.081423506
5	0xbcf124b3	-0.029436445
6	0xbd885a9e	-0.06657909
7	0x3d809c89	0.06279857
8	0x3e4bcf54	0.19903308
9	0x3d7cd0f2	0.061722703
10	0xbc3f529d	-0.011677411
11	0xbdc2055a	-0.09473677
12	0xbd4d8b87	-0.05018189
13	0xbd839c82	-0.06426336
14	0xbbb4ac4d	-0.005513704
15	0xbe101240	-0.14069462
16	0xbe0d0b62	-0.13773873
17	0xbcff7f40	-0.031188607
18	0xbdb03490	-0.086037755
19	0xbc55b325	-0.0130432
20	0xbd4d7aa9	-0.050165806
21	0x3a34bc00	0.0006894469
22	0xbd859db2	-0.065242186
23	0x3d63141f	0.05543911
24	0xbde76c03	-0.112998985
25	0xbd3996ef	-0.045309957
26	0xbe06927b	-0.13141815
27	0xbdbbb7d1	-0.091659196
28	0x3dd50747	0.10401779
29	0xbd9d48a3	-0.0767987
30	0xbd942d6e	-0.072352275
31	0xbde3f1cc	-0.111301035
32	0xbe353d68	-0.17699206
33	0xbd74da38	-0.059778422
34	0xbe3c0c05	-0.1836396
35	0xbdb653c3	-0.08902695
36	0xbd1fa2e7	-0.038973715
37	0xbe495a01	-0.1966324
38	0x3bd78066	0.0065765856
39	0xbccb1589	-0.024790542
40	0xbd8c67ca	-0.06855734
41	0xbdf2135f	-0.11820101
42	0xbdc58b66	-0.09645729
43	0x3d31875c	0.04334198
44	0xbddc0ef6	-0.10745041
45	0xbdec60b5	-0.11541883
46	0x3d3fc814	0.04682167
47	0x3d8c3ae4	0.0684717
48	0xbe13c70f	-0.14431404
49	0x3ca0154c	0.019541405
50	0xbe2f87e0	-0.17141676
51	0xbd2cf046	-0.04222133
52	0xbd82f0a1	-0.063935526
53	0xbc634532	-0.013871478
54	0xbd8d800e	-0.0690919
55	0xbdea28f8	-0.114335954
56	0xbd69e0ad	-0.057099033
57	0xbd2bb210	-0.04191786
58	0xbddcd812	-0.107834
59	0xbcce3108	-0.025169864
60	0xbe0741ae	-0.13208649
61	0x3b903314	0.0044006202
62	0x3be4ec6c	0.0069861915
63	0xbd76a1ce	-0.060212903
64	0xbe3b1a92	-0.18271855
65	0xbd4817df	-0.04885089
66	0xbda38f2f	-0.079862945
67	0xbdf853a7	-0.121253304
68	0x3def9e96	0.1170017
69	0xbdac2dbb	-0.0840716
70	0xbe0d0a7d	-0.13773532
71	0xbddf924c	-0.10916576
72	0xbe4347f4	-0.19070417
73	0xbddd15db	-0.10795184
74	0xbe102da6	-0.14079913
75	0xbd36a474	-0.04459043
76	0xbd7e3760	-0.06206453
77	0xbd0fc8be	-0.035103552
78	0xbc2c43ea	-0.010514239
79	0x3cd7dc4f	0.026350169
80	0xbda31776	-0.07963459
81	0xbda3ebf8	-0.08003992
82	0x3d819121	0.06326509
83	0xbe03cd6e	-0.12871334
84	0x3da4ad1d	0.08040831
85	0xbda2a191	-0.079409726
86	0xbca1add4	-0.019736208
87	0xbdca134f	-0.09866964
88	0xbd3afd51	-0.045651738
89	0xbe0ff675	-0.1405886
90	0x3de291ae	0.110629424
91	0xbd831222	-0.06399943
92	0xbd9e38e6	-0.07725696
93	0xbe1d1bcb	-0.15342633
94	0xbd83e729	-0.06440575
95	0xbd9a09c6	-0.075213954
96	0xbde49e09	-0.11162955
97	0xbda4cab2	-0.080464736
98	0xbdc84d72	-0.097803965
99	0xbc4f9ddd	-0.012671915
100	0xbe2ba6d2	-0.16762856
101	0x3c85cf81	0.016334297
102	0xbd7a25e0	-0.061071277
103	0xba6ca379	-0.0009027045
104	0xbda675ad	-0.081279136
105	0xbe070297	-0.13184582
106	0xbdc4c6c8	-0.09608227
107	0xbe4e9236	-0.20172963
108	0x3d09f523	0.033681046
109	0xbda67ce6	-0.08129291
110	0xbe339a9e	-0.1753945
111	0xbe1cd893	-0.15316992
112	0xbe22491e	-0.15848204
113	0xbe325077	-0.17413507
114	0xbca4cc07	-0.02011682
115	0xbdbd25d0	-0.09235728
116	0xbd6b256b	-0.05740873
117	0xbdee85b2	-0.11646594
118	0xbdeacd57	-0.11464947
119	0xbe211214	-0.15729553
120	0x3e064c42	0.13115028
121	0xbd240dc9	-0.04005221
122	0xbce9eb7b	-0.028554669
123	0x3d776089	0.060394797
124	0x3c8c0734	0.017093278
125	0xbca351f2	-0.019936536
126	0xbd65f5a7	-0.056142475
127	0xbd731d24	-0.059353963

network_body.linear_encoder.seq_layers.4.weight f4 [128, 128]
0	0xbd90b4da	-0.07065745
1	0xbc2746aa	-0.010209719
2	0x3dacb488	0.08432871
3	0xbd847242	-0.064671054
4	0xbe8484e3	-0.25882635
5	0xbe6ec338	-0.23316658
6	0x3dea4136	0.11438219
7	0xbdd46698	-0.10371131
8	0x3d6b4980	0.057443142
9	0xbd6b8432	-0.05749912
10	0x3d8d1cb1	0.06890238
11	0xbe9e7e09	-0.30955532
12	0x3dae4aa2	0.08510329
13	0x3d98d540	0.07462549
14	0xbd1b546e	-0.037922315
15	0xbd064cc5	-0.032788057
16	0x3971550c	0.00023015233
17	0x3e36275c	0.17788452
18	0x3ba59930	0.0050536618
19	0x3d3e1aef	0.046412405
20	0xbe6bdec6	-0.230342
21	0xbd09b295	-0.033617575
22	0xbcd915d3	-0.026499664
23	0x3da73135	0.08163682
24	0xbe55deba	-0.20885745
25	0x3c79c20e	0.01524402
26	0xbd963c44	-0.073357135
27	0x3d5a0ce5	0.053234953
28	0x3c94e1a4	0.018174
29	0xbda57921	-0.08079744
30	0xbeb123e6	-0.345977
31	0xbe1c77aa	-0.15280023
32	0xba046548	-0.00050504925
33	0xbc6a9e96	-0.014320036
34	0xbe0e9e26	-0.13927516
35	0xbe82a214	-0.2551428
36	0xbd9a5d23	-0.07537296
37	0x3d60033b	0.05469058
38	0xbb15f085	-0.0022878957
39	0x3def8dbc	0.116969556
40	0x3eb1efa7	0.34753153
41	0xbdcc0efb	-0.09963795
42	0xbe69f2a3	-0.22846465
43	0x3db5be4f	0.08874189
44	0xbdec3495	-0.11533467
45	0x3d063314	0.032763556
46	0xbe4ec6b6	-0.2019299
47	0xbdd7ea4b	-0.10542735
48	0xbd9ad1ac	-0.07559523
49	0xbe97680a	-0.29571563
50	0x3d1bc8e2	0.038033374
51	0x3d57b3c5	0.052661676
52	0x3e84ad00	0.2591324
53	0x3d772829	0.060341034
54	0xbcf07fb6	-0.029357772
55	0xbe957a6e	-0.2919497
56	0x3c84f9cf	0.0162324
57	0xbdb4a7f6	-0.088210985
58	0xbe59a334	-0.21253663
59	0x3dffa7e0	0.124831915
60	0x3d26283b	0.04056571
61	0x3df7c93e	0.12098931
62	0x3e54f755	0.20797475
63	0xbe0ee113	-0.13953047
64	0x3e265949	0.16244997
65	0xbd3e797d	-0.04650258
66	0xbd506ce5	-0.0508851
67	0xbda2249a	-0.079171374
68	0xbe86495b	-0.2622784
69	0xbde014ac	-0.10941443
70	0xbd990768	-0.07472116
71	0x3c5c7fa5	0.013458167
72	0x3d2d33af	0.042285617
73	0xbe9bbb39	-0.30416277
74	0xbb796983	-0.0038057275
75	0xbd834992	-0.06410517
76	0x3d93cefb	0.07217213
77	0xbd99cf2c	-0.07510218
78	0xbe4fa74c	-0.20278662
79	0xbe1222ef	-0.14271139
80	0x3cc47e31	0.023985954
81	0xbdc4ef55	-0.096159615
82	0xbe343e37	-0.17601858
83	0xbd3048f9	-0.043038342
84	0x3b4d6b71	0.0031344558
85	0xbdefda9f	-0.117116205
86	0xbe218dd6	-0.15776762
87	0xbe4627c7	-0.19351111
88	0xbcfa2f0a	-0.030540008
89	0xbd6c01ab	-0.05761878
90	0x3c9b2717	0.018939538
91	0xbe419d30	-0.18907619
92	0xbe59b9b7	-0.21262251
93	0x3dddc23e	0.108280644
94	0xbdf6b747	-0.12046676
95	0xbd5d7c38	-0.054073542
96	0xbdfeb620	-0.12437081
97	0x3e2dd33f	0.16975115
98	0xbdb59481	-0.088662155
99	0xbda82b36	-0.08211367
100	0xbe505202	-0.20343783
101	0xbda25e14	-0.079281
102	0xbd701892	-0.058617182
103	0xbcc9557f	-0.0245769
104	0xbe489ccb	-0.19591062
105	0xba98803d	-0.0011634898
106	0x3e5564ad	0.20839186
107	0x3d6da7cb	0.058021348
108	0xbd5a2a40	-0.05326295
109	0xbccf12ac	-0.025277458
110	0xbd84802c	-0.06469759
111	0xbe92b9ba	-0.28657323
112	0x3d99a04b	0.075012766
113	0xbd855a18	-0.06511325
114	0xbd0c9b6f	-0.03432792
115	0xbd264067	-0.040588763
116	0x3d3e3ad3	0.046442818
117	0x3d6aa514	0.057286337
118	0x3cae28d0	0.021259695
119	0xbb328071	-0.0027237202
120	0x3c7eb8b5	0.015546967
121	0xbe15a024	-0.1461187
122	0x3bf73775	0.007544453
123	0xbc89a2ee	-0.016801324
124	0xbde03902	-0.109483734
125	0x3def4f0a	0.116849974
126	0x3e093328	0.13398421
127	0x3de4de7a	0.111752465
128	0x3b490560	0.003067337
129	0xbe91d672	-0.2848392
130	0xbd1e5f84	-0.03866531
131	0x3dd1e9ce	0.10249673
132	0x3ca15254	0.019692577
133	0xbe2853f5	-0.16438277
134	0xbd9061dc	-0.07049915
135	0xbdaa4b8f	-0.08315193
136	0x3e078095	0.13232644
137	0xbd5c8b3b	-0.053843718
138	0xbdc14859	-0.09437627
139	0xbd88ce4f	-0.06679975
140	0xbdbacea8	-0.09121448
141	0xbd74c9d9	-0.05976281
142	0xbd87f90b	-0.06639298
143	0x3bfc895c	0.007706804
144	0x3e2a5611	0.16634394
145	0xbe8d7df0	-0.27635145
146	0xbe8a9858	-0.27069354
147	0x3e29c785	0.16580017
148	0x3cd8b184	0.026451834
149	0xbc97dae8	-0.018537
150	0x3ce0c2bb	0.027436605
151	0xbe95b794	-0.29241621
152	0xbceee9a2	-0.02916414
153	0xbdbd8d21	-0.09255434
154	0xbdcd62c0	-0.10028601
155	0x3db2a09e	0.087220415
156	0x3e6d154d	0.23152657
157	0xbc87bd18	-0.01656966
158	0xbe448f8a	-0.19195381
159	0x3e941264	0.2892028
160	0xbdf57052	-0.11984314
161	0xbd8ae2dd	-0.06781552
162	0xbeaccfb3	-0.33752212
163	0xbeccb3d5	-0.3998095
164	0x3e7a5eea	0.2445027
165	0x3dacb86e	0.08433615
166	0x3e1852c6	0.14875326
167	0xbefd9500	-0.4952774
168	0x3e57f4b2	0.21089438
169	0x3e5f01f8	0.21778095
170	0x3c9fb5ad	0.01949581
171	0x3e3686bf	0.17824839
172	0xbd41046a	-0.04712335
173	0x3e5dae16	0.2164844
174	0xbe35df8d	-0.17761059
175	0x3e022047	0.12707625
176	0xbdc9a4a4	-0.09845856
177	0x3d337517	0.043812837
178	0x3db6388c	0.08897504
179	0x3dd46413	0.1037065
180	0x3e38428c	0.17994136
181	0xbe10170d	-0.14071293
182	0xbea91727	-0.33025476
183	0x3ce7bfdf	0.028289733
184	0xbe42375c	-0.1896643
185	0xbdaf320f	-0.0855447
186	0x3d7b429c	0.06134282
187	0x3d372c26	0.044719838
188	0xbd0d7747	-0.03453758
189	0x3dea4376	0.114386484
190	0x3dd1e4a8	0.10248691
191	0xbe215d13	-0.15758161
192	0x3db5d19f	0.08877873
193	0xbe09de1c	-0.13463634
194	0xbe07e4c0	-0.13270855
195	0xbd5b663a	-0.053564288
196	0xbe40cc35	-0.18827899
197	0xbe8a4a7f	-0.2700996
198	0xbe3d13e7	-0.18464623
199	0x3e7dd127	0.24786817
200	0xbab50e51	-0.0013813471
201	0x3e3c6a22	0.18399861
202	0xbde7935d	-0.11307404
203	0x3cd6347b	0.026148072
204	0xbda277b9	-0.079329915
205	0x3d841a0e	0.06450282
206	0xbd65483f	-0.055977102
207	0xbd2c3ec1	-0.042052034
208	0x3da93f1b	0.082639895
209	0x3e5d5b10	0.21616769
210	0xbe191e50	-0.1495297
211	0xbdf9d041	-0.121979244
212	0x3ede74c3	0.43448457
213	0xbe2c3821	-0.16818286
214	0xbe8e3738	-0.27776504
215	0xbe0233b7	-0.1271504
216	0xbdb0c465	-0.08631209
217	0x3cf25cb5	0.029585222
218	0xbe6490f1	-0.22320916
219	0x3d865476	0.065590784
220	0xbdd27a44	-0.102772266
221	0xbdaa0f18	-0.0830366
222	0xbeaf6fa9	-0.34264877
223	0xbde418a0	-0.11137509
224	0xbd820edc	-0.063504905
225	0xbd64c24d	-0.055849362
226	0xbe2e8aff	-0.1704521
227	0x3e1885e1	0.14894821
228	0x3d4b088e	0.049568705
229	0xbd4fd9bb	-0.050744753
230	0xbda1e7ce	-0.07905541
231	0xbeb0bb85	-0.34518066
232	0xbe4d78c9	-0.20065607
233	0xbe332e3d	-0.17498107
234	0x3ddd17bd	0.10795543
235	0xbe2a4cb0	-0.16630816
236	0x3da691cf	0.081332795
237	0xbd7537a2	-0.05986751
238	0x3b04c45a	0.0020258636
239	0x3daa2fc0	0.08309889
240	0xbe9dcd0a	-0.30820495
241	0x3e6193eb	0.22029082
242	0xbcb0ef48	-0.021598473
243	0xbe71c78f	-0.23611282
244	0xbdc9cdb8	-0.09853691
245	0x3e156321	0.14588596
246	0xbdecad91	-0.11556543
247	0xbe53409b	-0.20630114
248	0xbe03a2ec	-0.12855119
249	0xbde5098f	-0.11183464
250	0x3e2adcf9	0.16685857
251	0x3c402777	0.011728159
252	0xbe85bdc3	-0.2612134
253	0x3dd0abf9	0.10189051
254	0xbbae8c89	-0.0053268117
255	0x3e17c4da	0.14821187

network_body.vector_processors.0.normalizer.running_mean f4 [107]
0	0x3f594dc3	0.8488428
1	0x3f6a698e	0.91567314
2	0x3f5950e4	0.84889054
3	0x3f6a63bc	0.9155843
4	0x3f5bcb82	0.85857403
5	0x3f6b949f	0.9202365
6	0x3f5a2a27	0.8522057
7	0x3f6ad6a1	0.9173375
8	0x3f5df676	0.86704195
9	0x3f6cab8c	0.9244926
10	0x3f5b5b39	0.8568607
11	0x3f6b9090	0.9201746
12	0x3f5e086b	0.86731595
13	0x3f6ccb32	0.9249755
14	0x3f5b631e	0.85698116
15	0x3f6bc560	0.92098045
16	0x3f5e3151	0.86794
17	0x3f6cd373	0.92510146
18	0x3f5b90e6	0.8576797
19	0x3f6bf83d	0.92175657
20	0x3f5ec616	0.87021005
21	0x3f6d1b41	0.9261971
22	0x3f5b3d3c	0.8564031
23	0x3f6bf626	0.9217247
24	0x3f604a24	0.8761313
25	0x3f6e069d	0.9297884
26	0x3f5b0ca3	0.8556616
27	0x3f6bd51f	0.9212207
28	0x3f61a089	0.8813558
29	0x3f6ec39b	0.9326722
30	0x3f5b2f0c	0.8561866
31	0x3f6c0318	0.9219222
32	0x3f6143cb	0.8799407
33	0x3f6eb103	0.9323885
34	0x3f5def5c	0.8669336
35	0x3f6d5749	0.9271131
36	0x3f6260a4	0.8842871
37	0x3f6f14e5	0.9339126
38	0x3f5f1665	0.87143546
39	0x3f6dbf95	0.92870456
40	0x3f621d82	0.88326275
41	0x3f6f03a3	0.93364924
42	0x3f5e28cb	0.86780995
43	0x3f6d2a8f	0.92643064
44	0x3f62b4cc	0.88557124
45	0x3f6f3f6b	0.93456143
46	0x3f607491	0.87677866
47	0x3f6e35f0	0.9305105
48	0x3f625203	0.8840639
49	0x3f6f18fd	0.93397504
50	0x3f631f30	0.88719463
51	0x3f6f6d1a	0.9352585
52	0x3f615da5	0.88033515
53	0x3f6ed1a0	0.9328861
54	0x3f6329b6	0.8873552
55	0x3f6fa149	0.93605477
56	0x3f6326c3	0.8873102
57	0x3f6f9d90	0.93599796
58	0x3f62abe0	0.8854351
59	0x3f6f825d	0.93558294
60	0x3f63a98a	0.8893057
61	0x3f6ff537	0.93733543
62	0x3f6293d2	0.88506806
63	0x3f6f9bad	0.9359692
64	0x3f6293d0	0.88506794
65	0x3f6f9bac	0.9359691
66	0x3d0459b1	0.0323121
67	0x3efd667f	0.4949226
68	0xbe8050f7	-0.2506177
69	0xbebd4cd6	-0.36972684
70	0x3e84221f	0.25807282
71	0xbe84fd7e	-0.2597465
72	0x3dff522b	0.12466844
73	0x3b2e3e8a	0.002658757
74	0xbebdc421	-0.37063697
75	0x00000000	0.0
76	0x00000000	0.0
77	0x00000000	0.0
78	0x00000000	0.0
79	0x00000000	0.0
80	0x00000000	0.0
81	0x00000000	0.0
82	0x00000000	0.0
83	0x00000000	0.0
84	0x00000000	0.0
85	0x00000000	0.0
86	0x00000000	0.0
87	0x00000000	0.0
88	0x00000000	0.0
89	0x00000000	0.0
90	0x00000000	0.0
91	0x00000000	0.0
92	0x00000000	0.0
93	0x00000000	0.0
94	0x00000000	0.0
95	0x00000000	0.0
96	0x00000000	0.0
97	0x00000000	0.0
98	0x00000000	0.0
99	0x00000000	0.0
100	0x00000000	0.0
101	0x00000000	0.0
102	0x00000000	0.0
103	0x00000000	0.0
104	0x00000000	0.0
105	0x00000000	0.0
106	0x00000000	0.0
