Assets/Scripts/2.2 SensorBall&TooManyCats/TooManyCats-20M.onnx (onnx, 192106 bytes, 11 tensors)

69 f4 [107]
0.35715368 0.22467971 0.36112905 0.22679353 0.34925875 0.22088622 0.36041024 0.22704688
0.3431681 0.2176633 0.35798785 0.22597775 0.3415932 0.21624328 0.35776728 0.22490454
0.3393095 0.21482629 0.35562086 0.22270286 0.33603865 0.21250537 0.35499862 0.22046272
0.32951662 0.20833664 0.35404637 0.21876684 0.32528177 0.2057403 0.35265297 0.21686007
0.3262137 0.20549992 0.34547248 0.21323402 0.32027465 0.20360446 0.3412158 0.21157047
0.31934556 0.20254138 0.34163085 0.21195276 0.31579816 0.20099963 0.33568192 0.20962422
0.31679305 0.20114096 0.32930148 0.20711975 0.32144824 0.20233187 0.32610145 0.2049962
0.3190091 0.2017836 0.32590207 0.2042609 0.32224533 0.20268203 0.32735845 0.2042506
0.3273585 0.20425062 4.21259 0.050180722 4.1346154 4.4943724 0.043817412 4.4706182
3.8577583 0.05657748 3.870625 0.00022360717 0.00022360717 0.00022360717 0.00022360717 0.00022360717
0.00022360717 0.00022360717 0.00022360717 0.00022360717 0.00022360717 0.00022360717 0.00022360717 0.00022360717
0.00022360717 0.00022360717 0.00022360717 0.00022360717 0.00022360717 0.00022360717 0.00022360717 0.00022360717
0.00022360717 0.00022360717 0.00022360717 0.00022360717 0.00022360717 0.00022360717 0.00022360717 0.00022360717
0.00022360717 0.00022360717 0.00022360717
00000000: d9dc b63e 7012 663e e8e5 b83e 903c 683e
00000010: 0bd2 b23e ff2f 623e b187 b83e fa7e 683e
00000020: bbb3 af3e 21e3 5e3e 2f4a b73e b666 673e
00000030: 4ee5 ae3e e16e 5d3e 462d b73e 604d 663e
00000040: fab9 ad3e 6cfb 5b3e f013 b63e 380c 643e
00000050: 420d ac3e 029b 593e 61c2 b53e fbc0 613e
00000060: 67b6 a83e 3356 553e 9145 b53e 6a04 603e
00000070: 558b a63e 96ad 523e ee8e b43e 9110 5e3e
00000080: 7b05 a73e 926e 523e c5e1 b03e 055a 5a3e
00000090: 0afb a33e b07d 503e d6b3 ae3e eea5 583e
000000a0: 4381 a33e 0267 4f3e 3dea ae3e 250a 593e
000000b0: 4cb0 a13e d9d2 4d3e 80de ab3e bba7 563e
000000c0: b332 a23e e5f7 4d3e 349a a83e 3317 543e
000000d0: dd94 a43e 1630 4f3e c5f6 a63e 86ea 513e
000000e0: 2955 a33e 5ca0 4e3e a3dc a63e c529 513e
000000f0: 57fd a43e e18b 4f3e 879b a73e 1227 513e
00000100: 899b a73e 1327 513e 8acd 8640 4d8a 4d3d
00000110: c54e 8440 e6d1 8f40 e379 333d 4e0f 8f40
00000120: 83e5 7640 cabd 673d 52b8 7740 1878 6a39
00000130: 1878 6a39 1878 6a39 1878 6a39 1878 6a39
00000140: 1878 6a39 1878 6a39 1878 6a39 1878 6a39
00000150: 1878 6a39 1878 6a39 1878 6a39 1878 6a39
00000160: 1878 6a39 1878 6a39 1878 6a39 1878 6a39
00000170: 1878 6a39 1878 6a39 1878 6a39 1878 6a39
00000180: 1878 6a39 1878 6a39 1878 6a39 1878 6a39
00000190: 1878 6a39 1878 6a39 1878 6a39 1878 6a39
000001a0: 1878 6a39 1878 6a39 1878 6a39

action_model._continuous_distribution.log_sigma f4 [1, 2]
-0.31633046 -0.29462123
00000000: 11f6 a1be 98d8 96be

action_model._continuous_distribution.mu.bias f4 [2]
-0.1120119 -0.012487121
00000000: 7f66 e5bd c896 4cbc

action_model._continuous_distribution.mu.weight f4 [2, 128]
0.057608735 0.17208128 -0.18812355 0.13051714 0.2940933 -0.032109845 -0.011922371 -0.08516103
0.23516047 -0.15644847 -0.21572652 0.1671212 -0.015054205 -0.043051697 0.10646584 -0.01496801
-0.02913359 -0.04594972 0.061794013 -0.054557454 0.014180933 0.09193766 0.34397915 0.17754167
-0.020085579 -0.21732515 0.14440528 -0.12917572 -0.0501351 0.12220467 0.03899808 0.17076305
0.057125177 0.026960604 -0.17343616 0.023533966 -0.077462405 -0.094123684 0.12947087 0.0740986
-0.06311843 0.21242417 0.020828277 -0.031232424 -0.06863753 0.06455515 0.06827027 0.01570659
0.10276702 -0.15220743 -0.01688203 -0.02011866 -0.091554835 -0.047606274 0.15333384 0.13656822
-0.19175646 -0.13459665 0.0007022957 0.1256706 -0.11269836 0.022299334 -0.12872854 0.15544988
0.10290337 -0.11631434 -0.11984792 -0.09288918 -0.065662734 0.10924765 -0.07993967 -0.01778644
0.0010514456 0.07013937 0.09221074 0.032324895 0.0573429 -0.011677933 0.16643026 -0.061043512
-0.09759498 0.16296867 0.111481644 0.075514294 -0.16297887 -0.21273851 -0.081454694 -0.18558376
0.21408911 0.11389971 0.043347724 0.14967202 0.022805873 0.15924314 -0.08065998 -0.13593994
-0.09056547 0.0063561047 -0.21275406 0.12372098 0.04752428 -0.09910746 0.1593919 0.05135566
0.17311084 0.12508689 -0.21419634 0.1924309 -0.12296631 -0.128544 0.013147865 -0.16529863
0.19063222 0.08148034 0.014374361 -0.13633464 0.19088058 -0.14531699 0.058694024 0.3166836
0.15278436 0.01642623 -0.14752829 0.1872812 -0.21696474 -0.09973408 -0.1542949 0.19275446
-0.2609399 -0.054064177 -0.08122922 -0.09113458 -0.074085146 -0.15847819 -0.11502951 -0.1736376
-0.085286655 -0.12544748 -0.0912174 0.11816428 -0.13768476 -0.11403744 -0.19236688 0.24501981
0.10022094 -0.15911087 0.16369621 0.021732409 0.09814816 -0.18298332 -0.17015782 0.07210477
-0.26872304 -0.023931338 -0.12531225 -0.035593957 -0.14948402 -0.14874202 0.059571646 -0.0782453
-0.1670428 0.07570583 0.026152179 -0.12514949 0.0091262935 -0.017728413 0.17271852 -0.06315539
0.26644525 0.009646919 0.20968126 -0.09830856 -0.06639136 0.01260717 0.04010702 -0.12502308
-0.1568144 0.03304975 0.16133425 0.13772243 0.1244786 -0.07111574 -0.027503187 -0.17951974
-0.1772135 -0.096634135 -0.1071419 0.0074800896 0.18490273 -0.13737006 -0.026334524 0.03791841
0.07617057 0.034906983 -0.15176049 -0.10406743 0.21502306 -0.010443009 0.13778143 0.1522178
-0.1617803 0.26160946 0.15818381 0.14296518 -0.24660791 0.24601051 0.12209315 -0.15891849
-0.024444005 -0.08583257 -0.01892471 -0.07895315 -0.14007035 0.06359088 0.24087445 -0.0030446067
0.011310961 -0.007288418 -0.19081436 -0.09833222 -0.0829359 -0.20631514 -0.093019366 -0.33313155
-0.11786132 -0.18999775 0.08622996 0.03660749 -0.19705628 -0.3435171 -0.110408366 0.09886952
-0.025480228 -0.03966526 0.027222974 -0.0049790484 -0.044396646 -0.19524197 0.116098486 0.17704189
-0.019646717 0.14821845 0.13468927 0.09605172 0.047127243 -0.16275558 -0.047091283 0.1648017
-0.19578797 -0.25060862 0.04283094 -0.051865146 0.028035535 0.12821966 -0.00814303 -0.13389662
00000000: 23f7 6b3d 1336 303e 76a3 40be 49a6 053e
00000010: 6693 963e 9d85 03bd 0c56 43bc e868 aebd
00000020: e8cd 703e 0734 20be 6ae7 5cbe d221 2b3e
00000030: eaa5 76bc fa56 30bd c30a da3d 623c 75bc
00000040: 91a9 eebc c635 3cbd b81b 7d3d a377 5fbd
00000050: 2557 683c d049 bc3d 091e b03e 7ccd 353e
00000060: 838a a4bc 7c8a 5ebe fade 133e a446 04be
00000070: 765a 4dbd 7146 fa3d 73bc 1f3d 82dc 2e3e
00000080: 17fc 693d 7cdc dc3c 4099 31be 4eca c03c
00000090: 9ca4 9ebd ebc3 c0bd 0394 043e 02c1 973d
000000a0: 3c44 81bd b985 593e 10a0 aa3c 24db ffbc
000000b0: d591 8cbd 7e35 843d 49d1 8b3d 1bab 803c
000000c0: 8477 d23d 44dc 1bbe 2f4c 8abc e3cf a4bc
000000d0: 1a81 bbbd ccfe 42bd 8c03 1d3e 8ad8 0b3e
000000e0: ce5b 44be b4d3 09be 441a 383a cbaf 003e
000000f0: 66ce e6bd 18ad b63c 6ad1 03be 412e 1f3e
00000100: 01bf d23d 3636 eebd d472 f5bd af3c bebd
00000110: 2f7a 86bd 3bbd df3d 69b7 a3bd deb4 91bc
00000120: a9d0 893a 3ba5 8f3d fcd8 bc3d 1c67 043d
00000130: 64e0 6a3d cd54 3fbc b26c 2a3e c308 7abd
00000140: e0df c7bd 42e1 263e 7d50 e43d 3da7 9a3d
00000150: efe3 26be 20d8 59be b8d1 a6bd ab09 3ebe
00000160: 2d3a 5b3e 4044 e93d 628d 313d 9f43 193e
00000170: 62d3 ba3c a210 233e 0f31 a5bd d733 0bbe
00000180: 647a b9bd df46 d03b 33dc 59be 6d61 fd3d
00000190: d2a8 423d daf8 cabd a137 233e 505a 523d
000001a0: f843 313e c716 003e 4956 5bbe 9b0c 453e
000001b0: c3d5 fbbd 0aa1 03be 256a 573c 0b44 29be
000001c0: 1835 433e 2adf a63d 7182 6b3c 4f9b 0bbe
000001d0: 3376 433e facd 14be 2569 703d 5a24 a23e
000001e0: 8173 1c3e 4d90 863c a811 17be a5c6 3f3e
000001f0: 012c 5ebe 6241 ccbd 7bff 1dbe 6d61 453e
00000200: ea99 85be 6672 5dbd 815b a6bd c4a4 babd
00000210: f4b9 97bd 1b48 22be 9794 ebbd 0ece 31be
00000220: c5aa aebd 4e75 00be 30d0 babd 1d00 f23d
00000230: 3cfd 0cbe 768c e9bd d3fb 44be 79e6 7a3e
00000240: a340 cd3d f6ed 22be fb9f 273e 2a08 b23c
00000250: e701 c93d fb5f 3bbe da3d 2ebe aaab 933d
00000260: 1196 89be a70b c4bc db51 00be f8ca 11bd
00000270: 5712 19be d44f 18be 6601 743d 123f a0bd
00000280: 450d 2bbe a80b 9b3d 183d d63c 3027 00be
00000290: 7386 153c 2d3b 91bc 20dd 303e 9d57 81bd
000002a0: 836b 883e 1c0e 1e3c afb6 563e 0056 c9bd
000002b0: 31f8 87bd 4e8e 4e3c 4247 243d 0d06 00be
000002c0: f493 20be 2d5f 073d ce34 253e 1c07 0d3e
000002d0: a3ee fe3d 21a5 91bd 5d4e e1bc 06d4 37be
000002e0: 7577 35be 1ee8 c5bd 366d dbbd 8a1b f53b
000002f0: 2457 3d3e bdaa 0cbe 80bb d7bc 5650 1b3d
00000300: 51ff 9b3d a0fa 0e3d 1a67 1bbe 4e21 d5bd
00000310: 012f 5c3e 2819 2bbc 9316 0d3e fcde 1b3e
00000320: bca9 25be adf1 853e f0fa 213e 7765 123e
00000330: c986 7cbe 2eea 7b3e f90b fa3d 87bb 22be
00000340: cb3e c8bc fdc8 afbd fe07 9bbc 30b2 a1bd
00000350: 9a6e 0fbe ef3b 823d cba7 763e 0688 47bb
00000360: 9c51 393c aed3 eebb d764 43be 6762 c9bd
00000370: 4cda a9bd 4744 53be f080 bebd 3890 aabe
00000380: 4761 f1bd c58e 42be 5599 b03d bcf1 153d
00000390: 1fc9 49be 79e1 afbe c81d e2bd 1a7c ca3d
000003a0: e9bb d0bc 0a78 22bd b702 df3c 4927 a3bb
000003b0: 42d9 35bd 83ed 47be 0bc5 ed3d 784a 353e
000003c0: 27f2 a0bc 94c6 173e fceb 093e c4b6 c43d
000003d0: 7f08 413d 66a9 26be cae2 40bd c7c1 283e
000003e0: a47c 48be c64f 80be 7f6f 2f3d 8c70 54bd
000003f0: c7aa e53c 044c 033e 586a 05bc 321c 09be

network_body.linear_encoder.seq_layers.0.bias f4 [128]
-0.23694587 -0.52019376 -0.10714541 -0.18255547 0.039002642 -0.36198148 -0.42612344 -0.016470158
-0.1833049 -0.25078598 -0.01623898 -0.1283316 -0.16602814 -0.12050085 0.0058951983 0.06721995
-0.21373372 -0.12065096 -0.19793229 -0.18139897 -0.5191449 0.02493635 -0.13184191 -0.3574101
0.016976438 -0.13294156 -0.39653438 -0.2751951 -0.0914567 -0.07431762 -0.43049678 -0.28889802
-0.018456025 -0.041466944 0.059093215 -0.05504703 -0.29604924 -0.020495974 -0.28508502 -0.29197833
-0.06470159 -0.05156834 0.030347362 -0.06740643 -0.22511765 -0.12262129 -0.33929047 -0.1550377
-0.04401238 -0.08321644 -0.30787954 -0.17008719 0.075670265 -0.18533385 -0.054724008 -0.27795666
-0.1202543 -0.6537563 -0.055335313 -0.6565127 -0.17908616 -0.48078275 -0.13230987 -0.10112915
-0.34192598 -0.31280437 -0.018221699 -0.4791362 -0.08360745 -0.23431748 -0.35622263 0.046146676
-0.38727057 -0.38812622 -0.2097271 -0.21883301 -0.13635491 -0.16120256 -0.1154354 -0.2251128
-0.13706678 -0.17091845 -0.07518676 -0.11004577 -0.062044278 -0.025069138 -0.43323758 -0.10437224
-0.13328 -0.30085078 -0.06265068 -0.16031514 0.015147774 -0.48491374 -0.2966067 -0.4944419
-0.33082035 -0.20759098 -0.16839679 -0.06005157 -0.09967793 0.0032915208 0.007667327 -0.35682023
-0.07606209 -0.2116463 -0.20430367 -0.32838425 -0.0062712394 -0.34428114 -0.43271104 -0.18250658
-0.12392109 -0.088291116 -0.26220533 0.006505008 -0.1780443 0.09585066 -0.10271653 -0.12745552
-0.24586692 -0.15136962 0.13294671 -0.2291336 -0.1690726 -0.28100404 -0.39580277 -0.18778375
00000000: f0a1 72be 6b2b 05bf 0d6f dbbd d2ef 3abe
00000010: 3cc1 1f3d a355 b9be da2c dabe 6dec 86bc
00000020: 48b4 3bbe 0567 80be 9c07 85bc 5c69 03be
00000030: 4803 2abe 26c9 f6bd 822c c13b 9daa 893d
00000040: 03dd 5abe da17 f7bd c3ae 4abe a7c0 39be
00000050: aee6 04bf 5147 cc3c 9101 07be 75fe b6be
00000060: 2c12 8b3c d521 08be 8e06 cbbe 5fe6 8cbe
00000070: a64d bbbd d633 98bd 136a dcbe 71ea 93be
00000080: 1731 97bc 3ed9 29bd ba0b 723d ff78 61bd
00000090: c493 97be 2ce7 a7bc aaf6 91be 2f7e 95be
000000a0: 4482 84bd 5339 53bd 089b f83c 620c 8abd
000000b0: 3e85 66be df20 fbbd 7bb7 adbe 34c2 1ebe
000000c0: 5346 34bd 626d aabd 63a2 9dbe 562b 2ebe
000000d0: 03f9 9a3d 28c8 3dbe 4826 60bd 5650 8ebe
000000e0: e347 f6bd 935c 27bf 48a7 62bd 3711 28bf
000000f0: 5d62 37be 2829 f6be 3d7c 07be cd1c cfbd
00000100: ec10 afbe e527 a0be ac45 95bc 5751 f5be
00000110: 623a abbd ecf0 6fbe d062 b6be 4c04 3d3d
00000120: 5448 c6be 7bb8 c6be b3c2 56be c315 60be
00000130: 9fa0 0bbe 4912 25be 6569 ecbd f883 66be
00000140: 3c5b 0cbe 3f05 2fbe 84fb 99bd ad5f e1bd
00000150: 2422 7ebd cb5d cdbc 51d1 ddbe 1dc1 d5bd
00000160: 8d7a 08be 1d09 9abe 004f 80bd a729 24be
00000170: 5e2e 783c 9d46 f8be d5dc 97be 7d27 fdbe
00000180: 4961 a9be bb92 54be 3570 2cbe a3f8 75bd
00000190: f123 ccbd 8eb6 573b 333e fb3b 24b1 b6be
000001a0: 71c6 9bbd cfb9 58be fb34 51be fb21 a8be
000001b0: f87e cdbb 9e45 b0be 4d8c ddbe 01e3 3abe
000001c0: 57ca fdbd f9d1 b4bd c73f 86be f627 d53b
000001d0: 3f51 36be 5a4d c43d 0b5d d2bd b383 02be
000001e0: 8ac4 7bbe a300 1bbe 2f23 083e 00a2 6abe
000001f0: 5e21 2dbe c3df 8fbe a9a6 cabe 624a 40be

network_body.linear_encoder.seq_layers.0.weight f4 [128, 107]
0.0133736 -0.0072358497 0.21163537 -0.15505292 -0.09599937 0.022232506 -0.034045774 -0.011942573
-0.25760993 -0.26046023 -0.06926753 -0.2535034 0.11179478 0.05087974 -0.027789274 -0.09554049
0.33175138 0.1692015 -0.029893236 0.018102454 -0.27350485 0.21316186 0.24797048 0.26727873
0.101039805 -0.0054117413 -0.12308455 -0.025414504 0.19072105 0.3121169 0.12687863 0.20782487
0.17274041 0.03961998 0.025607808 -0.0991011 -0.41797787 0.052415393 -0.11609438 0.016597973
-0.07688027 0.13463683 0.30590785 -0.056208905 -0.038314447 0.011368545 0.12706949 0.082918234
-0.1508823 -0.11990077 -0.048498645 0.011893132 -0.4860221 -0.21607864 -0.20616151 -0.36252514
-0.07330277 0.047658358 0.020510908 -0.089221396 0.015310918 0.10700109 0.35247806 0.38376278
0.31076333 0.22029373 0.026719932 -0.22302869 0.45771086 -0.12573661 -0.046330683 -0.30557284
0.47039932 -0.14143547 0.21882105 -0.010597452 -0.10931094 0.0146045415 -0.063458435 0.006160666
-0.16025852 -0.121969715 0.12160711 0.20666075 -0.14071289 0.074404895 -0.0013063384 -0.12540944
-0.0065522366 0.09189537 0.07277947 -0.048670087 0.14769448 -0.014271404 0.007523121 -0.061521642
0.033858597 0.1671883 0.039460886 -0.16398105 0.041304804 0.15561047 0.06747662 -0.029469114
0.02739573 0.10664846 0.026803441 -0.090924025 -0.07658063 -0.3293105 0.036205005 -0.053435214
-0.04215745 0.025921773 -0.04027826 0.014043279 -0.022577474 0.0010235499 0.15107335 -0.1617268
-0.0805908 0.100563444 -0.2451902 0.19500785 0.0324 0.123707525 -0.10910689 -0.37994024
0.011408047 -0.04625452 -0.21498396 -0.167416 0.03084906 -0.16975364 -0.19094133 -0.15352479
-0.27443612 0.044794183 0.36700606 -0.064113356 -0.1703759 -0.25420064 0.0028797733 0.19625027
0.014995902 0.21086429 0.15781383 -0.30626157 -0.13002248 0.03526093 0.34205228 0.16653879
-0.0171541 -0.17464021 0.07402288 0.14534076 -0.2830024 -0.1889345 -0.072732225 -0.11090945
-0.06641869 0.1307588 0.20061035 0.02871592 -0.1466448 0.22532071 0.18412253 0.12939508
0.10534445 0.11232569 -0.20587105 -0.01476361 -0.07916108 0.66648555 -0.53243303 -0.17114477
-0.8048375 0.0155374985 0.07372977 0.47788796 0.18106766 0.30007604 -0.2520955 0.023402119
-0.099704675 -0.07383562 -0.0675028 -0.09530268 0.019164868 0.0696234 0.0030426062 0.09047768
-0.0033640012 0.06068622 -0.15431802 0.015690776 0.13364609 -0.038165886 -0.010382964 0.00060857274
0.070356645 0.04591231 -0.11348655 -0.1268489 0.0010266759 0.0060343742 -0.11638873 -0.09302712
0.023514373 0.088881426 -0.06647471 -0.14529969 0.12680615 0.058686882 0.13361035 -0.14644024
0.013100728 0.06642165 -0.1716069 -0.12623335 -0.11170972 0.09437716 -0.07922556 0.16705844
0.1261296 0.03715374 0.48292634 0.6403827 -0.06738642 -0.0035863756 0.036953997 -0.14233549
-0.19136627 -0.22237618 -0.013568511 0.18583179 0.14374794 -0.008800354 0.022144007 0.012603402
0.107589066 0.028257215 -0.15520404 0.03779282 -0.047239862 -0.090747364 0.12685025 0.04326072
-0.1511699 -0.04200808 -0.23398092 -0.33899254 0.12159207 -0.16303268 0.16158108 0.09274851
00000000: f21c 5b3c b51a edbb f1b6 583e 31c6 1ebe
00000010: 519b c4bd f220 b63c 9573 0bbd c8aa 43bc
00000020: 73e5 83be 0b5b 85be 23dc 8dbd 33cb 81be
00000030: a9f4 e43d 4667 503d 55a6 e3bc bbaa c3bd
00000040: 51db a93e 2843 2d3e a9e2 f4bc 994b 943c
00000050: d408 8cbe 1a47 5a3e f9eb 7d3e c2d8 883e
00000060: f5ed ce3d fa54 b1bb c113 fcbd 1432 d0bc
00000070: 614c 433e c9cd 9f3e 79ec 013e 0bd0 543e
00000080: dde2 303e 8f48 223d 77c7 d13c 84f5 cabd
00000090: 3201 d6be 86b1 563d e4c2 edbd 79f8 873c
000000a0: 6773 9dbd 3dde 093e f49f 9c3e 4f3b 66bd
000000b0: 9cef 1cbd 2243 3a3c 811e 023e 09d1 a93d
000000c0: e480 1abe 898e f5bd 84a6 46bd 69db 423c
000000d0: e4d7 f8be b843 5dbe 011c 53be e59c b9be
000000e0: c31f 96bd 6935 433d 7e06 a83c b5b9 b6bd
000000f0: a5da 7a3c 6323 db3d 0178 b43e 8e7c c43e
00000100: 5f1c 9f3e ae94 613e c2e3 da3c a261 64be
00000110: 1459 ea3e 19c1 00be 3ec5 3dbd 0b74 9cbe
00000120: 2ed8 f03e 76d4 10be a012 603e efa0 2dbc
00000130: 6ade dfbd e347 6f3c 7ff6 81bd 69df c93b
00000140: cf1a 24be 42cb f9bd 260d f93d e09e 533e
00000150: 0a17 10be 9861 983d 7139 abba 556b 00be
00000160: 25b4 d6bb a433 bc3d 670d 953d 495a 47bd
00000170: 393d 173e 9bd2 69bc 8384 f63b 1efe 7bbd
00000180: 50af 0a3d 6933 2b3e bda1 213d a6ea 27be
00000190: 3a2f 293d 5a58 1f3e 2f31 8a3d 3669 f1bc
000001a0: 036d e03c 826a da3d e492 db3c 6036 babd
000001b0: 4ed6 9cbd 639b a8be b34b 143d e2de 5abd
000001c0: 4aad 2cbd e659 d43c d1fa 24bd c815 663c
000001d0: 65f4 b8bc a328 863a f9b2 1a3e b69b 25be
000001e0: ca0c a5bd 35f4 cd3d 2413 7bbe 23b0 473e
000001f0: ddb5 043d 5f5a fd3d 6f73 dfbd 8787 c2be
00000200: d1e8 3a3c 6175 3dbd c124 5cbe 1a6f 2bbe
00000210: 2bb7 fc3c e6d3 2dbe 2086 43be 9a35 1dbe
00000220: e482 8cbe 1b7a 373d 38e8 bb3e dd4d 83bd
00000230: 0577 2ebe 9626 82be 94ba 3c3b d5f5 483e
00000240: 5fb1 753c cfec 573e f399 213e 51ce 9cbe
00000250: 9d24 05be c46d 103d 7a21 af3e 2589 2a3e
00000260: c186 8cbc e2d4 32be 4f99 973d 35d4 143e
00000270: b1e5 90be 0c78 41be a2f4 94bd 7e24 e3bd
00000280: 8606 88bd a3e5 053e cd6c 4d3e a63d eb3c
00000290: 0e2a 16be 79ba 663e 9e8a 3c3e 2580 043e
000002a0: d5be d73d 030b e63d dccf 52be 12e3 71bc
000002b0: 341f a2bd cc9e 2a3f 884d 08bf 9340 2fbe
000002c0: d509 4ebf fe90 7e3c a2ff 963d bbad f43e
000002d0: cd69 393e 91a3 993e a912 81be cdb5 bf3c
000002e0: f731 ccbd 2137 97bd e83e 8abd 0d2e c3bd
000002f0: a4ff 9c3c b796 8e3d 7666 473b 5d4c b93d
00000300: 9376 5cbb 1d92 783d 8b05 1ebe f189 803c
00000310: 85da 083e d553 1cbd 4f1d 2abc a088 1f3a
00000320: 2517 903d 8c0e 3c3d a36b e8bd aee4 01be
00000330: 8791 863a 00bc c53b 375d eebd 0185 bebd
00000340: 37a1 c03c 7707 b63d e523 88bd 71c9 14be
00000350: 79d9 013e a861 703d 27d1 083e 6ef4 15be
00000360: 70a4 563c 1308 883d b8b9 2fbe 5143 01be
00000370: 11c8 e4bd d048 c13d 0341 a2bd 5e11 2b3e
00000380: 1e28 013e 852e 183d 1f42 f73e 1ff0 233f
00000390: e401 8abd 6609 6bbb 135d 173d 65c0 11be
000003a0: 85f5 43be 95b6 63be 764e 5ebc b04a 3e3e
000003b0: a932 133e 5c2f 10bc 5967 b53c 807e 4e3c
000003c0: a857 dc3d ad7b e73c cfed 1ebe a5cc 1a3d
000003d0: 967e 41bd c1d9 b9bd 08e5 013e 2732 313d
000003e0: 48cc 1abe aa10 2cbd b298 6fbe 6e90 adbe
000003f0: 4305 f93d 0af2 26be 8375 253e eef2 bd3d

network_body.linear_encoder.seq_layers.2.bias f4 [128]
-0.24500628 0.009141522 -0.10203012 -0.05951045 0.035319187 -0.05656439 -0.07398765 -0.04883279
-0.00055865047 -0.03455609 -0.39417621 -0.047055624 -0.02750147 -0.17880939 -0.20918393 -0.20464066
-0.11706236 0.03177847 -0.08759432 -0.10657043 -0.32984 0.020096073 -0.17394087 -0.21211822
-0.11356868 -0.15610087 0.14660318 -0.040316366 -0.06668614 -0.027516654 -0.2288064 -0.15508151
-0.2115466 0.061299574 -0.028181938 -0.102451086 -0.24323615 -0.14147216 -0.11687377 -0.09679784
-0.14001164 -0.20415021 -0.37115207 -0.07482463 -0.036355965 -0.1035588 -0.0035002332 -0.04961473
-0.10580484 -0.1560099 -0.12405628 -0.093301095 -0.27359688 -0.15028702 0.011965486 -0.1376838
-0.16792043 0.02925633 -0.009155772 -0.058608804 -0.18966556 -0.04984565 -0.0899778 -0.13053592
-0.18201631 -0.13716175 -0.09908619 -0.0644885 -0.09420723 -0.13007122 -0.21976551 -0.20034686
-0.0978343 -0.52632487 0.064846285 -0.19944385 -0.24408075 -0.02338314 -0.30578116 -0.06546879
-0.1359595 -0.08855866 -0.114605576 -0.21209371 -0.26894534 -0.25031248 -0.0071223625 -0.087709315
0.018054448 -0.16381001 -0.3333981 -0.021398753 -0.07367462 -0.14394554 -0.20292059 -0.15419145
-0.083804004 -0.16014522 -0.113978766 -0.060216602 -0.16066173 0.12837681 -0.13285644 0.047236323
0.020184562 -0.58226115 -0.09893663 -0.11541678 -0.15186271 -0.19798744 0.15129603 -0.3448471
-0.16935602 -0.10180803 -0.16857049 0.0033752425 -0.19589965 -0.19553298 -0.07068256 0.19715215
-0.13157506 -0.05624627 -0.23781468 -0.012761613 -0.12249827 -0.07486684 -0.15070371 -0.12333498
00000000: ede2 7abe 53c6 153c 2bf5 d0bd 3bc1 73bd
00000010: daaa 103d 10b0 67bd d686 97bd e404 48bd
00000020: 6672 12ba b08a 0dbd 77d1 c9be 66bd 40bd
00000030: c34a e1bc cf19 37be 5034 56be 528d 51be
00000040: 64be efbd 242a 023d a764 b3bd 9941 dabd
00000050: cae0 a8be 85a0 a43c 8e1d 32be 8535 59be
00000060: b296 e8bd e8d8 1fbe 251f 163e c622 25bd
00000070: be92 88bd 9b6a e1bc 3a4c 6abe b0cd 1ebe
00000080: ac9f 58be 4315 7b3d cfdd e6bc e0d1 d1bd
00000090: e612 79be 14de 10be 845b efbd f23d c6bd
000000a0: 365f 0fbe c10c 51be a507 bebe a83d 99bd
000000b0: fee9 14bd a316 d4bd 2b64 65bb d138 4bbd
000000c0: 35b0 d8bd 0fc1 1fbe 3811 febd a514 bfbd
000000d0: e414 8cbe d7e4 19be e30a 443c fbfc 0cbe
000000e0: 55f3 2bbe f9aa ef3c 1702 16bc c90f 70bd
000000f0: b037 42be f42a 4cbd 4846 b8bd 35ab 05be
00000100: 7c62 3abe 2174 0cbe b3ed cabd 8c12 84bd
00000110: b8ef c0bd 6431 05be 360a 61be ba27 4dbe
00000120: 595d c8bd 3abd 06bf 21ce 843d 023b 4cbe
00000130: 4ef0 79be 008e bfbc 598f 9cbe 8014 86bd
00000140: f838 0bbe 3e5e b5bd 54b6 eabd 182f 59be
00000150: 34b3 89be f528 80be b562 e9bb f1a0 b3bd
00000160: ece6 933c d0bd 27be 28b3 aabe 704c afbc
00000170: b8e2 96bd 7666 13be 6aca 4fbe 5de4 1dbe
00000180: 6fa1 abbd 1cfd 23be b36d e9bd afa5 76bd
00000190: 8284 24be 3675 033e 850b 08be e07a 413d
000001a0: 185a a53c 110f 15bf 4a9f cabd a25f ecbd
000001b0: e681 1bbe 38bd 4abe 59ed 1a3e cd8f b0be
000001c0: aa6b 2dbe ba80 d0bd be9d 2cbe 2c33 5d3b
000001d0: eb99 48be cc39 48be 05c2 90bd 41e2 493e
000001e0: 9dbb 06be 7d62 66bd b185 73be 1616 51bc
000001f0: 5fe0 fabd c953 99bd 1352 1abe 0d97 fcbd

network_body.linear_encoder.seq_layers.2.weight f4 [128, 128]
0.22694732 0.20068389 0.057831228 0.15029304 0.23356594 0.056232277 0.17992389 -0.27056733
0.34607372 -0.11102073 0.020574585 -0.1460742 -0.26139584 0.09519719 -0.16397268 -0.40532565
-0.4362881 -0.33645388 -0.10921655 -0.04179117 0.016614137 -0.6388728 0.025029887 0.03415499
0.14899625 0.008925611 -0.093044266 -0.37051246 -0.0925627 -0.040874455 -0.09129107 -0.30797905
0.057015978 -0.23797393 0.15765378 0.02118578 0.110670574 0.15198687 -0.23726454 -0.13190572
-0.050815344 0.15843962 -0.5966603 -0.1432866 0.020782668 0.17095827 0.04125708 0.255417
-0.3310749 -0.25615984 0.14419015 -0.23444438 0.23770264 0.25364837 -0.18469897 -0.36447942
-0.075955115 0.2799874 -0.13201948 0.07122927 -0.067836575 -0.07556147 0.031162905 0.02208296
0.13316128 0.13288367 -0.3309743 -0.043851916 -0.24378817 -0.14341544 0.11402018 -0.21447755
-0.21690002 0.20861386 -0.35502338 -0.23626755 -0.111967124 0.2696962 0.37507203 0.14202212
-0.24580403 0.10246292 -0.03906643 -0.112087384 -0.3953589 0.064953275 0.19529541 0.15764965
0.05346712 -0.2723192 -0.11478181 0.2600935 -0.01038214 0.06266624 -0.13310426 0.09524937
0.031965494 -0.25111347 0.26365462 -0.05246218 -0.06670002 0.2508987 -0.09089224 -0.53344774
-0.43556494 0.03183874 0.1383998 0.25448617 -0.0044680643 0.28164417 -0.108135656 -0.3462005
0.04460877 -0.17367747 -0.32573596 -0.115892954 -0.1711134 -0.18702695 0.05232983 0.07073527
-0.14484775 -0.006240774 -0.33108148 -0.15457128 0.120633096 0.042705376 0.0011018302 -0.16058494
-0.041995946 -0.2701736 0.074789405 -0.23085515 0.41723633 0.28357032 -0.54173046 0.042475604
0.09985175 -0.16799927 -0.34083682 -0.16304642 -0.33683282 -0.06099821 0.23451994 0.035291124
-0.16675226 -0.09330663 -0.20852396 0.08682075 -0.050884686 -0.002501859 0.19308123 0.055452228
0.047664944 -0.0805224 0.02546641 0.025634848 0.26449186 0.13087611 -0.24306019 0.082681924
0.38496777 -0.26726538 0.16230819 -0.008009116 -0.18312111 -0.014355715 -0.029809887 0.12130314
-0.006744466 -0.3304116 -0.17718823 0.11000674 -0.11308583 -0.2366285 -0.26010984 -0.03618568
-0.19320484 0.19586386 0.1344414 -0.27030358 -0.3298176 -0.015572267 0.12047523 -0.30670702
-0.26804823 0.078342326 0.20047542 0.17447314 0.07522286 -0.19782661 0.054072753 0.32281604
-0.55339885 0.16395298 -0.16865788 -0.602866 0.09666862 0.20924598 -0.024528744 0.12570035
0.003636591 -0.24981904 -0.052213315 0.08850713 -0.06851896 -0.58518624 -0.114361875 -0.053844016
0.1794337 0.1972598 -0.101993605 0.10867738 -0.08675709 -0.25951743 0.101443484 -0.30633083
0.16284032 -0.11900039 -0.05668159 -0.20327285 -0.06375799 -0.33922753 0.015066891 0.20544367
0.24308132 0.070065044 -0.21108122 -0.02615263 -0.41383392 0.24005789 0.1368689 0.35417795
-0.4264066 0.043917585 -0.18019475 -0.2602704 0.10794555 -0.027860286 -0.042632714 0.20449404
-0.5119782 0.30443197 0.08564489 0.4242173 -0.096896075 0.24481337 0.32053792 0.15018903
0.24908845 0.23128162 0.3648771 -0.26187953 -0.041896295 -0.19599466 0.15951493 0.12121893
00000000: e164 683e 1480 4d3e 70e0 6c3d 6be6 193e
00000010: e92b 6f3e d153 663d f83d 383e cd87 8abe
00000020: 9330 b13e d65e e3bd 088c a83c 7a94 15be
00000030: add5 85be bff6 c23d 74e8 27be d886 cfbe
00000040: 2761 dfbe af43 acbe edac dfbd 382d 2bbd
00000050: 5f1a 883c 2b8d 23bf 7a0b cd3c 1ae6 0b3d
00000060: 7992 183e ba3c 123c fe8d bebd cfb3 bdbe
00000070: 8391 bdbd f96b 27bd d0f6 babd 6eaf 9dbe
00000080: 9689 693d 70af 73be fe6f 213e cd8d ad3c
00000090: 41a7 e23d 72a2 1b3e 7af5 72be 4b12 07be
000000a0: c023 50bd ff3d 223e bbbe 18bf b9b9 12be
000000b0: 6a40 aa3c af0f 2f3e 2ffd 283d 04c6 823e
000000c0: a682 a9be 6227 83be 95a6 133e 3012 70be
000000d0: 5268 733e 33de 813e ba21 3dbe 0c9d babe
000000e0: 5b8e 9bbd 825a 8f3e 1d30 07be a7e0 913d
000000f0: e7ed 8abd f9bf 9abd 5949 ff3c 53e7 b43c
00000100: 6e5b 083e a812 083e 7775 a9be 119e 33bd
00000110: 9ba3 79be 7fdb 12be 6a83 e93d 01a0 5bbe
00000120: 0a1b 5ebe df9e 553e a0c5 b5be 1ff0 71be
00000130: 054f e5bd 9f15 8a3e 7109 c03e 3f6e 113e
00000140: 0db4 7bbe 14d8 d13d 1f04 20bd 128e e5bd
00000150: 7b6c cabe 3906 853d 85fb 473e e96e 213e
00000160: 5700 5b3d 6c6d 8bbe ba12 ebbd fa2a 853e
00000170: da19 2abc 2857 803d 7c4c 08be 1a12 c33d
00000180: 40ee 023d f291 80be bdfd 863e 95e2 56bd
00000190: 059a 88bd cb75 803e b625 babd 0890 08bf
000001a0: 5e02 dfbe 5769 023d adb8 0d3e 034c 823e
000001b0: d768 92bb aa33 903e 3a76 ddbd 3141 b1be
000001c0: b0b7 363d 82d8 31be ddc6 a6be 4959 edbd
000001d0: 5a38 2fbe fe83 3fbe ce57 563d a7dd 903d
000001e0: f852 14be 687f ccbb 8383 a9be ef47 1ebe
000001f0: 7c0e f73d d5eb 2e3d 496b 903a 6170 24be
00000200: f103 2cbd 3254 8abe 302b 993d 4b65 6cbe
00000210: 00a0 d53e 2130 913e d9ae 0abf e6fa 2d3d
00000220: 137f cc3d 0008 2cbe 2a82 aebe a4f5 26be
00000230: 5a75 acbe 42d9 79bd ff25 703e 6d8d 103d
00000240: 1bc1 2abe 8c17 bfbd 4e87 55be 14cf b13d
00000250: 766c 50bd 3bf6 23bb 16b7 453e e021 633d
00000260: 513c 433d eee8 a4bd ef9e d03c 2c00 d23c
00000270: 7a6b 873e 6304 063e c5e4 78be 2455 a93d
00000280: 7f1a c53e 02d7 88be 1e34 263e ab38 03bc
00000290: 1a84 3bbe 3c34 6bbc dd33 f4bc c86d f83d
000002a0: ae00 ddbb b62b a9be d570 35be 374b e13d
000002b0: 8b99 e7bd be4e 72be 1e2d 85be 7037 14bd
000002c0: 7dd7 45be 8990 483e 02ab 093e 3b65 8abe
000002d0: dadd a8be d222 7fbc b8bb f63d b408 9dbe
000002e0: 9e3d 89be f171 a03d 6e49 4d3e 16a9 323e
000002f0: 710e 9a3d 0f93 4abe 647b 5d3d 2548 a53e
00000300: 8cab 0dbf 4ae3 273e a7b4 2cbe 6d55 1abf
00000310: 33fa c53d 9444 563e 81f0 c8bc 98b7 003e
00000320: df53 6e3b 90d0 7fbe a1dd 55bd 3a43 b53d
00000330: ab53 8cbd c4ce 15bf 8f36 eabd 8b8b 5cbd
00000340: 78bd 373e 79fe 493e 06e2 d0bd 3f92 de3d
00000350: b4ad b1bd 78df 84be 9ac1 cf3d 65d7 9cbe
00000360: 9dbf 263e 7ab6 f3bd f42a 68bd c226 50be
00000370: 8d93 82bd 3baf adbe 1fdb 763c d35f 523e
00000380: 4fea 783e 437e 8f3d ad25 58be 0a3e d6bc
00000390: 0ae2 d3be bcd1 753e 5c27 0c3e d056 b53e
000003a0: f751 dabe ede2 333d f984 38be 2942 85be
000003b0: 8e12 dd3d 413b e4bc a49f 2ebd e366 513e
000003c0: 0111 03bf 82de 9b3e 9766 af3d 0333 d93e
000003d0: 7371 c6bd 5bb0 7a3e 8c1d a43e 27cb 193e
000003e0: 0b11 7f3e 17d5 6c3e 2cd1 ba3e 1315 86be
000003f0: 739b 2bbd d3b2 48be e257 233e a141 f83d

network_body.linear_encoder.seq_layers.4.bias f4 [128]
-0.14935765 -0.09811252 0.34152392 -0.09195421 0.042466596 0.1282838 -0.18869631 0.2133361
0.43831614 0.14827468 0.11569353 -0.06539094 -0.0018843316 -0.04388254 -0.03190894 -0.1697639
-0.14765547 -0.09596799 -0.0709187 0.07057759 0.008538218 0.13921139 0.074551694 0.22201008
-0.016871205 0.1541006 -0.17274258 -0.071700945 0.20723636 -0.045209922 0.024493461 -0.23603588
-0.2746096 -0.20240977 -0.2377152 -0.12250486 -0.09883567 -0.19681734 -0.047387302 -0.09646636
0.023920365 -0.22798125 -0.25252554 0.303902 -0.13090442 -0.26585552 -0.22076501 0.263949
-0.14838493 0.06569408 -0.37734044 0.05508732 0.014332124 0.07652475 -0.11252084 -0.23854077
0.017946484 0.079786345 -0.08569091 -0.12262677 -0.09180459 0.15753318 0.042904895 -0.08585205
-0.3488034 -0.1167263 -0.055518944 -0.1345392 0.24966924 -0.12978788 -0.15438074 -0.24315023
-0.1208043 -0.1298347 -0.12095345 -0.03583357 -0.054843377 0.10470225 0.094865896 0.12937905
-0.07533798 -0.06878778 0.102709696 -0.20755254 0.3085093 -0.0784689 0.15349151 -0.10960615
-0.15862387 -0.31551155 0.30595976 -0.06709382 -0.043733016 -0.30808848 0.03902146 -0.022551902
-0.10457689 -0.16688797 0.11347833 -0.00854072 -0.061438557 0.20948774 0.014825559 0.01473394
-0.020677129 -0.32116476 -0.16728957 -0.29261518 0.065901466 -0.07177509 -0.18205261 -0.09073252
-0.34077463 -0.22337727 0.028633738 -0.11177898 -0.011371601 -0.10250835 -0.20731924 -0.07559171
0.20983355 0.07074969 0.040636435 0.1454833 0.12712657 0.14890681 -0.093714274 0.11997218
00000000: 36f1 18be 38ef c8bd 39dc ae3e 7d52 bcbd
00000010: 74f1 2d3d d45c 033e 9b39 41be c774 5a3e
00000020: f96a e03e 51d5 173e bbf0 ec3d afeb 85bd
00000030: adfb f6ba 2ebe 33bd f3b2 02bd 96d6 2dbe
00000040: ff32 17be de8a c4bd d33d 91bd fc8a 903d
00000050: e2e3 0b3c 6e8d 0e3e 8fae 983d 9c56 633e
00000060: 7b35 8abc 8ccc 1d3e 6ee3 30be f2d7 92bd
00000070: c535 543e 0a2e 39bd 83a6 c83c 64b3 71be
00000080: a199 8cbe 8244 4fbe 9d6b 73be d4e3 fabd
00000090: 5b6a cabd 7c8a 49be 3019 42bd 2890 c5bd
000000a0: a4f4 c33c eb73 69be 074b 81be 0b99 9b3e
000000b0: cf0b 06be 371e 88be 3910 62be 5324 873e
000000c0: 38f2 17be 9e8a 863d c432 c1be 3ea3 613d
000000d0: 49d1 6a3c 02b9 9c3d 5371 e6bd 0844 74be
000000e0: 8104 933c 0667 a33d b77e afbd be23 fbbd
000000f0: 0b04 bcbd 6150 213e 0bbd 2f3d 33d3 afbd
00000100: 5c96 b2be 330e efbd d567 63bd a5c4 09be
00000110: 4ba9 7f3e 1de7 04be fc15 1ebe 60fc 78be
00000120: 3f68 f7bd 63f3 04be 71b6 f7bd 39c6 12bd
00000130: 73a3 60bd 226e d63d 0d49 c23d f17b 043e
00000140: cd4a 9abd 9ce0 8cbd 7659 d23d a788 54be
00000150: eef4 9d3e 4db4 a0bd e12c 1d3e 3079 e0bd
00000160: 4c6e 22be bb8a a1be c2a6 9c3e 7c68 89bd
00000170: 6421 33bd c6bd 9dbe f7d4 1f3d c4be b8bc
00000180: 692c d6bd aee4 2abe 5467 e83d 60ee 0bbc
00000190: ffa6 7bbd f483 563e e7e6 723c a066 713c
000001a0: 1563 a9bc b56f a4be f54d 2bbe a8d1 95be
000001b0: 59f7 863d d2fe 92bd 006c 3abe f9d1 b9bd
000001c0: 037a aebe 03bd 64be 4d91 ea3c 61ec e4bd
000001d0: f44f 3abc e6ef d1bd 7f4b 54be d4cf 9abd
000001e0: 9bde 563e 37e5 903d 6472 263d 93f9 143e
000001f0: 782d 023e 077b 183e 45ed bfbd f9b3 f53d

network_body.linear_encoder.seq_layers.4.weight f4 [128, 128]
-0.021005748 -0.3072986 0.21650068 0.0050762985 -0.3051424 -0.24460867 -0.011790311 -0.27722943
-0.09324046 -0.2932076 0.007452563 -0.18231095 -0.18494381 0.30003473 0.18804242 0.12042047
0.14779565 -0.26208058 0.032763045 0.22972387 -0.49858588 -0.36494705 0.0147672 0.18815649
-0.16224208 -0.14031734 0.029231172 -0.27740777 0.21313488 0.062052336 -0.5621601 -0.0724155
-0.06308213 -0.12908854 -0.38805342 -0.33784303 -0.20115574 0.01759631 0.10995767 0.2264783
0.22939093 0.17664951 -0.2619932 -0.003555722 -0.094207406 0.12168896 -0.56160814 -0.054769106
-0.17603593 -0.302486 -0.24749751 -0.010407135 0.11976936 0.048438724 -0.16256557 -0.33288857
0.033662844 0.05880245 -0.2193014 0.033846855 0.047511317 -0.06324159 -0.19602026 -0.036704965
0.25939566 -0.0058440855 -0.35106385 -0.33294818 -0.2551982 -0.27673376 -0.12458518 -0.29702875
0.058799602 -0.35798115 0.07198363 -0.32594648 0.08209013 -0.3579455 -0.057651777 -0.11731382
-0.1866333 0.09033386 -0.38691494 0.14089483 0.038118057 -0.21900474 -0.13078354 -0.15855454
-0.36942032 -0.061574854 0.27256316 -0.20762105 -0.16671151 -0.20603107 -0.12104648 0.25671175
-0.31341314 0.20910054 -0.06046717 0.1623423 -0.32999992 -0.22720791 0.08589122 -0.24405968
-0.16363156 -0.21161745 -0.07353418 -0.23162162 0.11905878 -0.13418922 -0.12355202 -0.45115522
0.060232315 -0.08563782 -0.08153793 -0.37166855 0.13940829 0.35690594 -0.31146616 -0.0048718527
0.027706936 -0.08234478 -0.07749165 0.04845199 -0.09616099 -0.07429748 0.008368995 0.14254822
-0.39759701 -0.22384271 -0.12284131 0.30043036 -0.23683585 -0.18351944 -0.22413258 -0.04719212
0.28632194 0.117410414 0.045199584 -0.16584408 -0.07778361 0.20454413 -0.05314103 0.1826513
0.32767114 -0.033857007 -0.1902203 0.18540221 0.10741525 -0.051725242 -0.15017436 -0.1973305
0.00829328 -0.3310492 -0.18283205 0.15221515 0.276301 -0.030488007 -0.10893146 0.21799023
0.026088784 0.19529657 -0.5239155 -0.37576145 0.23853445 0.28158826 0.26988125 -0.30853835
0.19505876 0.34982455 0.10208668 0.3313302 0.081430174 0.06784058 -0.14943925 0.15407203
-0.1077092 0.165343 -0.11014708 0.22219485 0.35439694 -0.4580678 -0.42246488 -0.0120628225
-0.2720899 -0.08047726 0.08133743 0.18310925 0.0025089455 0.012325043 0.11973028 -0.14424667
0.098126516 -0.06609833 0.007766579 -0.13867599 -0.0138066765 -0.1086825 -0.42606026 0.3494626
0.26718614 0.11799897 -0.07063095 0.024008702 -0.0668277 0.16791923 0.025511054 0.036783952
0.18559729 0.39164278 -0.40606755 0.012313701 0.529751 -0.2968287 -0.09998104 -0.34283295
0.07678624 -0.0750005 -0.4008384 0.20907815 -0.45349845 -0.12588 -0.56761825 -0.40052775
0.07739185 -0.015482119 -0.18583651 0.08992587 -0.06006353 0.09764863 -0.08301175 -0.46525326
-0.1746823 -0.2864728 0.049407884 -0.18338175 -0.034099516 -0.01619719 -0.033222042 0.117353745
-0.45466068 0.2362851 0.055144187 -0.0948954 -0.21985063 0.10149196 -0.0803657 -0.062421575
-0.15461044 -0.10642089 0.039219625 0.054474603 -0.09084862 -0.014719033 -0.20758098 0.4009368
00000000: 3f14 acbc 3e56 9dbe 5bb2 5d3e 1457 a63b
00000010: a03b 9cbe b27a 7abe 262c 41bc 04f1 8dbe
00000020: dbf4 bebd 4e1f 96be a134 f43b b9af 3abe
00000030: e961 3dbe 279e 993e 318e 403e 029f f63d
00000040: be57 173e 6d2f 86be 8b32 063d bc3c 6b3e
00000050: a646 ffbe 57da babe 20f2 713c 18ac 403e
00000060: ca22 26be 59af 0fbe 3676 ef3c 6408 8ebe
00000070: 0840 5a3e 972a 7e3d b9e9 0fbf 944e 94bd
00000080: 3431 81bd c92f 04be f0ae c6be c3f9 acbe
00000090: c5fb 4dbe 2326 903c 7d31 e13d ede9 673e
000000a0: 75e5 6a3e 9ce3 343e f923 86be 1e07 69bb
000000b0: d0ef c0bd 1038 f93d 8dc5 0fbf 9255 60bd
000000c0: c342 34be 72df 9abe fd6f 7dbe b082 2abc
000000d0: a349 f53d af67 463d 9777 26be 5f70 aabe
000000e0: 0de2 093d d6da 703d 8c90 60be 00a3 0a3d
000000f0: 3a9b 423d cf84 81bd 89b9 48be f257 16bd
00000100: 82cf 843e be7f bfbb a4be b3be 2f78 aabe
00000110: 57a9 82be 0cb0 8dbe 8426 ffbd 2714 98be
00000120: dad7 703d 4e49 b7be 276c 933d 75e2 a6be
00000130: df1e a83d a244 b7be 4524 6cbd 3a42 f0bd
00000140: cd1c 3fbe f500 b93d b719 c6be bc46 103e
00000150: ae21 1c3d c742 60be 1fec 05be 1f5c 22be
00000160: a924 bdbe ea35 7cbd 668d 8b3e 9d9a 54be
00000170: 6cb6 2abe cff9 52be 38e7 f7bd b96f 833e
00000180: b077 a0be 741e 563e 6cac 77bd 0f3d 263e
00000190: c0f5 a8be 31a9 68be bce7 af3d c8ea 79be
000001a0: 088f 27be 3fb2 58be 1799 96bd 382e 6dbe
000001b0: 17d5 f33d e668 09be d708 fdbd d1fd e6be
000001c0: 29b6 763d e262 afbd 5cfd a6bd 574b bebe
000001d0: 0cc1 0e3e 60bc b63e 7e78 9fbe 10a4 9fbb
000001e0: a8f9 e23c 61a4 a8bd f1b3 9ebd 9875 463d
000001f0: 0ef0 c4bd 4729 98bd 1c1e 093c 29f8 113e
00000200: d691 cbbe 0637 65be 3a94 fbbd 02d2 993e
00000210: 1985 72be 85ec 3bbe 0383 65be 864c 41bd
00000220: ca98 923e df74 f03d 3323 393d 08d3 29be
00000230: 034d 9fbd 0474 513e 69aa 59bd f108 3b3e
00000240: 83c4 a73e a5ad 0abd 1cc9 42be 14da 3d3e
00000250: 87fc db3d d9dd 53bd 4fc7 19be 0211 4abe
00000260: 8ae0 073c 487f a9be 5338 3bbe 4ade 1b3e
00000270: 5377 8d3e fcc1 f9bc 7517 dfbd d538 5f3e
00000280: 25b8 d53c d3fb 473e 541f 06bf ce63 c0be
00000290: 6042 743e 562c 903e e02d 8a3e bdf8 9dbe
000002a0: 7cbd 473e 341c b33e d212 d13d 1da4 a93e
000002b0: ddc4 a63d 01f0 8a3d 9a06 19be 0fc5 1d3e
000002c0: a496 dcbd ad4f 293e cb94 e1bd 0c87 633e
000002d0: 8473 b53e dd87 eabe 514d d8be 25a3 45bc
000002e0: 5e4f 8bbe 43d1 a4bd 3d94 a63d fe80 3b3e
000002f0: 1f6d 243b faee 493c 2635 f53d 66b5 13be
00000300: 8ef6 c83d 905e 87bd c97e fe3b 1401 0ebe
00000310: 6635 62bc ee94 debd 9224 dabe c3ec b23e
00000320: 9fcc 883e 72a9 f13d f6a6 90bd e6ad c43c
00000330: f6dc 88bd 05f3 2b3e 8ffc d03c c5aa 163d
00000340: 370d 3e3e 6785 c83e 16e8 cfbe 68bf 493c
00000350: c39d 073f eef9 97be dcc2 ccbd cd87 afbe
00000360: 1b42 9d3d dd99 99bd b13a cdbe 9518 563e
00000370: f330 e8be b0e6 00be 6e4f 11bf f911 cdbe
00000380: 9e7f 9e3d b7a8 7dbc ed4b 3ebe 0e2b b83d
00000390: 2d05 76bd 01fc c73d 1002 aabd ad35 eebe
000003a0: ebdf 32be 90ac 92be ec5f 4a3d 6dc8 3bbe
000003b0: efab 0bbd f8af 84bc d613 08bd 2957 f03d
000003c0: 49c9 e8be b9f4 713e dfde 613d 8558 c2bd
000003d0: 8620 61be 04db cf3d c696 a4bd c4ad 7fbd
000003e0: 3352 1ebe 32f3 d9bd c2a4 203d c320 5f3d
000003f0: d70e babd 1928 71bc 1c90 54be 9747 cd3e

network_body.vector_processors.0.normalizer.running_mean f4 [107]
0.8498784 0.91343886 0.8458367 0.91131276 0.85774404 0.9173103 0.8466073 0.9113318
0.8636088 0.9203335 0.8490265 0.91258657 0.86508757 0.9212711 0.84923965 0.9131873
0.867239 0.9223638 0.8514603 0.91485405 0.87025994 0.92417717 0.8520912 0.91611695
0.8760569 0.92771906 0.8530734 0.91701216 0.87968403 0.929851 0.85449475 0.9181863
0.8789438 0.92976207 0.8614817 0.9216355 0.883994 0.9318363 0.86542475 0.92326593
0.8847643 0.93255436 0.8650259 0.922885 0.8876062 0.9339084 0.87058383 0.925363
0.8868551 0.9336201 0.87627715 0.9279507 0.8829801 0.9321572 0.87895924 0.92975193
0.88502496 0.93281525 0.8791574 0.93013513 0.88229805 0.9317037 0.87796867 0.9298685
0.87796855 0.92986846 -0.20569192 0.4975201 -0.25530377 -0.29075673 0.26000658 -0.23301762
0.07302188 0.0016001533 -0.21885814 0.0 0.0 0.0 0.0 0.0
0.0 0.0 0.0 0.0 0.0 0.0 0.0 0.0
0.0 0.0 0.0 0.0 0.0 0.0 0.0 0.0
0.0 0.0 0.0 0.0 0.0 0.0 0.0 0.0
0.0 0.0 0.0
00000000: a191 593f 21d7 693f c188 583f cb4b 693f
00000010: 1d95 5b3f d9d4 6a3f 42bb 583f 0a4d 693f
00000020: 7715 5d3f fa9a 6b3f cd59 593f 469f 693f
00000030: 6176 5d3f 6cd8 6b3f c567 593f a5c6 693f
00000040: 6003 5e3f 0920 6c3f 4df9 593f e033 6a3f
00000050: 5bc9 5e3f e096 6c3f a622 5a3f a486 6a3f
00000060: 4445 603f ff7e 6d3f 0563 5a3f 4fc1 6a3f
00000070: f932 613f b70a 6e3f 2bc0 5a3f 420e 6b3f
00000080: 7602 613f e304 6e3f 118a 5c3f 4ef0 6b3f
00000090: 6e4d 623f d38c 6e3f 7a8c 5d3f 285b 6c3f
000000a0: ea7f 623f e2bb 6e3f 5672 5d3f 3142 6c3f
000000b0: 293a 633f 9f14 6f3f 95de 5e3f 97e4 6c3f
000000c0: f008 633f ba01 6f3f b353 603f 2d8e 6d3f
000000d0: fc0a 623f dba1 6e3f 7903 613f 3904 6e3f
000000e0: ff90 623f fbcc 6e3f 7610 613f 561d 6e3f
000000f0: 49de 613f 2284 6e3f 8ec2 603f dd0b 6e3f
00000100: 8cc2 603f dc0b 6e3f e7a0 52be f4ba fe3e
00000110: 2db7 82be 11de 94be 951f 853e 2c9c 6ebe
00000120: 7f8c 953d 3cbc d13a 591c 60be 0000 0000
00000130: 0000 0000 0000 0000 0000 0000 0000 0000
00000140: 0000 0000 0000 0000 0000 0000 0000 0000
00000150: 0000 0000 0000 0000 0000 0000 0000 0000
00000160: 0000 0000 0000 0000 0000 0000 0000 0000
00000170: 0000 0000 0000 0000 0000 0000 0000 0000
00000180: 0000 0000 0000 0000 0000 0000 0000 0000
00000190: 0000 0000 0000 0000 0000 0000 0000 0000
000001a0: 0000 0000 0000 0000 0000 0000
