Assets/Scripts/3.0 Ball vs Dragon/BallEngineAI.onnx (onnx, 142180 bytes, 11 tensors)

69 f4 [10]
0	0x4088a57e	4.2702017
1	0x4091a3eb	4.5512595
2	0x408bd91c	4.3702526
3	0x4096c15a	4.7111025
4	0x4096cd38	4.712551
5	0x40948a45	4.6418786
6	0x3ebc3382	0.36758047
7	0x3e9f3de1	0.31101897
8	0x3ef81dbf	0.48460194
9	0x3eaad7e9	0.3336785

action_model._continuous_distribution.log_sigma f4 [1, 3]
0	0xbf19e65d	-0.6011713
1	0xbf3594cf	-0.7093019
2	0xbf433584	-0.76253533

action_model._continuous_distribution.mu.bias f4 [3]
0	0x3d664282	0.05621577
1	0xbad513b5	-0.0016256484
2	0xbe608755	-0.21926625

action_model._continuous_distribution.mu.weight f4 [3, 128]
0	0x3e26fe45	0.16307934
1	0xbe48269a	-0.19545975
2	0xbdcc8e1e	-0.09988044
3	0x3dfdaf93	0.12387004
4	0xbdc18392	-0.09448923
5	0xbc4b6e02	-0.012416365
6	0xbda45ca2	-0.08025481
7	0x3c3af33f	0.011410533
8	0xbe1dd274	-0.15412313
9	0x3dbbfca3	0.09179046
10	0x3e26294c	0.16226691
11	0x3e180ef1	0.1484945
12	0x3c6589fc	0.014009949
13	0xbde2565d	-0.11051629
14	0x3dad69d9	0.084674545
15	0x3bb92a4e	0.005650795
16	0x3daccfe9	0.08438093
17	0xbdf86aab	-0.1212972
18	0xbd8a44bb	-0.067513905
19	0x3d160867	0.036629107
20	0xbbb79f3f	-0.0056037004
21	0xbdf4ce05	-0.119533576
22	0xbe5061b1	-0.20349766
23	0x3e03e2f6	0.12879547
24	0xbd7874dc	-0.06065832
25	0x3db37d0d	0.08764086
26	0x3b87336a	0.004126002
27	0xbe3eb50f	-0.18623756
28	0x3d7fdf10	0.06246859
29	0xbe7cfe3a	-0.24706355
30	0x3df25531	0.11832655
31	0xbda61530	-0.0810951
32	0xbe1e382a	-0.15451112
33	0x3e429d28	0.19005263
34	0x3e44bd28	0.19212782
35	0xbd99cfaa	-0.07510312
36	0xbe7abf94	-0.24487144
37	0xbdd2351d	-0.10264037
38	0xbc7b94df	-0.015355318
39	0xbcc42352	-0.023942623
40	0xbda00c1d	-0.078148104
41	0x3e05d80f	0.13070701
42	0x3de9ea7a	0.11421676
43	0x3c79827a	0.015228862
44	0x3ce47ed3	0.027892506
45	0xbc7467c8	-0.0149173215
46	0xbd68c91a	-0.05683241
47	0xbe3b7d54	-0.18309528
48	0x3d8441e7	0.064578824
49	0xbce39880	-0.027782679
50	0x3e40f438	0.18843162
51	0xbd19b932	-0.03753013
52	0x3a713a69	0.0009202124
53	0xbd9fa32c	-0.077947944
54	0xbd882402	-0.06647493
55	0xbbac8b31	-0.0052656163
56	0x3dd54beb	0.10414871
57	0xbd172a07	-0.036905315
58	0xbd7d9499	-0.061909292
59	0xbca57217	-0.020196004
60	0x3dcd2faa	0.10018857
61	0xbe16aa6b	-0.14713447
62	0xbcbf30a9	-0.023338633
63	0x3d3965d8	0.04526314
64	0xbc524b0e	-0.012835277
65	0xbd28ce85	-0.041212577
66	0xbceb4fe2	-0.028724615
67	0x3e11ba67	0.14231263
68	0xbd0def1d	-0.034651864
69	0x3d33d9b0	0.043908775
70	0xbc0aa3f1	-0.008461938
71	0xbdf6002d	-0.12011752
72	0xbdaec99d	-0.085345484
73	0x3e0cd1aa	0.13751855
74	0x3c6dfafb	0.01452517
75	0xbe1ab023	-0.15106253
76	0xbdb6ce6c	-0.089260906
77	0xbe575ff4	-0.21032697
78	0xbe4ad853	-0.19809084
79	0xbde842ec	-0.11340889
80	0xbe40b582	-0.1881924
81	0xbe551f44	-0.20812708
82	0x3e2762ff	0.16346358
83	0xbd16c95f	-0.036813136
84	0x3d425b44	0.04745032
85	0xbcdada4b	-0.026715418
86	0xbe21fe54	-0.15819675
87	0xbba72a54	-0.0051014815
88	0xbdb61a94	-0.08891788
89	0xbca494f7	-0.020090563
90	0xbba01540	-0.0048853457
91	0xbda8daa7	-0.082448296
92	0xbdf10d2b	-0.1177009
93	0x3d4163ca	0.047214307
94	0x3d44e80f	0.04807287
95	0xbe07a268	-0.13245547
96	0x3b0a3ffc	0.0021095267
97	0xbd33ce10	-0.04389769
98	0xbdcc87dc	-0.099868506
99	0x3d708d0c	0.058728263
100	0xbd26cf74	-0.040725186
101	0x3de8bf12	0.11364569
102	0x3de6080f	0.11232006
103	0xbca4c904	-0.020115383
104	0x3dca4682	0.098767295
105	0x3cd6e7e9	0.02623363
106	0xbd947342	-0.07248546
107	0xbdf79d02	-0.12090494
108	0x3e2f3132	0.1710861
109	0x3ab7c0bc	0.0014019231
110	0xbd7c7b48	-0.061641008
111	0xbc9e33e5	-0.019311855
112	0xbd9e6de2	-0.07735802
113	0xbd6db62b	-0.058035057
114	0xbe0fde37	-0.14049612
115	0xbdb8d52c	-0.09025034
116	0xbc290ab1	-0.01031749
117	0x3cb125ca	0.021624465
118	0x3de39324	0.11112049
119	0xbd7b2a93	-0.0613199
120	0x3d32724c	0.043566033
121	0xbc0147f2	-0.007890688
122	0xbde96352	-0.11395897
123	0x3d348adf	0.04407775
124	0x3d82d078	0.063874185
125	0xbc971af4	-0.01844547
126	0x3dad06ec	0.08448586
127	0xbe671cc3	-0.22569565
128	0x3b9d1ae9	0.0047944677
129	0xbcda6dcb	-0.026663681
130	0x3c8786d4	0.016543783
131	0xbdd33686	-0.10313134
132	0xbd1f0641	-0.038824324
133	0xbd574065	-0.052551646
134	0xbcb89813	-0.022533452
135	0x3de5225e	0.11188196
136	0xbda9c112	-0.08288778
137	0x3cbdbe09	0.023161905
138	0xbd7dd242	-0.061968096
139	0xbdc26d21	-0.09493471
140	0xbd183f28	-0.037169605
141	0x3e01e2b7	0.12684141
142	0x3d11d0d2	0.035599537
143	0x3ddc50c1	0.1075759
144	0x3d8c7a65	0.068592824
145	0x3dbc072b	0.09181055
146	0x3cd6bf15	0.026214162
147	0x3d47f33f	0.048815962
148	0x3d526df5	0.051374394
149	0xbe79c765	-0.24392469
150	0xbcfe8808	-0.031070724
151	0x3dd67eee	0.10473429
152	0x3dddc0b9	0.108277746
153	0x3db49bed	0.08818803
154	0x3b438013	0.0029830977
155	0x3dcc16b8	0.09965271
156	0xbe106426	-0.14100704
157	0xbd7642f6	-0.060122453
158	0x3d28e267	0.04123154
159	0x3e23df32	0.16003111
160	0xbd1238db	-0.035698753
161	0x3e016468	0.12635958
162	0x3d1a0d93	0.0376106
163	0x3dc958b5	0.09831373
164	0xbb88ed9e	-0.004178717
165	0x3d4a8ff1	0.04945368
166	0x3e2ffa51	0.17185332
167	0x3da5338d	0.08066473
168	0x3e36bb41	0.17844869
169	0xbc4f9a9b	-0.012671138
170	0xbcf3587e	-0.029705282
171	0xbc8c2337	-0.017106635
172	0xbd8d215f	-0.06891131
173	0xbd19f4dc	-0.03758703
174	0xbd967bd9	-0.07347841
175	0xbda1ce9b	-0.07900735
176	0x3d845064	0.06460646
177	0x3d0218d5	0.031761963
178	0x3dd29878	0.10282987
179	0x3cdb1b1f	0.02674633
180	0x3e274d16	0.16338
181	0x3a18a645	0.0005823116
182	0xbae2408e	-0.001726167
183	0xbdf23592	-0.11826624
184	0x3e0c105a	0.13678113
185	0x3e460f99	0.19341888
186	0x3da27260	0.079319715
187	0xbd90c142	-0.07068111
188	0x3e54d981	0.20786096
189	0xbcd3622c	-0.025803648
190	0xbc9aedd5	-0.018912235
191	0xbc62fc9f	-0.013854175
192	0xbe553d8b	-0.20824258
193	0x3d6d2229	0.057893906
194	0x3e120e62	0.14263299
195	0xbad0c067	-0.0015926481
196	0x3d6f520e	0.058427863
197	0x3e62217b	0.22083084
198	0x3e0549c5	0.13016422
199	0x3d8388a2	0.06422545
200	0x3d5b953a	0.05360911
201	0xbcf47349	-0.029840128
202	0xbd313a70	-0.04326862
203	0x3df7c73b	0.12098547
204	0x3e234226	0.15943202
205	0x3dc525bf	0.0962634
206	0xbcbfd4d3	-0.023416912
207	0xbd7a57b9	-0.061118815
208	0x3e15ec26	0.14640865
209	0x3db9556d	0.09049497
210	0xbe150cb3	-0.14555626
211	0xbcdc0bc3	-0.026861077
212	0x3e096f0e	0.1342127
213	0x3cbec06e	0.023285117
214	0xbbffe4d7	-0.0078092623
215	0x3d87bb2f	0.06627499
216	0x3c1477cf	0.009061768
217	0x3e3e6815	0.18594392
218	0x3d384a15	0.044992525
219	0x3dc4941f	0.09598564
220	0x3e3e1dec	0.18566102
221	0x3e0f76b0	0.1401012
222	0xbddec58d	-0.108775236
223	0xbcf037c7	-0.029323472
224	0x3b861ee2	0.004093037
225	0xbc8ae180	-0.01695323
226	0x3e36f051	0.17865111
227	0xbdb72440	-0.08942461
228	0x3d81e514	0.06342521
229	0x3e165d87	0.14684115
230	0x3e0c1257	0.13678871
231	0xbb0439ea	-0.002017612
232	0x3cbd8948	0.02313675
233	0x3cf3cf1b	0.029761842
234	0x3e205660	0.1565795
235	0xbd7d70b3	-0.061875056
236	0x3d6d510a	0.057938613
237	0x3dd54e1a	0.10415287
238	0xbde5af07	-0.112150244
239	0x3d8b30e1	0.06796432
240	0xba361f74	-0.0006947436
241	0x3dff6372	0.124701396
242	0xbe591bce	-0.21202013
243	0xbdf9aa69	-0.12190706
244	0xbe13514e	-0.14386484
245	0xbc8e9aba	-0.017407764
246	0x3dd61d98	0.10454863
247	0xbc4b3ac1	-0.012404145
248	0xbe06b416	-0.13154635
249	0xbe397204	-0.181099
250	0xbd8f3694	-0.06992832
251	0xbd736172	-0.059419103
252	0xbe00acea	-0.12565961
253	0xbd69c608	-0.057073623
254	0x3daf3f86	0.08557038
255	0xbd82506c	-0.063629955

network_body.linear_encoder.seq_layers.0.bias f4 [128]
0	0x3db50766	0.08839302
1	0x3d0a7ae4	0.033808604
2	0x3daefd73	0.08544435
3	0x3e12e185	0.14343841
4	0xbc18c7ed	-0.00932501
5	0xbcca80cc	-0.024719618
6	0xbda50278	-0.080571115
7	0xbb4db12c	-0.003138612
8	0xbd1ddd06	-0.038540863
9	0xbccf2b62	-0.025289241
10	0xbdcf3480	-0.101174355
11	0xbd50f616	-0.051015936
12	0x3d412716	0.047156416
13	0x3cbad0a4	0.022804566
14	0xbb97928a	-0.004625623
15	0x3ab9dd71	0.0014180375
16	0x3d3cd71e	0.04610359
17	0x3d03898b	0.032113593
18	0xbc722115	-0.014778395
19	0x3d838730	0.06422269
20	0xbd8afee1	-0.067868955
21	0x3da4b63e	0.080425724
22	0xbc053077	-0.008129231
23	0x3d314fba	0.043288924
24	0xbcaeaee5	-0.02132363
25	0x3d08935f	0.03334367
26	0x3ce65f84	0.028121717
27	0xbd13a426	-0.036045216
28	0x3bae7976	0.005324538
29	0xbdbb05e7	-0.09131985
30	0x3d786deb	0.0606517
31	0x3cdcbcf8	0.026945576
32	0xbb3c5825	-0.0028739062
33	0xbc5f6e9a	-0.013637209
34	0xbd072d09	-0.033001933
35	0x3d56d75b	0.052451473
36	0x3951de5f	0.00020014633
37	0xbd51fa70	-0.051264226
38	0xba102c41	-0.00054997584
39	0xbd72b316	-0.05925282
40	0x3d906d8b	0.07052144
41	0x3a157d80	0.00057026
42	0x3cb394f4	0.021921612
43	0xbdec411c	-0.11535856
44	0x3c0fa329	0.008766928
45	0x3cf60e9e	0.030036267
46	0xbd1d51d9	-0.038408134
47	0xbcbdb665	-0.023158262
48	0x3d8d0e1e	0.06887458
49	0xbd2c8973	-0.04212327
50	0x3cd9f66d	0.026606763
51	0x3c23cf74	0.009998191
52	0xbd758664	-0.059942618
53	0xbd46aa9f	-0.04850256
54	0x3c71793d	0.014738378
55	0x3b405e3a	0.0029353038
56	0x3d8cccf0	0.06875026
57	0x3d97a0e3	0.074037336
58	0x3c7c1c60	0.0153876245
59	0x3d463bbc	0.04839681
60	0xbe51c6ea	-0.20486036
61	0xbdbaf160	-0.0912807
62	0x3cc72584	0.024309881
63	0x3c6a4245	0.014298026
64	0xbd0cde52	-0.03439171
65	0xbc784e49	-0.015155383
66	0x3de25625	0.11051587
67	0x3d622eee	0.055220537
68	0xbd4eac3f	-0.050457235
69	0x3d0588a1	0.032601003
70	0x3d3c04f2	0.045903154
71	0xba906358	-0.0011015935
72	0xbc7dc235	-0.015488197
73	0xbc9befae	-0.019035187
74	0xbcc3fb41	-0.023923518
75	0x3cbde86a	0.023182113
76	0x3d2a82f2	0.041628785
77	0xbc63ee98	-0.013911866
78	0xbc2f68c4	-0.01070613
79	0xbb380e23	-0.0028084598
80	0x3b965c50	0.004588641
81	0xbd9d3133	-0.076754
82	0x3cb2b4aa	0.021814663
83	0xbc82e605	-0.015978822
84	0x3d88eeb0	0.06686151
85	0xbd39c44e	-0.045353226
86	0xbb2aa346	-0.002603726
87	0xbd796bf1	-0.060893957
88	0xbc99192b	-0.018688759
89	0xba1388f2	-0.00056280114
90	0xbdd05462	-0.10172345
91	0x3d57975b	0.05263458
92	0x3d11a248	0.035555154
93	0x3dd9bd3d	0.106317975
94	0xbdd4f875	-0.10398952
95	0x3b6c024c	0.0036012111
96	0x3c1d85df	0.009614437
97	0xbcef476b	-0.02920886
98	0x3d4f9144	0.050675645
99	0x3cc70110	0.024292499
100	0x3d5100b2	0.051026054
101	0xbdb4ce61	-0.08828426
102	0xbd9612fd	-0.073278405
103	0x3d38e1cc	0.04513721
104	0xbded2149	-0.11578614
105	0xbd4a26e9	-0.049353514
106	0x3d917088	0.07101542
107	0xbdf5224f	-0.119694345
108	0x3dc4e8bf	0.09614705
109	0xbb49da21	-0.003080018
110	0x3cccce69	0.025000768
111	0xbd2c1f2b	-0.04202191
112	0x3d99eb61	0.07515598
113	0x3d68721b	0.056749444
114	0x3d138b04	0.036021248
115	0xbdf81221	-0.12112833
116	0xbd94c629	-0.072643586
117	0x3d82fe6f	0.063961856
118	0x3be666c7	0.007031295
119	0xbbb00652	-0.005371847
120	0x3c25b106	0.010113006
121	0x3bae5bc3	0.0053209974
122	0x3d17a3cb	0.03702144
123	0xba9ceab8	-0.0011971807
124	0x3d8481fa	0.064701036
125	0x3d8e366f	0.06943976
126	0xbc9dde0e	-0.019270923
127	0x3e00d7b0	0.12582278

network_body.linear_encoder.seq_layers.0.weight f4 [128, 10]
0	0x3dffedaf	0.124965064
1	0xbecffce6	-0.40622634
2	0xbe7d6d80	-0.24748802
3	0xbe886520	-0.26639652
4	0x3ed558b6	0.41669244
5	0x3eba0b37	0.3633668
6	0xbe40960b	-0.18807237
7	0x3e7659cd	0.24057694
8	0xbeebcb38	-0.4605348
9	0x3e4d5be3	0.20054583
10	0xbed3130c	-0.4122547
11	0x3ec48a79	0.38386896
12	0x3d44965f	0.047994968
13	0x3f02be3a	0.5107151
14	0x3d614bad	0.05500381
15	0xbe13c628	-0.1443106
16	0xbe99ec0a	-0.30062896
17	0x3c2af382	0.010434033
18	0x3de05d32	0.109552756
19	0xbf38b92b	-0.72157544
20	0xbf111ebc	-0.5668752
21	0xbeed2698	-0.46318507
22	0x3eba1819	0.3634651
23	0x3f0a5750	0.5403948
24	0x3dd8a171	0.105776675
25	0xbe56b7a2	-0.20968488
26	0x3de5a846	0.11213736
27	0xbeb6624f	-0.35621879
28	0x3def061a	0.11671086
29	0xbe4bd25b	-0.19904463
30	0x3f86b397	1.0523556
31	0x3df1fa08	0.11815268
32	0x3ed26b3a	0.41097432
33	0xbf7cf3a0	-0.9880924
34	0x3dc704fe	0.09717749
35	0xbcb79c88	-0.022413507
36	0x3ea31d5a	0.3185833
37	0xbcee6774	-0.029102065
38	0xbe83c31c	-0.25734794
39	0xbdafbdca	-0.08581121
40	0x3e8e8cea	0.27841884
41	0xbeb19794	-0.34685957
42	0x3e6c6279	0.2308444
43	0xbed699fb	-0.41914353
44	0x3e51b0a6	0.20477542
45	0xbe27d75b	-0.16390745
46	0x3ebd7852	0.3700586
47	0xbeaa9a45	-0.33320823
48	0x3db0d688	0.086346686
49	0x3dafd80b	0.08586129
50	0xbf06a2bd	-0.5259207
51	0xbdfefece	-0.12450944
52	0x3da87b17	0.082266025
53	0xbd9927e2	-0.0747831
54	0xbbd7c702	-0.006585003
55	0x3f0eabbc	0.55730796
56	0xbea67685	-0.32512298
57	0x3ef19432	0.47183377
58	0x3da5f2e9	0.08102972
59	0xbf327abc	-0.6971853
60	0xbeb0a224	-0.34498703
61	0xbbf0b7dc	-0.0073461365
62	0x3e6e2eb2	0.2326
63	0xbda8f33b	-0.082495175
64	0xbf2a280b	-0.6646735
65	0xbef44b90	-0.477139
66	0xbc8e6e1a	-0.017386485
67	0x3dee9606	0.116497084
68	0x3ddaa49f	0.1067593
69	0x3f23a0d4	0.6391728
70	0xbe6b93c2	-0.23005584
71	0xbedc4e7d	-0.43028632
72	0xbf221918	-0.6331954
73	0x3e8db6ab	0.27678427
74	0x3e283df0	0.16429877
75	0x3e03034c	0.12794226
76	0xbeb72bf2	-0.35775715
77	0x3e53fd5e	0.2070212
78	0xbdc04831	-0.093887694
79	0x3d01cd38	0.031689852
80	0xbe5511fc	-0.20807642
81	0x3e4d31eb	0.20038573
82	0x3f1575ab	0.5838267
83	0x3f16ad06	0.5885776
84	0xbddb44d9	-0.10706491
85	0xbe5e7948	-0.21725953
86	0xbedcc197	-0.43116447
87	0xbdadce91	-0.08486665
88	0xbed71da9	-0.42014816
89	0x3c5301f4	0.012878884
90	0x3e99bace	0.30025333
91	0x3a14a3d8	0.00056701666
92	0x3e742ff5	0.23846419
93	0xbeafe2ca	-0.34352714
94	0xbd556467	-0.052097704
95	0xbedfaa92	-0.43684822
96	0xbf320428	-0.6953759
97	0x3eb7c4b9	0.35892275
98	0xbe5e6799	-0.21719207
99	0x3d9b7ffd	0.07592771
100	0xbdee8699	-0.11646766
101	0x3e75a7b3	0.23989753
102	0x3dfaa2b5	0.12238065
103	0x3ddbba05	0.1072884
104	0x3e8b9d7a	0.27268583
105	0x3d3ee259	0.04660258
106	0x3e422d93	0.18962698
107	0xbe94be75	-0.29051557
108	0xbf0f4583	-0.5596544
109	0x3d9ffe47	0.078121714
110	0x3effd0af	0.499639
111	0xbe4814a6	-0.19539127
112	0xbe0901c2	-0.13379577
113	0xbe1d342d	-0.15351935
114	0x3da2be72	0.07946481
115	0xbde6d6ee	-0.11271463
116	0x3f46d107	0.776627
117	0xbee1fb46	-0.4413702
118	0x3edd0565	0.43168178
119	0xbe05abec	-0.13053864
120	0x3ed63a80	0.41841507
121	0x3d2ca39d	0.04214822
122	0xbe2bf369	-0.16792072
123	0xbeb362b0	-0.3503623
124	0xbf1e1842	-0.61755764
125	0xbdbf9f35	-0.09356538
126	0xbcefb6a3	-0.029261893
127	0x3eccc390	0.39992952
128	0x3f1b33c0	0.6062584
129	0x3bb359c9	0.0054733497
130	0x3c73b7d3	0.01487537
131	0x3dbb8cb1	0.09157694
132	0xbe6f50a8	-0.23370612
133	0x3e8c29ff	0.2737579
134	0xbe3eb194	-0.18622428
135	0xbe40c614	-0.18825561
136	0xbcd4387a	-0.025905836
137	0x3d812be6	0.06307201
138	0x3ee61a0c	0.44941747
139	0xbc65995b	-0.014013614
140	0x3e1851bf	0.14874934
141	0x3e2c854b	0.16847722
142	0x3e5b7d3d	0.21434493
143	0x3d71cd0a	0.05903343
144	0xbe4d7333	-0.20063476
145	0x3e8583f9	0.2607725
146	0xbe662091	-0.2247336
147	0x3eee3131	0.46521905
148	0x3d004c21	0.031322602
149	0xbf2ad38c	-0.66729045
150	0xbed4aeb2	-0.41539532
151	0xbeb8c4d8	-0.3608768
152	0x3df8c57d	0.12147043
153	0x3e24ce6d	0.1609437
154	0x3e4276fa	0.18990698
155	0xbf28d63e	-0.6595191
156	0x3da41c03	0.08013155
157	0xbea23b3f	-0.31685826
158	0x3e90ab23	0.28255567
159	0xbcf1324d	-0.02944293
160	0xbdfbd0d3	-0.122956894
161	0xbe505c45	-0.20347698
162	0xbe7d4307	-0.247326
163	0xbd8b088d	-0.0678874
164	0xbd8fdc97	-0.07024496
165	0x3f0964d1	0.5366946
166	0x3f02c593	0.51082724
167	0x3b8279c5	0.003981801
168	0xbe8380a3	-0.2568408
169	0x3e2ba36f	0.16761564
170	0xbd9b4e00	-0.07583237
171	0xbf04bea2	-0.5185338
172	0xbe92ecc5	-0.28696266
173	0xbea41689	-0.32048443
174	0x3eced4aa	0.40396625
175	0xbe2dc893	-0.16971044
176	0xbe0f6bd9	-0.14005984
177	0xbf095573	-0.5364601
178	0x3eadf30c	0.33974493
179	0x3dcb1a55	0.09917132
180	0x3eb298b1	0.3488212
181	0xbe5ef5a3	-0.2177339
182	0x3e5be11a	0.21472588
183	0x3ebdc7e6	0.37066573
184	0x3f07a0eb	0.52979916
185	0xbf272db9	-0.6530414
186	0x3e035f5e	0.12829348
187	0xbe0f9d47	-0.1402484
188	0x3d3f0972	0.046639867
189	0xbe47f1cd	-0.19525833
190	0x3e6941a5	0.22778948
191	0x3dc79942	0.097460285
192	0x3ee96513	0.45584926
193	0xbe5cc06a	-0.21557775
194	0xbca45f96	-0.02006511
195	0xbef974c9	-0.48721913
196	0xbd853f09	-0.065061636
197	0xbe079b68	-0.13242877
198	0x3e0e1853	0.13876466
199	0x3e5576fd	0.20846172
200	0xbd9d797a	-0.076891854
201	0xbf0f3711	-0.559434
202	0xbf16a731	-0.58848864
203	0x3edb1e5b	0.42796597
204	0x3ee13645	0.43986717
205	0xbf5c1c8c	-0.8598106
206	0x3e752ba6	0.23942432
207	0xbecc95bc	-0.39957988
208	0xbe318b17	-0.17338215
209	0x3e5a3587	0.21309482
210	0xbe524aa8	-0.20536292
211	0x3f079318	0.5295882
212	0x3d4d55dd	0.050130714
213	0xbd827ce3	-0.063714765
214	0xbebce8cb	-0.36896357
215	0x3e228bc6	0.15873632
216	0x3e08ff45	0.13378628
217	0xbec0643a	-0.37576467
218	0x3e082150	0.13293958
219	0xbe579afb	-0.21055214
220	0xbeb037de	-0.34417623
221	0xbc25a5ae	-0.010110302
222	0x3f0b1027	0.5432152
223	0x3ea47f85	0.3212854
224	0x3ea304b4	0.31839526
225	0xbf13aa34	-0.57681584
226	0xbe3c5a79	-0.18393888
227	0x3c805e13	0.015669858
228	0xbf04b110	-0.51832676
229	0xbf3fed09	-0.7497106
230	0x3dba5db1	0.090999015
231	0xbf0f9b79	-0.5609661
232	0x3e60af75	0.21941932
233	0x3e401be1	0.18760635
234	0x3f1cd979	0.61269337
235	0xbe22d063	-0.15899806
236	0x3dc4585f	0.09587168
237	0xbe7a73b6	-0.24458203
238	0xbea3e5ae	-0.3201117
239	0x3ea6393f	0.3246555
240	0x3f2fc6c1	0.6866265
241	0xbddcb2fd	-0.10776327
242	0x3f04b93d	0.5184515
243	0xbf3c9a5d	-0.7367304
244	0xbe9792bd	-0.2960414
245	0x3e9fa90b	0.31183657
246	0x3e1901f4	0.14942151
247	0x3ef78cab	0.4834951
248	0x3f297027	0.66186756
249	0xbef46e9b	-0.47740635
250	0x3ec2daa4	0.38057435
251	0xbe0dba35	-0.13840564
252	0x3f4aa008	0.7915044
253	0xbe8fc854	-0.28082526
254	0xbe65be81	-0.22435953
255	0xbf20983c	-0.6273229

network_body.linear_encoder.seq_layers.2.bias f4 [128]
0	0x3d76400e	0.06011968
1	0x3d4614a5	0.048359532
2	0x3d8cbad4	0.06871572
3	0xbccf26bb	-0.025287023
4	0x3c8036f3	0.015651202
5	0xbd49e244	-0.04928805
6	0xbdd71a75	-0.10503093
7	0xbdefcc55	-0.11708895
8	0x3d57115f	0.0525068
9	0x3d260ea8	0.04054132
10	0xbe13a7ca	-0.14419475
11	0x3d9c8494	0.07642475
12	0xbcd4bb28	-0.02596815
13	0xbc6f256e	-0.014596326
14	0xbdd3bbf5	-0.10338584
15	0x3d2e30d8	0.04252705
16	0x3c6e0539	0.014527612
17	0x3c4d005b	0.012512292
18	0xbde78097	-0.113038234
19	0xbdc44f15	-0.09585396
20	0xbd4658cb	-0.048424523
21	0xbd989ff8	-0.074523866
22	0xbd5b7bc2	-0.05358482
23	0xbd2bb116	-0.04191693
24	0x3d9b870a	0.07594116
25	0xbc4e0321	-0.012573988
26	0xbd8a8adc	-0.067647666
27	0xbd9e9f40	-0.07745218
28	0x3bd9945e	0.006640001
29	0xbc9760a4	-0.018478699
30	0xbcdffd26	-0.02734239
31	0x3d5bd88f	0.053673323
32	0x3d03957a	0.032124974
33	0x3c4ac4f6	0.012376061
34	0xbcaf2a49	-0.021382468
35	0x3b75b48c	0.0037491648
36	0xbc11f464	-0.008908365
37	0xbd8c5303	-0.06851771
38	0xbd689a83	-0.05678798
39	0x3d43887c	0.047737584
40	0x3d0c62d3	0.034273934
41	0xbd89a810	-0.067215085
42	0x3db48a7d	0.08815477
43	0x3d5ab3aa	0.053393997
44	0xbd00ee6d	-0.03147738
45	0xbd54baa9	-0.051935825
46	0x3c0f018b	0.008728395
47	0x3d0edd6f	0.034879144
48	0x3dade375	0.084906496
49	0xbc2adbe5	-0.0104284035
50	0xbd894b97	-0.06703871
51	0xbcadeb1b	-0.021230271
52	0xbc8c2fa7	-0.017112566
53	0xbd37158f	-0.044698294
54	0x3d84a12b	0.06476053
55	0xbd234965	-0.039864916
56	0xbd6f3c4f	-0.058407124
57	0xbd2947c1	-0.041328195
58	0xbd018e92	-0.031630106
59	0xbcb0f4ed	-0.021601165
60	0xbd88573b	-0.06657263
61	0xbd21aa7e	-0.039469235
62	0xbe3324a8	-0.17494452
63	0x3d08a34d	0.03335886
64	0xbd4f87d0	-0.05066663
65	0x3cf0c61c	0.02939134
66	0xbb860047	-0.0040893885
67	0xbc73e4ac	-0.014886063
68	0xbc07c1ea	-0.008285979
69	0x3ca4d3f6	0.020120602
70	0xbd59b73f	-0.053153273
71	0xbc6ef038	-0.01458364
72	0xbd9e8b2a	-0.07741387
73	0xbcf2f20f	-0.029656438
74	0x3d3236e0	0.043509364
75	0xbcc40d34	-0.023932077
76	0x3d05b272	0.03264088
77	0xbd6ece6e	-0.058302335
78	0xbd08ee1c	-0.033430204
79	0x3db05318	0.08609599
80	0xbd487f29	-0.048949394
81	0xbd8579ea	-0.06517394
82	0xbdfead81	-0.12435437
83	0xbd3cc435	-0.046085555
84	0x3d3e4b33	0.046458434
85	0x3c2492f5	0.010044803
86	0x3c6c7dd7	0.014434299
87	0xbdd46798	-0.103713214
88	0xbc37c0bf	-0.011215388
89	0xbda89ccd	-0.082330324
90	0x3d03fb5f	0.032222148
91	0xbd83b5a2	-0.06431128
92	0xbd7e8e50	-0.06214744
93	0x3c09ef75	0.008418907
94	0xbda95dd2	-0.08269848
95	0xbc07d1d3	-0.008289772
96	0xbd99b4ba	-0.07505174
97	0xbe40bf36	-0.18822941
98	0x3c87acd2	0.0165619
99	0x3d0d9045	0.034561414
100	0x3d975ab9	0.07390351
101	0x3dcfe257	0.10150593
102	0xbd7c12b6	-0.06154128
103	0xbccda43b	-0.025102725
104	0xbd9f792f	-0.07786786
105	0xbdb4906d	-0.088166095
106	0xbc57a35e	-0.013161508
107	0x3d3f787e	0.04674577
108	0xbe107a5f	-0.14109181
109	0xbe0201e8	-0.1269604
110	0xbd49bb21	-0.049250726
111	0xbda1151c	-0.078653544
112	0xbd56ecf1	-0.05247206
113	0xbb8fb667	-0.0043857577
114	0xbc49536b	-0.012287955
115	0xbd6fb150	-0.058518708
116	0xbd2fbf86	-0.04290726
117	0xbd6163a7	-0.055026677
118	0x3d16a2fd	0.03677653
119	0xbc15171b	-0.009099747
120	0x3ca9146d	0.020639623
121	0x3aa7edab	0.001281192
122	0xb915d6af	-0.00014289723
123	0xbd18f60a	-0.037344016
124	0x3cf48e46	0.029852998
125	0xbcb1fd76	-0.021727305
126	0xbe120ed6	-0.14263472
127	0x3d175977	0.036950555

network_body.linear_encoder.seq_layers.2.weight f4 [128, 128]
0	0x3e96448f	0.2934918
1	0xbd1a246d	-0.037632395
2	0xbacdff9f	-0.001571644
3	0xbdadd58d	-0.08487997
4	0xbe0b41ba	-0.13599291
5	0x3d959724	0.073042184
6	0xbe8c009d	-0.27344218
7	0x3e4da2fd	0.20081706
8	0xbea8df27	-0.32982752
9	0xbdc4b00c	-0.09603891
10	0xbe7b92fe	-0.24567792
11	0xbe1acdf4	-0.15117627
12	0xbcd544e3	-0.026033824
13	0x3ce61a25	0.028088639
14	0xbccde5ee	-0.025134053
15	0xbd357ee8	-0.04431048
16	0x3b46644e	0.0030272189
17	0x3e24ab4f	0.16080974
18	0x3e1af9d8	0.1513437
19	0xbe353b86	-0.17698488
20	0x3de17a2b	0.1100963
21	0x3a89cd13	0.0010513387
22	0xbe8a9cb5	-0.27072683
23	0x3e988ea0	0.29796314
24	0xbce8e3e2	-0.028428975
25	0xbe5e58fc	-0.21713632
26	0xbea0e4a3	-0.31424436
27	0xbba26f0a	-0.0049570845
28	0x3e0a5419	0.13508643
29	0xbe53b208	-0.20673382
30	0xbe339015	-0.17535432
31	0xbd801c5e	-0.062554106
32	0xbe9187a0	-0.28423786
33	0xbebe75c8	-0.37199235
34	0xbe0d2672	-0.13784197
35	0x3df582b4	0.1198782
36	0xbd7790ae	-0.06044071
37	0xbe486598	-0.19570005
38	0x3df3c5d2	0.119029656
39	0x3e1bf40c	0.15229815
40	0x3e9ce59c	0.30643928
41	0x3ce4bced	0.027922118
42	0x3de5d4fc	0.11222264
43	0xbd00c723	-0.03143991
44	0x3d29255d	0.041295398
45	0x3e1a8612	0.15090206
46	0xbe00135d	-0.12507387
47	0x3d7d70bd	0.061875094
48	0xbe3ac9fd	-0.18241115
49	0xba2d2688	-0.0006605168
50	0x3df5613d	0.11981437
51	0x3e84a33b	0.25905785
52	0x3df985ff	0.12183761
53	0xbe4075e4	-0.18794972
54	0x3c8186e9	0.0158114
55	0xbe57bd70	-0.21068358
56	0xbe5865f2	-0.21132639
57	0x3e292a74	0.16520101
58	0xbe5c9f21	-0.21545078
59	0x3b821c49	0.003970657
60	0xbe4ec7d5	-0.20193417
61	0x3dde74d4	0.10862127
62	0xbda6e543	-0.08149197
63	0x3e18fa05	0.14939125
64	0x3d87f366	0.066382214
65	0xbd6a9aa4	-0.057276383
66	0x3eab7baa	0.33492786
67	0xbe3f37df	-0.18673657
68	0x3d6c8a5d	0.05774914
69	0xbeaadd62	-0.33372027
70	0xbe56d45a	-0.20979443
71	0xbe96788e	-0.2938885
72	0xbbdbae10	-0.0067040995
73	0x3e2af953	0.16696672
74	0xbe91398a	-0.2836421
75	0xbd2803e1	-0.041019324
76	0x3e171de4	0.14757496
77	0xbdb1f7fd	-0.08689878
78	0x3e7854f0	0.24251151
79	0x3d29df85	0.04147293
80	0xbc6caa8d	-0.014444959
81	0xbe1465bc	-0.14491934
82	0xbd9c5bb0	-0.076346755
83	0xbe93b70a	-0.28850585
84	0x3e3da101	0.1851845
85	0x3e8177fb	0.2528685
86	0x3e0cf677	0.13765894
87	0xbdc5e9a1	-0.09663702
88	0x3e05f5a3	0.13081984
89	0x3e5f43c3	0.21803193
90	0x3d3f86e4	0.0467595
91	0xbea56f26	-0.32311362
92	0xbe48dd1c	-0.19615597
93	0x3d0e6bd7	0.034770813
94	0x3de73c1d	0.112907626
95	0x3d920eaa	0.07131703
96	0x3d941f5b	0.07232543
97	0xbe8c8ade	-0.27449697
98	0x3e0a39fe	0.13498685
99	0xbdd05661	-0.101727255
100	0x3eac0ad2	0.33602005
101	0x3ddf2e84	0.10897544
102	0xbb12a26a	-0.0022374638
103	0xbdf941bd	-0.12170742
104	0xbd0c321a	-0.034227468
105	0x3d8bb566	0.068217084
106	0xbe31e1ce	-0.17371294
107	0x3d3a87c6	0.04553964
108	0xbe496ad2	-0.19669655
109	0xbe43a27e	-0.19104955
110	0x3da9547f	0.082680695
111	0xbd99e817	-0.07514971
112	0xbe2e24fa	-0.17006293
113	0x3e495228	0.19660246
114	0x3d1ff1ce	0.039048962
115	0x3dd3a408	0.10334021
116	0x3d0e4edd	0.03474318
117	0x3e5170d1	0.20453192
118	0x3bad4f16	0.005288969
119	0xbd5ac3f5	-0.053409535
120	0x3da64541	0.08118678
121	0xbd9948c2	-0.074845806
122	0xbdb8d2fe	-0.090246186
123	0xbe596b15	-0.21232255
124	0x3d651bb3	0.05593462
125	0x3c922851	0.01784149
126	0xbe69125a	-0.22760907
127	0xbd733a3b	-0.059381705
128	0xbd539f01	-0.05166531
129	0xbd1dedc7	-0.03855684
130	0xbdc85d0e	-0.09783374
131	0xbdd73971	-0.10509003
132	0xbe0bf68c	-0.13668269
133	0xbd5e548f	-0.05427986
134	0x3e066d33	0.13127594
135	0xbdb69552	-0.08915199
136	0xbe3ebe19	-0.18627204
137	0xbe12f806	-0.14352426
138	0x3e3cfcb9	0.18455781
139	0xbba93ff0	-0.0051650926
140	0x3dea8a01	0.114521034
141	0x3e99cd41	0.3003941
142	0x3dee4767	0.11634713
143	0xbcaa12b2	-0.020760868
144	0x3c5230c5	0.01282901
145	0xbd8d3512	-0.06894888
146	0xbddf0af3	-0.1089076
147	0x3d38e5c1	0.045140985
148	0x3c0fb0ba	0.008770162
149	0x3dec077a	0.115248635
150	0xbddfa0be	-0.10919331
151	0xbd7e7dbc	-0.06213163
152	0x3e159e90	0.14611268
153	0xbd0bb47c	-0.03410767
154	0xbd045e07	-0.032316234
155	0x3cb4b9fa	0.022061337
156	0xbdff466b	-0.12464603
157	0xbcca6622	-0.024706904
158	0x3daca09a	0.0842907
159	0x3e385dd3	0.18004541
160	0xbd18f0cb	-0.037339013
161	0xbe0c174d	-0.13680764
162	0xbe1f1364	-0.1553474
163	0xbe664775	-0.22488196
164	0xbd352a6c	-0.04422991
165	0x3d8cd6e1	0.068769224
166	0x3db1f1db	0.086887084
167	0xbc47aa38	-0.012186579
168	0xbe06dc66	-0.13170013
169	0xbdc6983f	-0.096970074
170	0x3d95d58d	0.07316122
171	0x3c2e8f55	0.01065429
172	0x3dcb901a	0.099395946
173	0xbd3a7c8b	-0.04552893
174	0x3ce96e47	0.028494967
175	0xbe972523	-0.2952052
176	0xbdd45eb9	-0.103696294
177	0xbcb5776a	-0.022151668
178	0x3bea84a0	0.0071569234
179	0xbe0c1e82	-0.13683513
180	0x3ccad507	0.024759782
181	0xbda542e3	-0.08069398
182	0xbdb5831f	-0.088629
183	0xbd69a8db	-0.0570458
184	0xbe09ea1a	-0.13468209
185	0xbdaaa0b8	-0.08331436
186	0xbcf53f59	-0.029937433
187	0x3d6a37fc	0.057182297
188	0x3dfd5b54	0.12370935
189	0xbe4a98b3	-0.19784813
190	0x3d3da254	0.046297386
191	0xbe03ee4b	-0.1288387
192	0xbcbaee53	-0.02281872
193	0x3ddba1b9	0.107242055
194	0x3ba2a7b7	0.004963841
195	0xbd8f6245	-0.07001165
196	0xbe93fda6	-0.28904456
197	0xbe1a330d	-0.15058537
198	0xbe8b324a	-0.27186805
199	0xbdca8b5c	-0.09889862
200	0x3d1907ea	0.037361063
201	0x3de6c0a8	0.11267215
202	0x3d19a799	0.03751335
203	0x3dbb2ba4	0.09139183
204	0xbdd2ad6c	-0.10286984
205	0xbe527780	-0.20553398
206	0x3db03992	0.08604731
207	0x3e03f2b7	0.12885557
208	0xbd2b9cf6	-0.041897736
209	0xbe2aed47	-0.16692077
210	0xbc898b55	-0.016790072
211	0x3e196876	0.14981255
212	0xbd043e2e	-0.03228586
213	0xbdde51ac	-0.108554214
214	0xbd98a65c	-0.074536055
215	0xbec5c69d	-0.38628092
216	0xbe6888b2	-0.22708395
217	0x3de93a0d	0.113880254
218	0x3d17cd52	0.037061043
219	0xbdccf563	-0.10007741
220	0x3de10ec8	0.109891474
221	0x3d1fa894	0.038979128
222	0xbdaf6e75	-0.0856599
223	0xbdfb1862	-0.1226051
224	0xbdc99e62	-0.09844662
225	0xbe40569a	-0.18783036
226	0xbce1e983	-0.027577167
227	0xbdd35c57	-0.10320347
228	0x3c190f5c	0.009342041
229	0xbd280c27	-0.041027214
230	0xbddef850	-0.108872056
231	0x3ca15f8c	0.01969888
232	0xbe197923	-0.14987616
233	0xbd245a09	-0.040124927
234	0x3e30c43f	0.17262362
235	0xba74469f	-0.00093183847
236	0x3dec3e3b	0.11535307
237	0x3d164652	0.036688156
238	0xbe38cdd5	-0.18047269
239	0x3dbe571c	0.092939585
240	0xbe263499	-0.16231002
241	0xbe1143d9	-0.14186038
242	0xbe4de867	-0.20108186
243	0xbe20cbb8	-0.15702713
244	0x3cbe10ad	0.023201311
245	0x3e2b3a9b	0.16721575
246	0xbe7a9095	-0.24469216
247	0xbcdc3c4f	-0.026884226
248	0x3e161be2	0.14659074
249	0xbe188deb	-0.14897887
250	0xbe77287c	-0.24136537
251	0xbda35883	-0.07975867
252	0x3c4cf1bb	0.012508805
253	0x3c1237be	0.008924423
254	0xbe87e8e4	-0.2654487
255	0xbd8af22e	-0.06784473

network_body.linear_encoder.seq_layers.4.bias f4 [128]
0	0xbcbd1042	-0.023079041
1	0x3ddecd2c	0.10878977
2	0x3d586000	0.052825928
3	0x3d1ed427	0.038776543
4	0xbd918235	-0.07104913
5	0xbd6103ab	-0.05493514
6	0xbe10e89d	-0.14151235
7	0xbd90b9d7	-0.07066696
8	0xbcd1f7c8	-0.025630847
9	0xbd090fa7	-0.033462193
10	0x3d2fdef1	0.042937223
11	0x3d70cb3b	0.058787566
12	0x3e2139c8	0.15744698
13	0xbaba9413	-0.0014234803
14	0xbce2fe34	-0.027709104
15	0x3d8f13fc	0.069862336
16	0x3cf6c908	0.030125156
17	0xbe17695b	-0.14786284
18	0xbdaf7fc9	-0.08569295
19	0xbd00c338	-0.031436175
20	0xbe18ed0f	-0.1493418
21	0x3c498fac	0.01230232
22	0xbc596235	-0.013268043
23	0x3da363d5	0.07978026
24	0xbd6f2a19	-0.058389757
25	0x3b7c3b3e	0.003848746
26	0x3bcd3ea0	0.006263569
27	0x3c592c61	0.01325521
28	0xbd49fa50	-0.049310982
29	0xbdc12551	-0.09430946
30	0x3e13ae3f	0.14421938
31	0x3cd87b02	0.026425842
32	0x3c7a7b57	0.015288196
33	0x3d31d20e	0.043413214
34	0x3df44355	0.11926905
35	0xbd247ce5	-0.04015817
36	0xbd060d28	-0.03272739
37	0x3d70a705	0.058753032
38	0xbcb794fa	-0.022409905
39	0xbd8f9c3b	-0.070122205
40	0x3b1c1532	0.0023816344
41	0xbce99fc3	-0.028518563
42	0xbccbbe28	-0.024870947
43	0xbc934214	-0.017975844
44	0x3d656746	0.056006692
45	0xbde77333	-0.113012694
46	0xbe4d3cca	-0.2004272
47	0x3b68f884	0.0035548517
48	0xbdc38ed0	-0.09548724
49	0x3dd337d1	0.103133805
50	0x3d779ca5	0.060452122
51	0xbe784d05	-0.2424813
52	0x3acb0794	0.0015489929
53	0xbe03bbbd	-0.12864585
54	0xbdf5db09	-0.12004668
55	0xbdbe6554	-0.092966706
56	0x3d223dc1	0.039609674
57	0x3cb52bef	0.022115676
58	0xbdde6f3e	-0.108610615
59	0xbdc832df	-0.09775328
60	0x3d8006b8	0.062512815
61	0x3b62896e	0.0034566778
62	0x3d89debe	0.06731938
63	0xbd0dcc4a	-0.034618653
64	0xbc809b98	-0.015699193
65	0xbdd5259d	-0.10407565
66	0x3e041abc	0.12900823
67	0x3ca760f4	0.020431973
68	0xbe3d7551	-0.18501784
69	0x3d8646ad	0.06556449
70	0xbc12ae33	-0.008952665
71	0xbd8183c7	-0.06323963
72	0xbdc6a124	-0.09698704
73	0x3d9e47c0	0.07728529
74	0xbcf17234	-0.029473402
75	0x3d1ccf00	0.038283348
76	0x3da923ea	0.08258803
77	0x3d0d8f4c	0.034560487
78	0x3d5390a5	0.051651616
79	0xbd01da87	-0.031702545
80	0xbca84215	-0.020539323
81	0xbd033749	-0.032035146
82	0xbc185699	-0.00929799
83	0xbe174476	-0.1477221
84	0x3becacf4	0.007222766
85	0xbd85ed24	-0.065393716
86	0xbc5688d3	-0.013094145
87	0x3cc601c4	0.024170764
88	0xbdc03013	-0.093841694
89	0xbc7492ab	-0.0149275465
90	0xbe244136	-0.16040501
91	0x3e17dcbb	0.14830296
92	0x3c5aa2c6	0.013344472
93	0x3e030c07	0.12797557
94	0x3cefe8c9	0.029285805
95	0x3d74def4	0.059782937
96	0xbe1a9c74	-0.15098745
97	0xbe56b7dc	-0.20968574
98	0x3dc093b7	0.09403174
99	0xbd5ae258	-0.053438514
100	0x3d909fd9	0.070617385
101	0x3dccef4e	0.10006581
102	0x3e28f342	0.16499045
103	0x3de9adac	0.114100784
104	0xbd09b8b2	-0.033623405
105	0xbd622b34	-0.055216983
106	0xbc91bf83	-0.017791515
107	0xbd07e1b1	-0.03317422
108	0x3d7212c5	0.05909993
109	0x3e24ad87	0.1608182
110	0x3dac1e98	0.08404273
111	0xbe15df0d	-0.14635868
112	0xbe51eaf5	-0.20499785
113	0x3dcf1183	0.10110762
114	0x3d897d6e	0.06713377
115	0xbdcaae53	-0.09896531
116	0xbcbcbd57	-0.023039503
117	0x3df4cb56	0.11952846
118	0x3d840a97	0.06447332
119	0x3d5c1726	0.053733014
120	0x3c361f1b	0.011115815
121	0x3d07beb6	0.03314086
122	0xbd782e70	-0.06059116
123	0xbdce9f5b	-0.100889884
124	0x3dc8a996	0.09797971
125	0x3cc69107	0.024239076
126	0xbcf938a1	-0.03042251
127	0x3d1a8c65	0.037731547

network_body.linear_encoder.seq_layers.4.weight f4 [128, 128]
0	0x3e18ed84	0.14934355
1	0x3da7aae2	0.0818689
2	0x3e219d44	0.15782648
3	0x3c9b6cf3	0.01897285
4	0xbe0c2f5e	-0.13689944
5	0x3d135e61	0.03597868
6	0xbc7ea46e	-0.015542133
7	0x3d89f4ca	0.06736143
8	0xbe8371f5	-0.2567288
9	0x3dcf7c22	0.10131098
10	0xbe398f67	-0.1812111
11	0xbd796282	-0.06088496
12	0xbe9d12c7	-0.30678388
13	0xbd9f1335	-0.07767335
14	0xbd81ba8e	-0.063344106
15	0xbcbce01c	-0.023056082
16	0xbe527b63	-0.20554881
17	0xbe498fc9	-0.19683756
18	0xbe1826ea	-0.14858595
19	0x3e0e06fa	0.13869849
20	0x3d2c49f5	0.04206272
21	0xbd8d2560	-0.06891894
22	0x3ab16717	0.0013534751
23	0xbe5baa98	-0.21451795
24	0xbe546ece	-0.20745394
25	0xbd7c08a5	-0.06153168
26	0xbc89ca44	-0.01682008
27	0xbd072e36	-0.033003055
28	0x3d9f785a	0.07786627
29	0xbde45e12	-0.11150755
30	0x3d9e0470	0.0771569
31	0x3d801858	0.06254643
32	0xbc883213	-0.01662544
33	0xbda56486	-0.08075814
34	0xbdcfac8d	-0.10140333
35	0xbd96bf1b	-0.07360669
36	0xbdf82ca0	-0.121178865
37	0xbcb0e7ef	-0.02159497
38	0x3db939cf	0.09044229
39	0x3e3549f5	0.17703994
40	0xbd995034	-0.07486001
41	0xbe39c5f9	-0.18141927
42	0x3e36973a	0.17831126
43	0x3db0b5f8	0.08628458
44	0xbe29b86e	-0.1657426
45	0xbd93241a	-0.0718462
46	0x3d583859	0.052788112
47	0xbe1276d3	-0.1430314
48	0xbd555d23	-0.052090775
49	0x3d7b4dde	0.061353557
50	0xbdd49807	-0.103805594
51	0xbd4ec280	-0.05047846
52	0xbd978595	-0.073985256
53	0xbdc04918	-0.093889415
54	0xbb8a84a9	-0.00422724
55	0xbe0587c1	-0.13040067
56	0x3dbc7587	0.09202104
57	0xbdd21787	-0.10258394
58	0xbe1fa186	-0.1558896
59	0x3df4663b	0.119335614
60	0x3e52be58	0.20580423
61	0xbc162172	-0.009163247
62	0xbd2e4c97	-0.04255351
63	0xbe01cb52	-0.12675217
64	0xbe150a75	-0.1455477
65	0xbcd1d949	-0.025616305
66	0xbdf8ad6c	-0.121424526
67	0xbe55a902	-0.20865253
68	0xbc608f69	-0.013706067
69	0x3e43d01b	0.19122355
70	0x3e5de991	0.2167113
71	0xbe013088	-0.1261617
72	0x3da14c49	0.07875878
73	0x3d22e160	0.039765716
74	0xbdccb3eb	-0.09995254
75	0xbd0ab13f	-0.03386044
76	0x3e32037a	0.17384139
77	0xbd1cac19	-0.038250063
78	0x3bd7ff3d	0.006591706
79	0x3d91d1b1	0.071200736
80	0xbd549428	-0.051899105
81	0x3cdd8a13	0.027043378
82	0xbdba8609	-0.091075964
83	0x3d3c8cd5	0.046032745
84	0xbe8e44d5	-0.2778689
85	0xbe5fc129	-0.21851029
86	0xbcfbb264	-0.030724712
87	0x3c3a132b	0.011357109
88	0x3e1801bc	0.14844412
89	0xbd4bb0d2	-0.049729176
90	0x3c2770b1	0.010219739
91	0xbe2024f7	-0.15639101
92	0xbd12912f	-0.03578299
93	0x3dbfd385	0.09366516
94	0xbe0da065	-0.13830717
95	0xbe26008a	-0.16211143
96	0xbdd4fe67	-0.10400086
97	0x3cdfb49b	0.0273078
98	0xbe024af0	-0.12723899
99	0x3e0e1e27	0.1387869
100	0xbd94c7e4	-0.072646886
101	0xbcd9245e	-0.026506599
102	0x3e0306c7	0.12795554
103	0x3d926266	0.07147674
104	0xbe0a0d94	-0.13481742
105	0x3c99ac84	0.01875902
106	0xbd84011a	-0.064455226
107	0x3d55b64e	0.052175812
108	0xbd8b61e2	-0.06805779
109	0x3deb0dff	0.11477279
110	0xbc29d7e3	-0.010366413
111	0xbd341cde	-0.043972842
112	0xbcf9a523	-0.030474251
113	0xbe40bc2c	-0.18821782
114	0xbdd96b23	-0.10616138
115	0xbd89214d	-0.06695805
116	0xbe35400a	-0.1770021
117	0xbd5170e6	-0.05113306
118	0xbd8d6fcb	-0.069060884
119	0xbd27faab	-0.04101054
120	0xbcbaef2e	-0.022819128
121	0xbcffebb6	-0.031240325
122	0xbd232d43	-0.039838087
123	0x3dc331b2	0.09530963
124	0x3e7de291	0.2479346
125	0xbd48b221	-0.048998002
126	0x3d807011	0.06271375
127	0xbeccfd04	-0.40036786
128	0xbe8d29c5	-0.2757093
129	0xbd0cb31d	-0.034350503
130	0xbe5d2cd7	-0.21599136
131	0xbed1f756	-0.41009015
132	0x3e0d85ef	0.13820623
133	0xbd9b91f5	-0.075961985
134	0x3dddb383	0.10825255
135	0xbe13518d	-0.14386578
136	0xbd15dec7	-0.03658941
137	0xbeb282e1	-0.34865478
138	0xbc30c8a7	-0.010790027
139	0x3e5b1906	0.21396264
140	0xbdf0f20a	-0.11764915
141	0xbe9a1fdc	-0.30102432
142	0xbe2c0203	-0.16797642
143	0x3c6c42d5	0.014420231
144	0x3d0e68f1	0.03476805
145	0x3d1a972c	0.037741825
146	0xbe6d71fd	-0.23188014
147	0x3dd48011	0.10375989
148	0xbb2c4a14	-0.0026289271
149	0xbea1a509	-0.31571224
150	0x3e32ff19	0.17480125
151	0x3d69e347	0.057101514
152	0x3e98396c	0.2973131
153	0xbe396a2c	-0.18106908
154	0x3e3f3ec8	0.18676293
155	0xbdbaf9fd	-0.09129713
156	0xbe05962d	-0.13045569
157	0x3d6d5bb2	0.057948776
158	0x3d17c764	0.037055388
159	0xbe2e5edd	-0.17028375
160	0x3e030a3d	0.12796874
161	0xbe67a918	-0.22623098
162	0xbd470fd4	-0.04859908
163	0x3db1ac8c	0.08675489
164	0x3c9e53bc	0.019327037
165	0xbcdf0cf4	-0.027227856
166	0x3e160c3b	0.14653103
167	0xbe4e9845	-0.20175274
168	0x3ba76cd4	0.005109409
169	0xbe6bbfc3	-0.2302237
170	0x3da4a768	0.08039743
171	0xbdee9b40	-0.11650705
172	0xbc997e72	-0.018737052
173	0x3dcee7ba	0.10102792
174	0xbd86d34c	-0.065832704
175	0x3daea8a8	0.085282624
176	0xbdcdf491	-0.10056413
177	0xbc9ea36c	-0.019365035
178	0xbd025abe	-0.03182482
179	0x3da7d1e1	0.08194328
180	0x3d2859af	0.041101154
181	0x3e212a89	0.15738882
182	0xbca20d37	-0.019781692
183	0x3c97a884	0.018512972
184	0x3bb1fc27	0.00543167
185	0x3caadbf4	0.020856835
186	0xbda971b3	-0.082736395
187	0xbdd2c2bd	-0.1029105
188	0x3e788ff4	0.24273664
189	0xbe461c4e	-0.19346735
190	0xbd850506	-0.06495099
191	0xbd0b7bb2	-0.034053512
192	0xbd380bfe	-0.04493331
193	0xbdb6a580	-0.08918285
194	0xbd626f48	-0.055281907
195	0x3e03f670	0.12886977
196	0xbd2a458f	-0.041570242
197	0x3ba3cf22	0.0049990574
198	0xbd6cffa0	-0.05786097
199	0x3e2cde70	0.16881728
200	0xbdb1273a	-0.0865006
201	0x3ce18a72	0.027531836
202	0x3d137501	0.036000255
203	0x3e62a2cc	0.22132415
204	0xbdf7469f	-0.12074017
205	0xbe83c3e4	-0.2573539
206	0x3c80618c	0.015671514
207	0x3db9024a	0.0903364
208	0x3cc2b786	0.023769151
209	0x3d8fd294	0.070225865
210	0x3d83a8be	0.064286694
211	0xbe216c5e	-0.15763995
212	0x3dc556cd	0.096356966
213	0x3e1932e2	0.14960817
214	0xbd89f117	-0.06735437
215	0x3e09a569	0.13442005
216	0xbdd4bb19	-0.103872485
217	0x3e0c16a1	0.13680507
218	0x3ba051e8	0.0048925765
219	0x3d27768e	0.040884547
220	0xbd7da24b	-0.061922353
221	0xbe15894e	-0.14603159
222	0xbe8529e6	-0.26008528
223	0x3dc4615d	0.09588883
224	0xbc343fa6	-0.011001503
225	0x3d5f6952	0.0545438
226	0xbd5135b9	-0.051076625
227	0x3e1c40a3	0.15259032
228	0xbf02253d	-0.5083807
229	0xbdaa36d1	-0.08311237
230	0xbcbcceb4	-0.023047782
231	0x3d1a2a49	0.037637983
232	0x3e854f88	0.2603724
233	0xbd6d6e5a	-0.057966568
234	0xbda5c37a	-0.08093925
235	0x3c69a365	0.014260148
236	0x3be323cf	0.006931759
237	0xbe2116d2	-0.15731362
238	0x3dc85fa9	0.09783871
239	0x3d5e1318	0.054217428
240	0xbde6024d	-0.112309076
241	0xbe64d69a	-0.22347489
242	0xbc9dbf6b	-0.019256314
243	0xbe32c337	-0.17457281
244	0xbdad28da	-0.084550574
245	0x3beb28c4	0.0071764905
246	0x3c333228	0.010937251
247	0xbb936740	-0.0044983923
248	0x3e0d6542	0.13808158
249	0xbd9b52fe	-0.07584189
250	0x3d767c94	0.0601774
251	0xbe00d6cd	-0.1258194
252	0xbc06a57d	-0.008218166
253	0xbe4c3ae6	-0.19944343
254	0xbe50fd48	-0.20409119
255	0xbe33b57b	-0.17549698

network_body.vector_processors.0.normalizer.running_mean f4 [10]
0	0xbd0696f4	-0.032858804
1	0x3ec67bc7	0.3876631
2	0xbef51de3	-0.47874364
3	0x3eafaedb	0.34313092
4	0x3cc4264c	0.023944043
5	0xbdf5b0b0	-0.11996591
6	0xbe9c2e91	-0.30504277
7	0x3ee9dbac	0.4567541
8	0x3eb06cfe	0.34458154
9	0xbd21c683	-0.039495956
