Assets/Scripts/2.1 SensorBall&Cat/BallEngineAI-8M.onnx (onnx, 154666 bytes, 11 tensors)

69 f4 [35]
00000000: 2d0f 733e 1edb 043e d9b2 793e 1926 093e
00000010: 19be 673e fb0a 013e d032 753e e2c8 073e
00000020: 3dc8 5e3e 7dd5 fb3d 34b5 673e 6cd6 003e
00000030: 637e 5d3e 93d5 fb3d a19a 623e 7722 fc3d
00000040: a19a 623e 7722 fc3d e047 9240 0fb4 623d
00000050: c072 9240 c65a 8140 6d74 1e3d 0519 8240
00000060: ab33 9540 0c9f 593d f283 9440 6d5d b939
00000070: 6d5d b939 6d5d b939 6d5d b939 6d5d b939
00000080: 6d5d b939 6d5d b939 6d5d b939
0.23736258 0.12974212 0.24384631 0.1339344 0.2263111 0.12601845 0.23945165 0.13260224
0.21756072 0.12296579 0.22627717 0.12581795 0.21630244 0.122965954 0.22129299 0.12311261
0.22129299 0.12311261 4.571274 0.0553475 4.5765076 4.0423307 0.03868525 4.065554
4.662557 0.053130195 4.6411066 0.00035355557 0.00035355557 0.00035355557 0.00035355557 0.00035355557
0.00035355557 0.00035355557 0.00035355557

action_model._continuous_distribution.log_sigma f4 [1, 2]
00000000: e4ab d33e 8eff 0c3e
0.4134208 0.13769361

action_model._continuous_distribution.mu.bias f4 [2]
00000000: 980b ab3c dd0a f4bc
0.020879552 -0.029790336

action_model._continuous_distribution.mu.weight f4 [2, 128]
00000000: 9f31 ddbd 2ebf ca3c dc3c 6a3c 6396 ebbb
00000010: 3be1 90bc 601d f9bc 6afd 0f3e 0d4e 2fbb
00000020: 3251 183e d62a c0bc 87f8 70bb 2314 e63a
00000030: 2e30 a33d 73a3 d5bc 1e57 4fbd 4e8b d4bb
00000040: 23f7 96bd 4a0c 343d fdb0 0f3e e14f 08bd
00000050: fdba 8e3d 3854 1a3d a621 4fbd 48e4 b83d
00000060: f7f0 e2bc 9286 dc3c 20aa 75bd 4544 dbbd
00000070: 3813 cabd d462 223e eb7c b3bd 3827 103e
00000080: 777e 863d 70b5 7d3d 4e36 a23c 7aa5 2c3d
00000090: 4bea febd 674a 363d 908c 36bc b538 d1bd
000000a0: ec59 f5bd 0035 15bc 1ed0 1abe c35f e0bc
000000b0: 70bc f2bd db7c 95bd 8859 053e 6d7d d83d
000000c0: 6d80 87bd 8a16 243d 296c 56bb 3ac0 033e
000000d0: e365 3cbd a07d b7b8 d78e d4bd 960b 44bc
000000e0: f0ab 1a3e 14c2 1a3e e0fc b6ba 8088 ae3c
000000f0: 87cb bb3d 0ddc 2a3d 507c cfbd 5ce2 b93c
00000100: aba0 37be a63c f53c 9017 e23d eec8 5fbe
00000110: 7cec acbd 3ea2 02bc 4775 c13b c74c 47bc
00000120: b5d9 5e3c 653d bd3c 9fd2 18be 6ea9 933d
00000130: 992a 10bd 2fea 4c3e a886 a6bd f935 a2bd
00000140: cb25 1cbd 8a51 853d 39db 49bd b013 cd3c
00000150: 1a00 1a3c 6e01 41bc f606 b03d 2555 57bb
00000160: db09 513d 232a 5dbd 9749 08bb 5cce 613d
00000170: 1517 b4bd 2188 2cbd 01bc 8a3c 1d12 c2bd
00000180: 5fe6 8a3d 0b33 093e 0302 6abd 327a 34bd
00000190: db7a e33c 8460 5e3d aec7 a13c 3ec2 b13d
000001a0: f9c1 2f3c 6eeb 243d af1c ec3d 2def 803d
000001b0: 523a 87bd f98c f53b ec87 ee3c 47c9 e53d
000001c0: 1687 bdbd e2ac 963d 9d7f 513d 2780 1c3e
000001d0: 9f7a 6ebd 8f8b 64bd 5f44 d5bc 251a 8bbd
000001e0: 9c06 88bd 1cac 56bc b3ff b4bc 7b1e 88bd
000001f0: 506d 22bd 7d82 91bd 0f25 1ebe 5c7d 433d
00000200: 45b9 0ebd a773 34bc d84d 0fba ca32 27be
00000210: 6b01 9b3d 248c a23d c6b6 bf3d 296c 2dbe
00000220: 60d8 953d d710 9c3d 41c1 433e 6b3e f8ba
00000230: 77f4 1ebc 9ebc b53d 1274 f2bc 5aee 8c3c
00000240: 3863 fa3c 4c7d 9f3d 6a7c 03be c912 803d
00000250: 484d 26bd 62e9 22bd c91d dfbc e6cf b93c
00000260: 595e 8b3c a9f2 e8bc 66f0 4cbd 4842 55bd
00000270: 0b7a 1abd d6a9 e33c 22ee 5c3d 1654 bdbd
00000280: 7ae6 9abc a3b0 adbd 353c 803c cfb8 95bd
00000290: 01f9 143d 5309 803d 00b3 093d 6bb3 dbbb
000002a0: 4c46 e9bc e12a c63c 4b88 423e be3f cb3d
000002b0: 1666 27bd ad7a 2dbc f4f2 8cbc bea8 59bd
000002c0: f86b 8b3d 6583 8b3c 36af 223e d450 23bd
000002d0: 4b8a d13d 1de1 9b3d 5b87 07bd c542 a43d
000002e0: 1d28 a9bd 7620 acbc 4dbd ab3b 4871 043d
000002f0: bfae a33d 9d77 20bc c92f 273e 9080 9fbc
00000300: 81aa cc3c e4a9 c23d 58f4 1cbe 411b 99bc
00000310: 5bed 87bd 55da 4ebc c219 e3bc c638 653d
00000320: 6d6a 7d3d 06ad 07be 0750 abbd 0368 bd3c
00000330: 1153 7d3d d8dd 5f3d 83cc 79bd e7ac 683d
00000340: 4fcd a43b 8b55 503c 3c05 e93a a0fc ccbd
00000350: 9165 4c3c b1be 133e 4ecd c83b 27fa 8fbb
00000360: ae76 573d 2487 f5bc a349 1b3d 78f6 27bd
00000370: b8ce 1abe 0f18 1a3e f674 49bd 83cb 1a3e
00000380: 5b2a 983d 8646 aabd 34d4 b23d 99a8 a6bd
00000390: 7e20 073d 5e71 0abe c338 823c a861 ed3d
000003a0: cef9 f33d 9f1d be3d 7c68 4abe c00b cabc
000003b0: c425 503d f380 03bd 6de0 9f3c e5e2 2c3e
000003c0: 4dc8 76bd 2ddb 55bc 89f0 c3bd 572f 853d
000003d0: df27 cfbc 8d71 503d 55ce 00bd 441b 093e
000003e0: 3263 2bbd d262 0dbd 9490 9c3d 087b 6a3d
000003f0: 4a1f 103e c993 813b 43f9 d8bd 9f41 473d
-0.1080048 0.024749365 0.014296737 -0.0071895584 -0.017685523 -0.030409515 0.14061514 -0.0026749403
0.14874724 -0.023457926 -0.0036769228 0.0017553609 0.07968174 -0.026078915 -0.05062019 -0.006486333
-0.07371356 0.043957032 0.1403236 -0.033279303 0.06969259 0.037677974 -0.0505692 0.09027916
-0.027702792 0.026919637 -0.059976697 -0.10706381 -0.09866947 0.15858012 -0.087640606 0.14077461
0.0656709 0.06194061 0.019801285 0.04215 -0.124470316 0.04450455 -0.011141911 -0.10215894
-0.11980042 -0.0091068745 -0.15118453 -0.027389413 -0.11852348 -0.07299205 0.13022435 0.10570798
-0.06616292 0.040060557 -0.0032718277 0.12866297 -0.045995604 -8.7495195e-05 -0.10378807 -0.011965653
0.15104651 0.15113097 -0.0013960861 0.021305323 0.09169679 0.041713763 -0.101311326 0.022690944
-0.17932384 0.029936146 0.110396504 -0.21853992 -0.08443543 -0.007973252 0.005903873 -0.012164301
0.01360171 0.023100564 -0.14924096 0.072100505 -0.035196874 0.20011209 -0.081311524 -0.07920451
-0.03812198 0.06509693 -0.049281333 0.025033802 0.009399438 -0.011780126 0.08595078 -0.0032857147
0.05103479 -0.053995263 -0.0020795816 0.05512844 -0.08793465 -0.04212201 0.01693535 -0.09476111
0.06782221 0.13398378 -0.057130825 -0.044061847 0.027768543 0.054291263 0.019748535 0.08679627
0.010727399 0.040263586 0.115289085 0.06295619 -0.066029206 0.007493612 0.029117547 0.11220031
-0.09254281 0.073571935 0.051147092 0.15283261 -0.05822241 -0.055797156 -0.026033578 -0.06792096
-0.06641886 -0.0131025575 -0.022094583 -0.06646439 -0.03965503 -0.07104967 -0.15443824 0.047726974
-0.034844656 -0.011013902 -0.0005466617 -0.16327968 0.0756863 0.07936886 0.09361033 -0.16935791
0.07316661 0.076203994 0.1911669 -0.00189395 -0.00970184 0.088738665 -0.029596362 0.017203499
0.03056489 0.0778757 -0.12840429 0.06253583 -0.040601045 -0.039773352 -0.027235882 0.022682142
0.017012762 -0.028436022 -0.05003395 -0.052065164 -0.037714045 0.027790945 0.05393804 -0.09244554
-0.018908728 -0.084809564 0.015653709 -0.0731064 0.03637028 0.062517785 0.033617973 -0.006704738
-0.028475903 0.024190368 0.18997304 0.09924267 -0.04086884 -0.01058833 -0.017205693 -0.05313944
0.06807703 0.017030427 0.1588715 -0.039872006 0.102314554 0.07611296 -0.03308807 0.08020548
-0.08259604 -0.021011572 0.0052410723 0.032334596 0.079923145 -0.009794143 0.16326822 -0.019470483
0.024983646 0.0950506 -0.15327585 -0.018689753 -0.06637069 -0.012625297 -0.027722243 0.055962346
0.061869074 -0.13249597 -0.083648734 0.023120886 0.061846796 0.054654926 -0.060986053 0.056805518
0.0050293575 0.0127157075 0.0017778049 -0.10009122 0.012475387 0.14428212 0.00612799 -0.004393834
0.052603416 -0.029971667 0.037912022 -0.041006535 -0.1511792 0.1504824 -0.04918381 0.15116696
0.07429954 -0.083142325 0.08731881 -0.08137626 0.03298997 -0.13519809 0.015896207 0.11590892
0.11912881 0.092829935 -0.1976642 -0.024663806 0.050817266 -0.032105397 0.019516194 0.16883428
-0.060249615 -0.013052744 -0.09567363 0.0650317 -0.025287567 0.05088954 -0.031446774 0.13389307
-0.041842647 -0.03451807 0.076447636 0.057246238 0.14074436 0.003954385 -0.10594418 0.048646566

network_body.linear_encoder.seq_layers.0.bias f4 [128]
00000000: ce39 70bc c7fc 86bd 4366 3bbd a50f 97bd
00000010: 594a 47bd 44bd 08bd dd23 66be 85e7 43bd
00000020: 38a5 93bd 3106 133d 6525 6cbd 6424 bf3d
00000030: a836 0dbe 4f7a b2bd 8313 7abd a239 493d
00000040: 7df6 5abd 7c3a 1ebe 35ed 9bbd c053 e33d
00000050: 807c c2bc 02de 113b 9bce b9bc ffeb 2c3d
00000060: c2ed 40bd 6488 c1bd d1ff d6bc 4711 02be
00000070: 23e8 2bbd b085 0fbd c734 ffbd 9f8d f1bd
00000080: e8eb 95b7 5f09 efbc 3c95 fabd 2c92 d5bd
00000090: b155 23bd 6577 e1bd 2998 bebd 1011 81be
000000a0: ddca 41bd 3d8a a5bd 5d9b 08be 544e 87be
000000b0: 6d6a fbbd e162 47bd 7b00 3f3d 7fff 5cbd
000000c0: 4e7d 313b a4b1 b1bd e3e3 d6bd e56b 34bd
000000d0: 419e c1bd 6d1b d23d 6b8a 0ebe 8354 223d
000000e0: e307 85bd 39b6 cfbd b35f fbba 3689 403d
000000f0: 3a94 3a3d f127 03be 51ba 2b3d 3f45 c6bc
00000100: 1e1b ecbd 71b0 0d3d f9f0 d23c 7cbf 12bd
00000110: 201f 13be d101 1ebe c806 833c bd7a dabd
00000120: 740c b2bd 5425 2fbd e4aa 05be b919 0dbd
00000130: 0546 43bd 1137 7e3d 671d 9a3c fd70 1ebe
00000140: 2dca 8cbe 2900 903d 1cde 47be ef2b 1dbd
00000150: 1f17 ffbc 1360 f8bd dcea c8bc 11ba 04be
00000160: 577e 953c d56e 7c3c 4e32 81bd 9a12 02be
00000170: 793a a5bd dd5d 33be 1c17 81bd a1a1 d6bc
00000180: 6de9 c3bd 69bf abbd 0f89 843d 0b65 78be
00000190: afd5 acbd 5382 69be 9ea4 99bc 1cf7 173d
000001a0: 264c 06bd 4652 19be ac17 1abd d5ab c03c
000001b0: b9d7 363c be17 04be ea17 90bd ccfc 8abd
000001c0: 41de 83be 1cb0 54be 872f d4bd 8310 0ebe
000001d0: ae74 bb3c 9cc3 13be 08a4 07be 5ff0 27bd
000001e0: 4642 31be 92f8 aebd c562 ccbd 7064 883d
000001f0: a0c7 58bd eaaa 14be 1e2d 3dbc f21d 2bbe
-0.014662219 -0.06591182 -0.04575182 -0.07376031 -0.048654888 -0.033383623 -0.22474618 -0.047828216
-0.07209247 0.035894576 -0.05765285 0.09333113 -0.13790381 -0.08714735 -0.061053764 0.04912723
-0.053457726 -0.15451998 -0.07613603 0.110999584 -0.023741007 0.002225757 -0.022681525 0.04221725
-0.047101744 -0.094498426 -0.02624503 -0.12701903 -0.04196943 -0.035039604 -0.12461238 -0.1179459
-1.7872037e-05 -0.029179273 -0.122354954 -0.10428271 -0.039876644 -0.11009101 -0.09306366 -0.2520833
-0.047312606 -0.080830075 -0.13340516 -0.26426947 -0.122761585 -0.048678283 0.046631318 -0.053954598
0.0027082744 -0.086764604 -0.10492685 -0.04404821 -0.09454013 0.10259137 -0.1391999 0.039631378
-0.06495645 -0.10142178 -0.0019178301 0.047005855 0.045551516 -0.12808205 0.041925732 -0.024202941
-0.1152861 0.034592096 0.02574967 -0.035827145 -0.14367342 -0.1543038 0.015994444 -0.10667942
-0.086937815 -0.04276021 -0.13053471 -0.03444836 -0.047674198 0.062064234 0.018812848 -0.15472789
-0.27497998 0.070312805 -0.19518322 -0.038371976 -0.031138955 -0.121277 -0.024526052 -0.12961604
0.01824872 0.015407284 -0.06308423 -0.12702408 -0.080677934 -0.17516275 -0.06303236 -0.026200118
-0.09566007 -0.08386118 0.06471454 -0.24257295 -0.084391944 -0.22803621 -0.018755253 0.037100896
-0.032787465 -0.14972791 -0.03762023 0.023519436 0.011159831 -0.12899682 -0.07035811 -0.067864984
-0.25755504 -0.20770305 -0.103606276 -0.13873486 0.022882786 -0.14430088 -0.13246167 -0.04100072
-0.17310438 -0.08543505 -0.09979776 0.06659782 -0.052924752 -0.14518324 -0.011546401 -0.16710642

network_body.linear_encoder.seq_layers.0.weight f4 [128, 35]
00000000: 1a17 3d3e d2de ecbe f93f 663d e664 98bd
00000010: cc4b 163e f8bb a63e c31b de3c 399e a53d
00000020: c888 843c 6446 bb3d 583f d93c 7923 82be
00000030: e217 283e 00be f03d 18f8 89be 7360 cd3b
00000040: 1ca9 1e3e 575a 04be d44c f43e f49d 1b3e
00000050: 17cf 69bb 78c7 aabe cbb4 3f3d 1c3b f73d
00000060: 0b28 173f 48c4 733d 8d4c 9ebe dc7f a7be
00000070: 877a 56be eb1f b1bd e56b 9c3d 9626 e2bd
00000080: 921a ad3e 1105 a6bc f8f1 303d d300 01bd
00000090: 3fb2 373e 4dba 41bd d089 96be 3e62 983c
000000a0: e554 95bd edb0 8dbc 0e77 333d 510a 6fbe
000000b0: d2dc 7e3e 6223 0e3e 4518 7fbe 5d0e 02be
000000c0: 2f5c 0b3e 5e29 8cbe 943f 083e 5d53 083e
000000d0: c353 aebd 5a66 debd 6825 b6ba 59bb b73c
000000e0: 999d a43e b800 87be de1f fc3d 0689 6bbe
000000f0: 2831 fe3d a16c 0abd 5fa5 ca3c f9da 5b3d
00000100: dc96 a0bb 329a cc3c 6170 633e 1e5e f53c
00000110: eacf e2bd 4537 b9bd 5f9b abbe 9898 7a3e
00000120: a691 593d de0d 53be fd5b bc3c 7d80 3abc
00000130: c57d aabc e114 343e cadd 383d 9210 33be
00000140: 4f7a 893e 48ee 5d3d 819c 873d 3e4b cbbe
00000150: a200 803e 5b95 a7bd 256a a1be d9af 66bd
00000160: 6641 fbbe 1178 6abd e286 f73d bb80 dbbd
00000170: 17df 5c3e b03f 4bbe f0e8 813e 551d 323d
00000180: eb80 b03c 644f a83e 8208 6cbe 8381 a53d
00000190: d1d2 1a3e 8e2b 3d3d 243b f83d 252a 7f3e
000001a0: 06db ca3d 43fa 043b 77e1 b6bd b466 7c3e
000001b0: dce6 10bd 75d9 23bd 829e 93bd 2b12 4e3e
000001c0: 38a0 edbd 9dd7 cb3d 7e12 8e3e 1f12 b53e
000001d0: 82a8 91bd 7aa4 b93c dfa5 023e 5093 1cbd
000001e0: cee2 4b3e 6394 06be 4c07 9b3b 13a3 783e
000001f0: 2016 43be 4323 92bd 7a7b f03d 3db3 83be
00000200: ecf9 7d3e b423 51be 5f2b 3a3c 4c7a 61be
00000210: b399 ee3d 5571 14bc c373 5b3e 65b0 6f3d
00000220: 2a3c 713d d1a3 6e3e 5071 9dbd 937a 7e3b
00000230: b29d 14bd 10d3 413e 06fc 4b3d 3d97 8ebe
00000240: 14dd d9bd 83d5 a83c b6d2 c8bd 4f77 853e
00000250: 7049 15be 0c98 2fbe b945 173d 3ae3 8bbd
00000260: 54d7 92be 0674 263e 190c c43c 6fde 0bbd
00000270: 1df9 363d c380 b5bd 5a53 cdbe a553 903e
00000280: 710f fd3d 611c a8be 5907 e8be 0159 df3e
00000290: 9b85 023f 1dc4 9339 e82d 6ebe 81bc 98bd
000002a0: bd1e 843e 0286 35bb 1998 593e 744a a6be
000002b0: c6a5 fdbd cc61 7ebc 94eb 0b3e 596c 06be
000002c0: d848 d7bd 07ce 50be 1cc8 0abe 48ac 9c3e
000002d0: 80a4 0fbd 64a9 893c 819e ca3c 3a0b a93e
000002e0: afec 1d3e 5557 9e3e 511d da3d 525f 223d
000002f0: 69e0 b23d 9b56 9fbe 2730 b23c a1f1 b53c
00000300: a709 913d c510 a63e e617 9bbe 9253 3dbe
00000310: 8dda c73e 7c0b babe 0cd5 363e de83 fabe
00000320: 6b24 1abd 734c 88bd 8ccb 053e 67a4 c0bd
00000330: 17f4 4abe fa0e 3fbd 8c7c 91be 3f4f d33d
00000340: 59e6 f8bd db59 56be 6c35 b23d d85a 44be
00000350: c409 983d 6fa5 b1bb 9932 ba3d 3f1c 013e
00000360: 574a ac3e b4b7 c4bd 55ca 60bd 538e ea3d
00000370: 2372 80bd d18a 0e3d 8c61 843d 23e4 75ba
00000380: 25c1 4f3c 77a5 fb3d 81ca ce3d 8c8b 103d
00000390: 6be7 32bd 122a a83e 4dc8 203c 75bf 0e3b
000003a0: fa1d 953c 45b5 bebd aa65 fb3d 2aae 71bd
000003b0: d0cd c23d 46d1 ff3d c450 49be 6ece 233e
000003c0: b3c3 2f3d e8fb 893e eb47 173e c9e9 323e
000003d0: 34a8 83bd 7fd3 093e 3fc2 66be 02ec 513e
000003e0: 5f70 99be cf8b e2bc b8e6 8cbc 7d78 093e
000003f0: 4f3a 7e3d b4c2 343e 2084 04be 6809 fe3d
0.18465844 -0.46263748 0.056213353 -0.0744112 0.14677352 0.32565284 0.027112847 0.08086819
0.016178504 0.09144285 0.026519462 -0.25417688 0.1641536 0.117549896 -0.26947093 0.006267601
0.15494198 -0.12925087 0.47714865 0.15196973 -0.0035676414 -0.33355308 0.046803277 0.12071821
0.59045476 0.05951336 -0.3091778 -0.32714736 -0.20945178 -0.08648666 0.07637767 -0.11042516
0.33809334 -0.020266088 0.04319951 -0.031494927 0.17939089 -0.04729681 -0.29402018 0.018601533
-0.07291583 -0.017296279 0.04381471 -0.23343779 0.24888924 0.13880685 -0.24911602 -0.12700792
0.13609384 -0.2737531 0.13305503 0.1331305 -0.0851207 -0.10859366 -0.0013896646 0.022428202
0.32151487 -0.26367736 0.12310766 -0.23001489 0.124117196 -0.033795003 0.024737058 0.053675625
-0.0049007963 0.02497587 0.22210838 0.029952105 -0.11074813 -0.09043745 -0.33516976 0.24472272
0.053117417 -0.20610759 0.022993082 -0.011383173 -0.020811925 0.1758609 0.04513339 -0.1748679
0.26851127 0.05418232 0.066216476 -0.39705843 0.25000483 -0.08182784 -0.31526294 -0.056320045
-0.49073333 -0.05724341 0.12086274 -0.10717913 0.21569477 -0.19848514 0.2537303 0.043485004
0.021545848 0.3287307 -0.2305012 0.08081343 0.15119483 0.046184115 0.12120655 0.2491842
0.09905057 0.002029077 -0.08929723 0.24648553 -0.035376415 -0.040002305 -0.07207967 0.20124118
-0.11602825 0.09953234 0.27748483 0.35365388 -0.071122184 0.022661436 0.12758587 -0.038226426
0.19910738 -0.13142543 0.0047310945 0.24280958 -0.19051409 -0.07135632 0.11742301 -0.25722685
0.24802369 -0.20423776 0.01136288 -0.22019309 0.116504095 -0.009060224 0.21430878 0.058517832
0.058895268 0.23304678 -0.07687628 0.0038830384 -0.036283202 0.1892817 0.049800895 -0.2784976
-0.106378704 0.020609623 -0.09805815 0.26067588 -0.14578795 -0.17147845 0.036931727 -0.068304494
-0.28679907 0.16255197 0.02393155 -0.034147676 0.044671167 -0.0886245 -0.40102655 0.28188816
0.12356461 -0.3283415 -0.45318106 0.43622592 0.50985116 0.0002818414 -0.232597 -0.07457829
0.258047 -0.0027698283 0.21249427 -0.32478678 -0.123851344 -0.015526246 0.13664085 -0.13127269
-0.10511941 -0.20391093 -0.13552898 0.3060019 -0.03506899 0.016804405 0.024733784 0.33016378
0.15422319 0.30926004 0.10650123 0.039641686 0.08734209 -0.31120762 0.021751476 0.022209944
0.07081919 0.3243467 -0.3029167 -0.18488911 0.3903393 -0.36336887 0.17854708 -0.48928732
-0.037632387 -0.066552065 0.13065928 -0.09406357 -0.19819675 -0.046645142 -0.28415334 0.10317849
-0.1215331 -0.20932715 0.08701596 -0.19175279 0.07423738 -0.0054213325 0.09091682 0.12608431
0.33650467 -0.09605351 -0.05488046 0.114529274 -0.0627177 0.034800354 0.06463918 -0.00093800033
0.012680327 0.12287419 0.10097218 0.035289332 -0.04367773 0.32844597 0.00981338 0.0021781598
0.01820277 -0.09311918 0.1227525 -0.059003986 0.09511912 0.124910876 -0.19659716 0.15996715
0.042911243 0.26950002 0.14773528 0.17471994 -0.064285666 0.13459586 -0.22535037 0.20500186
-0.29968545 -0.027654557 -0.017199859 0.13424869 0.062067326 0.17652398 -0.12941027 0.12404138

network_body.linear_encoder.seq_layers.2.bias f4 [128]
00000000: 048e 83bc 3141 b63c 3a39 a8bc 472b d8bd
00000010: 196b b8bc af52 ad3c 96b7 18bd dca5 5abe
00000020: b96a 49bd f058 b7bd b0ae 43be af1f 1d3d
00000030: 665e 37be ed7f 96bd 24eb 2abe 465c 4ebe
00000040: 5607 4fbe 08d4 b8bd e6d7 593d 2531 7abd
00000050: 886b da3b f386 63bd 1be0 9ebd ebc7 7b3d
00000060: 0662 55be a1fe 3a3d 9bc5 12be dd2b 46be
00000070: f288 a03d c6f7 283d 61a4 1abd 0140 c63d
00000080: 2b4c 2ebe a8a3 dfbd 2b05 713d 900a 8cbe
00000090: 38f7 3dbe 560b 88be dbd4 c4bd 3af2 8fbd
000000a0: cde6 60be 55f0 25be 26a9 02bd 80f3 9ebe
000000b0: 7054 5dbc 11ea 44bc 5cd8 31be 32f7 91bd
000000c0: 3f6f 54be 5339 9dbd d175 70be a29c 78bd
000000d0: b139 6a3d 9d9e 32bd 0c76 0e3d 54b2 b5bd
000000e0: 6b82 86bd e863 02be e577 0e3d 8f8a 8abd
000000f0: ab39 29be bbfb 2bbd a256 a8bd 0425 06be
00000100: a539 f53c 6a0a 6cbe fd0b 083d c8f5 3bbd
00000110: 091f 00be 90f3 ccbd 8f3d 5abe 1b7e 88bd
00000120: 2798 7bbe de15 01bd 5468 e93c 8b02 c9bc
00000130: c22c 9dbd eaea 0abd c6d7 acbd 4412 96bb
00000140: 4140 f5bd 5803 5ebd 88a4 e8bc 523d 813d
00000150: 105e e9bd 4f20 83bd 3e09 56bd 4277 e9bd
00000160: e1da e43b 9e11 f3bd 9c95 4bbc 760e 50be
00000170: 22df 77bd 1ce5 11be 235b b5bd 280f 19be
00000180: a6c5 193c 32b8 59bd 8733 34bd e002 9bbb
00000190: 2237 a4bd b4e0 b7bb 58f2 653b 3914 08be
000001a0: a5d8 14be 9a14 62be 82cb 99bd 714a 793d
000001b0: 33ad 953c a1d4 233c af2b 90bd d431 11be
000001c0: 8eb8 aebd 2546 05be 0647 01be 4e73 5dbe
000001d0: 1bbf cfbd 2ce6 05be 1aca 5dbe 82c4 b7bd
000001e0: f55c c7bb d97a 7dbd 261e 4dbe cd35 80bc
000001f0: 377f 3dbe c7ea 1abe af25 d9bd 3928 a3bc
-0.01605893 0.022247883 -0.0205351 -0.105551295 -0.022512006 0.02115759 -0.037284456 -0.21352333
-0.049174044 -0.0895251 -0.19109607 0.038360294 -0.17907104 -0.07348619 -0.16691262 -0.20152387
-0.20217642 -0.09024817 0.053184412 -0.061082024 0.0066656508 -0.05554862 -0.077575885 0.061469954
-0.20838174 0.04565299 -0.14333193 -0.1935267 0.0783862 0.04125192 -0.03775442 0.096801765
-0.17021243 -0.10919887 0.05884282 -0.2735181 -0.18551338 -0.2657115 -0.096109115 -0.07028623
-0.21963044 -0.1620496 -0.031899594 -0.3104515 -0.013508901 -0.012018696 -0.17367691 -0.07127227
-0.20745562 -0.07676949 -0.23482443 -0.06069625 0.057183925 -0.043608297 0.034780547 -0.08871904
-0.06567844 -0.12733424 0.03478231 -0.06764709 -0.16525905 -0.041988116 -0.08219649 -0.13100058
0.029934714 -0.23050848 0.033214558 -0.045888692 -0.12511839 -0.10007393 -0.21312545 -0.06664678
-0.2456976 -0.031514995 0.02849213 -0.024537345 -0.076745525 -0.033915438 -0.08439593 -0.004579814
-0.11975146 -0.054202408 -0.028398767 0.06310524 -0.11394894 -0.06402647 -0.052254908 -0.113997
0.0069841 -0.118685946 -0.012425806 -0.20318016 -0.06051553 -0.14247555 -0.088552736 -0.14947188
0.009385502 -0.053154178 -0.043994453 -0.0047305673 -0.08018328 -0.0056115035 0.0035087075 -0.13288964
-0.14535768 -0.22078171 -0.07509519 0.06086201 0.018271064 0.009999425 -0.07039582 -0.14179164
-0.08531295 -0.1301504 -0.1262475 -0.21626016 -0.10143872 -0.13076085 -0.21659127 -0.08973028
-0.0060840794 -0.061884735 -0.20031032 -0.015650654 -0.1850556 -0.15128623 -0.10602891 -0.01991664

network_body.linear_encoder.seq_layers.2.weight f4 [128, 128]
00000000: 5250 1cbd 90c9 66bd 41aa c63d 44e1 16be
00000010: 9e76 453c 051e 83be 88a6 08be b129 9bbd
00000020: de86 24bc bc92 bebd 209e 38bb 3aba 823e
00000030: 060e a3bd 4278 64be a81c 1fbe b8a8 2abd
00000040: b92f 2abe 4e94 0e3d 0ce2 c5bd 2b5e 8c3e
00000050: a9b4 6fbe 9223 383c 9b65 ca3b e15b 053e
00000060: 1312 053d c7cc 793c 4c8c 4abe 25e3 66be
00000070: 3728 38bd cafe a53b 0d92 2abe 93a8 aa3d
00000080: d720 f73d 3dd8 423e 797b d43d 3997 563c
00000090: 477c ef3d 376d 473d e095 883a 8176 163e
000000a0: e1ff 093d afb0 6d3c c581 56bd 6df9 303d
000000b0: 137f 0dbe 5b41 e2bc fbb6 603e 3dda 683e
000000c0: c4f5 893e ddca 16bd 056c c7bd 3a81 a1be
000000d0: 0af1 9ebe 82df 84bd 35d2 08bd de25 54be
000000e0: ec06 703b 5c27 0c3e b22f 183d dbb1 dabc
000000f0: 9b6a f53d 7db7 633d d68c d4be 943b 413d
00000100: 06c1 2c3e fe48 9dbd 5b88 233e 7e37 f7be
00000110: 4b5d aa3d 95da 163e ddc8 5fbc b3f5 9ebd
00000120: bb18 e8bc 79ac 8dbb 7bd6 533d 1236 87bd
00000130: f664 e6bc 76a7 5c3e 8480 563d 6ae1 f2bd
00000140: 9fb1 38bd 3c0c 743e 8e68 8b3b 9823 373c
00000150: 1760 00be d003 003e 5243 f43d b59a e03c
00000160: cd80 e83d d43b 3dbe a628 7abe c10a 133e
00000170: 94d7 77be 5394 7fbe c0af 15be 03e0 37be
00000180: fa79 d13c bc6d b6bd faf1 14be 9b76 883d
00000190: 461b 90be 5870 43bd 49a7 523e 31cb 9cbe
000001a0: 7a0f ad3c 43d5 213e 0f2c 91be 8e3f 65be
000001b0: 911d ebbd f389 91bd f11f 0ebd 38b3 41be
000001c0: 5946 f13c 56c7 afbd 8649 403e 244f 96be
000001d0: 71cf 51be 365c a1bb b0b1 653d e364 103e
000001e0: 2eb6 08be 5e10 9dbd 5576 16bd b1b7 893d
000001f0: e326 a33e c910 30be 925e babe 21c3 2cbe
00000200: 92e6 c1be 4f18 cfbd 38c4 2f3c 51ec 9ebd
00000210: 9f59 8ebe 4fa6 3ebe 8c5c 69bd 56ac c3bd
00000220: 23b4 d5bd fd51 98be 8ea1 d93a 959b 9ebd
00000230: 0473 66be 73db 33be 9dc3 16bd 0e94 e9bd
00000240: 56c6 693e ffe2 743d 3045 83be 8f30 523d
00000250: 8d8e a33d 2ae6 6bbd ebfe eebd 3090 953d
00000260: ba31 e5bd 8add 95bd 7c81 abbe f086 013d
00000270: 2a14 f5bd c038 bbbe 441d 26be 4f9d 5fbd
00000280: 074c 3fbe 2794 013e e5ee 44be 7857 9aba
00000290: 2ebd e0bd 7208 3a3d acdb 283b fe0e adbd
000002a0: d115 a9be 9fdc 9abe 6e8e acbc f2b9 a8be
000002b0: b0b0 52bd 4c15 a83c f87b 153e baf8 0abe
000002c0: 5dd9 9bbc ba09 15be aa6e b5bc 9dbc c0bd
000002d0: aa38 07be 8dfc 61bd 010f 3dbd b522 f2bd
000002e0: 4346 7dbe 6c34 003e 771a 213c e877 babe
000002f0: a6d4 44be 5410 46be 8ec8 8ebe db95 d9bd
00000300: 17e4 be3d 6ff3 043d 8ee7 cf3d 88d3 46be
00000310: 8c53 6bbe 0219 3ebe 24af 37be f091 953d
00000320: e4cc 29bd bbe2 58bd 8ea9 d6bc 1098 ad3e
00000330: 77ad 2d3d 595d 3d3c 1650 7c3c 5f15 393e
00000340: 9f85 4fbe 42e8 aebe 0522 6bbc e774 fcbc
00000350: 2d9a d9bc 103f 54be ab7a 7cbe ce19 b33c
00000360: 515b d3bc 35cf 4b3e 74bf 93bd fcbc 42be
00000370: 7722 8dbe 0876 1e3d dd13 11be 1b12 1abd
00000380: f01a 55ba 1a9b 51be 4c86 4c3d 2ad7 c9bd
00000390: 9a3d e7be 031d e9bd 66cd 3ebe 9de7 60bd
000003a0: d6ad b8bd 23ee 9e3d 2bdf 87be d72b 6dbd
000003b0: 9c9e 66be 4f71 54be 49ee e3bd f20d afbd
000003c0: 399f 80bd cb24 0abc 8576 53be 4f24 aa3d
000003d0: cc60 7dbe 048e 2d3d ef7d 08bc 558b cbbd
000003e0: 076a 093e 77ef 90bd 33df e6bc 171b fb3d
000003f0: 05bf 9d3c bcee ccbc 1d2a 1aba 6569 8cbe
-0.038162537 -0.05634457 0.09700442 -0.1473437 0.012052206 -0.2560884 -0.13344777 -0.075763114
-0.0100419205 -0.09305331 -0.0028170422 0.25532705 -0.07961659 -0.223115 -0.15538275 -0.04166481
-0.16619767 0.034809403 -0.09662256 0.27415594 -0.2340876 0.011238949 0.006176663 0.1302333
0.03248794 0.015246577 -0.19780082 -0.22547586 -0.044960227 0.0050657736 -0.16657276 0.08332934
0.120668106 0.19027801 0.10375113 0.013097578 0.11693626 0.04868814 0.0010420643 0.14693643
0.03369129 0.014507457 -0.05236985 0.04320662 -0.13818006 -0.027619055 0.21944802 0.22739501
0.26945317 -0.03681456 -0.097374 -0.31543905 -0.31043273 -0.06487943 -0.033403594 -0.2071757
0.003662522 0.1368689 0.03715486 -0.026696136 0.11983224 0.05559491 -0.415137 0.04717596
0.16870508 -0.07679938 0.15969984 -0.48284525 0.083185755 0.1473182 -0.013658729 -0.07761707
-0.028332105 -0.004323539 0.051718216 -0.0660211 -0.028124314 0.21548256 0.052368656 -0.118594006
-0.045091268 0.23832792 0.0042544072 0.01117792 -0.12536655 0.12501454 0.11926903 0.02741752
0.11352692 -0.18479854 -0.24429569 0.14359571 -0.2420333 -0.24958925 -0.14617825 -0.17956547
0.025570858 -0.08907649 -0.14545432 0.06663247 -0.28145808 -0.04771456 0.20571627 -0.30623773
0.021125544 0.15804009 -0.28353927 -0.22387525 -0.11480249 -0.0710639 -0.03469843 -0.18916023
0.02945249 -0.08582942 0.18778047 -0.29357255 -0.20489289 -0.0049243225 0.05607766 0.14100985
-0.13350746 -0.076691374 -0.036733944 0.067244895 0.31865606 -0.17193903 -0.36400276 -0.16871311
-0.37871224 -0.10112058 0.010727935 -0.077599175 -0.2780275 -0.18618129 -0.056973025 -0.09554355
-0.10434749 -0.29750052 0.0016603933 -0.07744519 -0.22504812 -0.17564182 -0.036807645 -0.11405192
0.22829565 0.059786793 -0.25638723 0.05131584 0.07986174 -0.05759255 -0.116697155 0.07302892
-0.11191125 -0.07317646 -0.33497226 0.031622827 -0.119667366 -0.36566734 -0.16222101 -0.05459338
-0.18681346 0.12654172 -0.19231756 -0.0011775335 -0.10973583 0.04541821 0.00257657 -0.08450125
-0.33024457 -0.30246446 -0.02106401 -0.32954365 -0.051438034 0.020517968 0.14598072 -0.13571444
-0.019024545 -0.14554492 -0.022147495 -0.09410975 -0.1320521 -0.05517249 -0.046156887 -0.11823026
-0.24733834 0.12519997 0.00983297 -0.36419606 -0.19221744 -0.19342166 -0.27887386 -0.10624286
0.093208484 0.03245872 0.101515874 -0.1941663 -0.2298109 -0.18564227 -0.17937905 0.07303226
-0.041455165 -0.052950602 -0.026203897 0.33905077 0.042401757 0.0115579 0.015399953 0.18074559
-0.20265816 -0.34161574 -0.014351373 -0.030817462 -0.026562775 -0.20727181 -0.24656169 0.02186289
-0.025800379 0.19903262 -0.07214251 -0.19017404 -0.27565357 0.038686782 -0.14167733 -0.037614923
-0.0008129319 -0.20469323 0.049932763 -0.098554924 -0.45164186 -0.11382487 -0.18633041 -0.054908384
-0.090175316 0.07760265 -0.2653745 -0.057903137 -0.22521442 -0.20746349 -0.11129434 -0.08547582
-0.06280369 -0.008431624 -0.2065068 0.083077066 -0.24743956 0.042371765 -0.008330806 -0.09938685
0.13419352 -0.07076924 -0.028182602 0.12261026 0.019256124 -0.025016181 -0.0005880909 -0.2742416

network_body.linear_encoder.seq_layers.4.bias f4 [128]
00000000: 2d39 ad3d 9f12 a0bd 34b2 2c3d 5768 243e
00000010: 6f41 c0bd 8747 90bc b4ed 9f3d 070c 233e
00000020: 0464 e93d 3665 44bc 50be 263e 23c0 12be
00000030: 7f44 c03d 3924 8a3c c0c3 183d b4e7 8fbd
00000040: 7e7a dabd bc72 65bd 0480 063e 5fcc 68bc
00000050: 5068 8abc 071d 07be f084 1b3a 151b 08bd
00000060: 3101 11bd 918c 15bd c002 f73c ec55 8e3d
00000070: c9e2 b33d d07f ea3d dd0e 95bd 9b15 133e
00000080: 1c16 4fbd ada1 7fbd 8115 c9bd 2ed0 b53c
00000090: 00c7 6d3d 2447 b9bc f4b5 49bd 1a52 183d
000000a0: c778 fa3d 01f7 0ebe 61d1 283e b98f 983d
000000b0: 1138 153e d3c0 6e3d b776 303c 56c3 9d3d
000000c0: a06e 5fbd 10c6 50bc b339 103e 7662 0d3d
000000d0: 72d7 583d 1194 eabc e0d5 393d 86ea 32bb
000000e0: f4fd dcbc 278d 2b3d 1949 a93c ace9 81bd
000000f0: 62f4 9f3d c472 66bd 0951 733d aec6 0cbe
00000100: 15fa 203e 4139 a4bd c537 013e 3c15 563e
00000110: a5f6 953d 717b 3ebe 67f1 00be 3654 e2bd
00000120: f4a1 dfbd 7ba8 1a3c 49ae 103e fff2 52bd
00000130: 789c 333d c69b 133e b75f b23d 491a 5cba
00000140: 9a76 c9bd 2583 72bc a1d6 ba3b 231e d13d
00000150: 0ea0 c4bd c3a9 5e3d a2cc a3bd 7d76 ecbc
00000160: e625 3bbd 6c4d 75bc e523 0bbe f8ac 0abc
00000170: 3176 293e 0b7d 8f3d a5c3 19bd 58f8 0a3e
00000180: f026 ebbc 8701 1c3e 2d92 933d e64f 3b3d
00000190: 0fbc 53bd 0c59 ee3d 1c36 c5bd 1ac6 cf3d
000001a0: 780e 833d b3a9 c1bb aa03 42bc 9186 84bd
000001b0: dd29 a83d 5647 36bc 4cee bbbd f010 643e
000001c0: f440 693d fe54 44bc dcf4 c8bc 016f b23d
000001d0: 4687 6abc 5575 173d b0ee 8f3b d118 133e
000001e0: 87f6 00bd d99e 97bb 2aed 3fbd 39f8 183d
000001f0: 4f57 aa3d ab18 ce3d 28ba 353e ff94 86bd
0.08458171 -0.07816052 0.042162135 0.16055427 -0.093874805 -0.017612232 0.0780901 0.15922557
0.113960296 -0.011987021 0.16283536 -0.14331107 0.093880646 0.016862975 0.037296057 -0.07026616
-0.10667895 -0.056017622 0.13134772 -0.014208882 -0.016895443 -0.13194667 0.000593259 -0.033228952
-0.035401527 -0.036511008 0.030152678 0.06949982 0.0878349 0.114501595 -0.072782256 0.1436371
-0.050558195 -0.062410045 -0.09818555 0.022193994 0.05805111 -0.02261693 -0.04924579 0.037187673
0.12230068 -0.13961412 0.16486122 0.07449288 0.14572169 0.05828936 0.010770491 0.07703273
-0.05454886 -0.012742534 0.1408451 0.034517728 0.05293984 -0.028635057 0.045369983 -0.0027300431
-0.026976563 0.04188266 0.020664738 -0.063433975 0.07810284 -0.056261793 0.059403453 -0.13747665
0.15720399 -0.08018733 0.1261893 0.20906538 0.07322434 -0.18601777 -0.12592088 -0.11051218
-0.10919562 0.009439583 0.14128985 -0.05150127 0.043850392 0.14414892 0.087096624 -0.0008396251
-0.098370746 -0.014801775 0.0057018553 0.10210826 -0.096008405 0.054361116 -0.07998015 -0.028865093
-0.04569044 -0.014972072 -0.13587911 -0.0084640905 0.16548993 0.07006272 -0.037540097 0.13571298
-0.02870509 0.15234958 0.07205615 0.045730494 -0.05169302 0.11638078 -0.09629461 0.10145207
0.06399244 -0.0059101223 -0.011841694 -0.06470979 0.0821111 -0.011125406 -0.09176311 0.22272086
0.05694671 -0.011983154 -0.02453082 0.087125786 -0.014314478 0.03697713 0.0043924674 0.14364935
-0.031485107 -0.0046270904 -0.046857037 0.0373461 0.08317434 0.10063299 0.17746794 -0.065713875

network_body.linear_encoder.seq_layers.4.weight f4 [128, 128]
00000000: 6992 703c 797b 343d a14c 77bd a77f 71bb
00000010: 1fb0 c3bc ec4b 8ebd d64b 81bd bfcb ac3e
00000020: 1bae a23d 4f13 073d 669b 92be e580 0abd
00000030: 70e4 e33d 5d20 06be fa8e 8dbc 0898 1bbd
00000040: 22f7 383e c43b 6abd 8f0b 003d 7c9d 2a3d
00000050: ee60 b9bd e0b5 0ebd b2a9 a4bd 87d3 b7be
00000060: b735 993d c5ac 30bd 9bda 8abd c00c 3cbe
00000070: b5a4 fb3d 122b 093e 0212 89be 7157 953e
00000080: 73cf 6fbe 3957 f0bd 779e 16bd b87b bebd
00000090: 0e04 f4bd b982 19be 8aea 86be 40ab 903a
000000a0: c285 32be 3942 9dbd b98e 193e 797f a2bd
000000b0: 7be3 633c b990 4fbe 731e 93bd c2bb 01be
000000c0: 10d6 3abe dd72 9ebe d709 223d 3e04 993d
000000d0: 63d4 b3be df10 6c3d e842 81be 7eef 9ebe
000000e0: 0314 e03d ad75 38be 2421 82be d531 1ebb
000000f0: 0705 493c 93b2 dcbd 5983 4d3d bbf1 2cbe
00000100: 1845 84be c541 38bd 301c 08be c5b6 41bd
00000110: c0b9 90be 46fa e83d 0e92 86bd d18b 253c
00000120: 63d7 e83d f822 babe 8a49 32be b24f f83b
00000130: ef0e 2f3e 7af9 88be 395b 9ebe 0ad4 593e
00000140: e553 04bd 3988 333d 63fd 213d c712 37bd
00000150: 9135 4b3e 04d7 a33d e4dc 3f3c 3e29 1f3e
00000160: 8de6 373c 2338 45bc aefd 243e ba3a 083e
00000170: 3e04 653d 7354 59be 1e27 1fbe 5bb8 22be
00000180: 6605 373e 0c68 b0be 7437 923c a529 2e3b
00000190: 9713 5cbc efe5 a4be fb37 d43d 2652 c7bd
000001a0: b57d 1fbd b665 e7bb f428 42bd 9c08 5d3d
000001b0: 0888 cebd 6bcb c23d debf 20bd 3f52 15bf
000001c0: 88ea 90bd 6d8d cfbd 1fb0 fcbd eeb2 1bbb
000001d0: 31f4 ebbd 7f61 be3c 198d 123e a624 0b3e
000001e0: 3606 1ebe 9c60 c2bd f5e4 b23c 41f1 50bd
000001f0: 5150 9ebe 4703 81bd ed3e 2b3e f592 62be
00000200: b146 113e ab89 d23d 1197 0a3e 17bd f13c
00000210: f178 0d3c 9cb7 983d 5707 833d b76c f93d
00000220: c796 9e3d 8987 82bd 7e84 f23d 6d27 7a3d
00000230: f68e 5bbd b4db 7abd 1b42 55be 21ae 91bd
00000240: 7749 eabc f359 95bd ab0d 0cbe 8f79 16be
00000250: c293 84bd 6677 8fbe 198f 8c3c 233f babd
00000260: fb58 bc3d 2097 afbd 6cfa 23bd bc70 48be
00000270: 5f6e 223e c55c 61bd e5a4 acbe 59e5 a43b
00000280: 5550 023d ab95 3a3d b49f d23d e563 92bd
00000290: 29f3 e93c 4a16 223e 7095 7c3d 7d8a b3bd
000002a0: cee5 cb3b a806 90bd 4de2 fbbd 7a18 d03b
000002b0: 4d9a 0f3e e317 063d 9253 36bc 0819 5e3d
000002c0: 1449 893d e030 19be beff 5fbc 2086 26be
000002d0: e190 6bbd 5b30 883c 51c8 23bd 4655 c63d
000002e0: 8267 a03d 5219 8bbd cd54 76bd 1437 8fbe
000002f0: 56ad 7f3c e392 633e 0357 b93d 205c 63bd
00000300: d857 2bbd b77b b03c 6128 d7bd 6267 bd3d
00000310: 039d 92bd b137 963d 4581 99bc 09e0 06be
00000320: 8e7c b83d 70cb 893d 986c 88be 0cf7 343e
00000330: 92a3 283c e401 e1bd 1818 903d 7067 42be
00000340: 5665 cb3d e09e 59bc 213e e63d d327 69bc
00000350: d437 1d3e d1af 1e3d e822 bf3c fe62 a13d
00000360: b1b7 143d afad 08bb 580a 52be 28ee 30bd
00000370: 983c 35bd a39b 023e 6528 24bd e155 0a3d
00000380: 7292 b23d 491c 703c 11f2 743d 3c8e c0bd
00000390: aaaa 863c 7cd7 7d3e 0864 333c ef04 a63d
000003a0: 8f19 493e 57ca 6bbd 2e67 90bb 9091 ea3d
000003b0: dd91 813d ea7a 3b3d 49f7 7fbd 9585 5fb9
000003c0: 00c5 24bd e9e6 a5bb 7c6e 3bbe 6ba8 9ebd
000003d0: 6528 13be bf42 c13c 6dbe ea3d 16b9 fdbd
000003e0: 0334 58bd e103 e73b aa1c 5abc 68bf b43e
000003f0: 858f 16be c809 923e f81c 473d 63d0 7c3d
0.014683344 0.044063065 -0.060375813 -0.0036849768 -0.023887692 -0.06948075 -0.06313293 0.33749196
0.07943364 0.0329774 -0.28634185 -0.03381433 0.11127555 -0.13098283 -0.01728009 -0.037986785
0.18063024 -0.057185903 0.031261023 0.041654095 -0.09051691 -0.03484142 -0.08040179 -0.3590357
0.074809484 -0.043133516 -0.06779977 -0.18364239 0.12287275 0.13395336 -0.2677155 0.29168275
-0.2341898 -0.117353864 -0.036772218 -0.09300941 -0.11914836 -0.14991273 -0.26350814 0.0011037365
-0.17433837 -0.076786466 0.1499585 -0.0793447 0.013909216 -0.20270051 -0.07183542 -0.1266928
-0.18245721 -0.3094701 0.039560165 0.07471512 -0.35122976 0.057633277 -0.25246358 -0.31042093
0.10941317 -0.1801364 -0.2541591 -0.002413859 0.012269265 -0.10776248 0.05017409 -0.16889088
-0.25833964 -0.044984598 -0.13292003 -0.047293443 -0.28266716 0.11375861 -0.065708265 0.010104136
0.11369207 -0.36354804 -0.17410865 0.00757786 0.1709554 -0.26752836 -0.30928972 0.21272293
-0.03230657 0.043831084 0.03954829 -0.04469564 0.19844653 0.07999995 0.011710379 0.15543076
0.011224401 -0.01203731 0.16112396 0.13303652 0.05591225 -0.21223621 -0.15542266 -0.15890639
0.17873153 -0.3445438 0.017848708 0.0026575115 -0.013432405 -0.32206675 0.1036224 -0.097324654
-0.038938243 -0.0070616854 -0.047402337 0.05396329 -0.1008454 0.09511455 -0.03924548 -0.5832862
-0.07075983 -0.10134397 -0.1233828 -0.0023757773 -0.11521185 0.02323985 0.14311637 0.13588199
-0.15432057 -0.09491083 0.02183769 -0.051011328 -0.30920652 -0.06299453 0.16723223 -0.22126372
0.14187123 0.10280164 0.1353419 0.02950911 0.008634792 0.07456896 0.06397884 0.12178939
0.07743602 -0.063735075 0.11841677 0.061072756 -0.053603135 -0.06124468 -0.20825998 -0.071132906
-0.028599484 -0.07292547 -0.13677089 -0.14694808 -0.06473495 -0.2802078 0.017158078 -0.090940736
0.09196659 -0.08573747 -0.040033743 -0.19574255 0.15862416 -0.055020113 -0.33719555 0.005032223
0.03181489 0.04555289 0.10284367 -0.071479596 0.02855833 0.15828815 0.061665952 -0.08766649
0.006222463 -0.070325196 -0.12299023 0.006350574 0.14023705 0.032737624 -0.011128323 0.05422309
0.06703392 -0.1496005 -0.0136718135 -0.16262102 -0.057511214 0.01662462 -0.03998596 0.09684233
0.078322425 -0.06791939 -0.060139466 -0.2797171 0.015605291 0.22224002 0.09049799 -0.05550778
-0.04183182 0.021543367 -0.105057485 0.09248234 -0.07158854 0.07334841 -0.018738398 -0.131714
0.09008132 0.06728256 -0.2664535 0.17672366 0.010292904 -0.10986689 0.070358455 -0.18984771
0.09931438 -0.013282508 0.11242319 -0.014230686 0.15353328 0.03874189 0.023332074 0.078802094
0.036307994 -0.0020855477 -0.20511758 -0.043195873 -0.04424724 0.12754683 -0.040077586 0.033773307
0.087193385 0.014655181 0.059801165 -0.09402129 0.0164388 0.24789232 0.010949142 0.0810641
0.19638656 -0.057566013 -0.004406831 0.11453545 0.06326649 0.045771517 -0.06249169 -0.000213167
-0.040226936 -0.005062927 -0.18303865 -0.07746967 -0.14370878 0.023591397 0.11462102 -0.12388818
-0.052783977 0.007050023 -0.013312498 0.3530228 -0.14703186 0.28523088 0.04861161 0.06172217

network_body.vector_processors.0.normalizer.running_mean f4 [35]
00000000: b6a9 703f 3981 783f d0bf 6f3f 1b06 783f
00000010: 1723 723f 0e12 793f 095d 703f c244 783f
00000020: 3d3e 733f 8e82 793f 6825 723f 7317 793f
00000030: cb67 733f a183 793f 76c8 723f 0862 793f
00000040: 76c8 723f 0862 793f 86e1 ad3c 7a4c 64b9
00000050: 7e6a 85bd 6da9 11bf 5337 ff3e 4890 ffbe
00000060: 065d c4be 2715 883e 4cf1 eabe 0000 0000
00000070: 0000 0000 0000 0000 0000 0000 0000 0000
00000080: 0000 0000 0000 0000 0000 0000
0.9400896 0.9707218 0.9365206 0.96884316 0.9458479 0.97293174 0.9389196 0.96979916
0.95016843 0.97464836 0.9458833 0.97301406 0.9508025 0.97466475 0.9483713 0.9741521
0.9483713 0.9741521 0.021225702 -0.00021772264 -0.065144524 -0.5689915 0.49846897 -0.49914765
-0.3835222 0.26578638 -0.4588722 0.0 0.0 0.0 0.0 0.0
0.0 0.0 0.0
