Assets/Scripts/2.1 SensorBall&Cat/BallEngineAI-25M.onnx (onnx, 154666 bytes, 11 tensors)

69 f4 [35]
0.23866612 0.13086112 0.24773234 0.13672191 0.23185253 0.12996338 0.23749499 0.13027844
0.21769507 0.12243882 0.22726645 0.12639314 0.21440393 0.12115772 0.21621256 0.11978782
0.21621256 0.11978782 4.6279907 0.05157546 4.614911 3.9729795 0.024678472 4.00142
4.682773 0.054026276 4.667656 0.00020172341 0.00020172341 0.00020172341 0.00020172341 0.00020172341
0.00020172341 0.00020172341 0.00020172341
00000000: e464 743e 7500 063e 8cad 7d3e d400 0c3e
00000010: c06a 6d3e 1f15 053e e331 733e b667 053e
00000020: 75eb 5e3e 34c1 fa3d 89b8 683e 346d 013e
00000030: b48c 5b3e 8a21 f83d d366 5d3e 5153 f53d
00000040: d366 5d3e 5153 f53d 8018 9440 ca40 533d
00000050: 5aad 9340 4c45 7e40 822a ca3c a20b 8040
00000060: 47d9 9540 a84a 5d3d 705d 9540 b785 5339
00000070: b785 5339 b785 5339 b785 5339 b785 5339
00000080: b785 5339 b785 5339 b785 5339

action_model._continuous_distribution.log_sigma f4 [1, 2]
2.1586328 1.9632058
00000000: 0a27 0a40 544a fb3f

action_model._continuous_distribution.mu.bias f4 [2]
0.072647095 0.029354114
00000000: 00c8 943d 0a78 f03c

action_model._continuous_distribution.mu.weight f4 [2, 128]
-0.28981277 0.123209074 0.14041011 0.018003883 0.13082269 -0.07014305 0.24326284 0.04714775
0.2898632 0.13680552 -0.024197273 -0.10987477 0.112159826 0.31898868 -0.20824029 -0.34245142
-0.46320632 -0.18459687 0.17858803 0.011896032 0.09306094 0.022602689 -0.29477793 0.37941018
-0.39443886 0.2015342 -0.23260635 -0.15291396 -0.4169962 0.2980226 0.05741025 0.27911937
0.08686682 0.28822505 0.37044913 0.28816962 -0.24811043 0.021023601 -0.18363024 -0.053264298
-0.28035954 -0.1803089 -0.23135632 -0.14704838 -0.26643452 -0.47761878 0.1826692 0.21489501
-0.30737433 -0.15965173 -0.108596824 0.2295885 0.0036815011 -0.26988572 -0.2026748 -0.05619384
0.45838052 0.3159576 0.24965611 0.3069627 0.21393724 0.1771508 -0.16450338 0.25084782
-0.4294922 0.23067862 0.26941285 -0.4813098 -0.21229804 -0.119547755 -0.10252719 -0.22203687
0.015178609 -0.016287677 -0.24283215 0.20170791 0.1705483 0.3334188 -0.28569496 -0.20088947
0.2755118 0.227751 -0.20794782 0.09352805 0.46347374 -0.057857066 0.4589259 -0.08102407
0.3725045 -0.24609031 -0.12622862 0.019545114 -0.19571106 -0.17278701 0.1447092 -0.22053589
0.44876674 0.33513662 -0.10772586 -0.048463833 0.20091642 -0.056384407 0.33275935 0.078607924
0.018036233 0.046999756 0.18807256 -0.011088306 -0.24113186 0.29488444 0.31918645 0.2209996
-0.29397237 0.22786404 0.09407659 0.24362461 -0.23471245 -0.2564933 -0.21577194 -0.18667668
-0.25708565 0.052522928 0.02810606 -0.098799124 -0.03842088 -0.25564924 -0.34456563 0.112690665
0.16927294 -0.16601107 -0.13679369 -0.31450406 0.2313463 0.31934702 0.29840693 -0.33298525
0.1937433 0.16084225 0.36183423 -0.11992428 -0.20889442 0.11830743 -0.21439165 0.13679564
-0.05373732 -0.22714789 -0.31073093 -0.23709667 -0.19770956 0.13850875 -0.07142298 0.082465865
-0.32853612 -0.18361367 -0.12802055 -0.18691179 0.16578545 0.057654355 0.2758802 -0.15739407
-0.0501335 -0.29815415 -0.1485505 0.03085829 0.028219618 0.29785654 0.18950301 -0.18528345
-0.101597615 0.32539746 0.32209036 0.26704624 -0.08470816 -0.17442895 0.024066368 -0.03568429
0.074835494 -0.17461586 0.2571605 0.10960372 0.22903161 0.3953489 -0.09565528 0.23850174
-0.14168555 0.077369556 -0.119298324 -0.05686392 0.20740028 0.07351889 0.24994297 0.045516398
0.027664952 -0.07243393 -0.1835382 -0.016709007 -0.2390865 -0.016087793 -0.4060535 -0.13345176
0.19434904 -0.19796938 -0.13664639 0.085056774 0.027900998 0.17417501 -0.0204874 -0.006510191
-0.16224778 0.108750015 -0.22225353 -0.31504133 0.011963745 0.20760173 0.063018486 -0.23420899
-0.0748804 -0.0871212 0.06617575 -0.27090916 -0.24359867 0.20947032 -0.27803025 0.30554467
0.041290574 -0.13806042 -0.0292636 -0.06071132 0.166899 -0.22484244 0.048659705 0.10222955
0.2321932 0.1632086 -0.37766075 -0.15289403 -0.019870436 -0.1929598 0.048311565 0.30830142
-0.09253094 -0.25596848 0.2379272 0.11957768 -0.16472502 0.004637822 -0.23253548 0.1960501
-0.016068077 0.16413328 0.21157695 0.16204464 0.27859768 0.10680829 -0.050126188 -0.14654091
00000000: 5762 94be 0a55 fc3d abc7 0f3e e17c 933c
00000010: 62f6 053e 29a7 8fbd e519 793e 001e 413d
00000020: f368 943e bf16 0c3e 5c39 c6bc 0606 e1bd
00000030: 0db4 e53d 7c52 a33e f13c 55be cb55 afbe
00000040: 6129 edbe f606 3dbe c8df 363e 93e7 423c
00000050: bc96 be3d 4629 b93c 22ed 96be 0d42 c23e
00000060: e4f3 c9be fb5e 4e3e 5c30 6ebe 7a95 1cbe
00000070: 8780 d5be 6b96 983e 0327 6b3d bce8 8e3e
00000080: 3be7 b13d 3c92 933e 82ab bd3e f88a 933e
00000090: a910 7ebe b039 ac3c 9109 3cbe aa2b 5abd
000000a0: 498b 8fbe e5a2 38be ace8 6cbe da93 16be
000000b0: 1b6a 88be 738a f4be a20d 3b3e 700d 5c3e
000000c0: 2b60 9dbe be7b 23be 0368 debd 3f19 6b3e
000000d0: 5745 713b 762e 8abe fc89 4fbe 832b 66bd
000000e0: dab0 ea3e 32c5 a13e daa5 7f3e 372a 9d3e
000000f0: 5d12 5b3e 0567 353e 9373 28be 206f 803e
00000100: 67e6 dbbe 0437 6c3e 7bf0 893e 3d6e f6be
00000110: a864 59be 74d5 f4bd c7f9 d1bd a25d 63be
00000120: b3af 783c bc6d 85bc fea8 78be 858c 4e3e
00000130: 37a4 2e3e deb5 aa3e 9c46 92be f8b5 4dbe
00000140: e20f 8d3e 8f37 693e 46f0 54be a28b bf3d
00000150: 6e4c ed3e 88fb 6cbd 56f8 ea3e f3ef a5bd
00000160: e9b8 be3e 19ff 7bbe 1342 01be 131d a03c
00000170: 7b68 48be 14ef 30be a62e 143e 29d4 61be
00000180: c1c4 e53e 0797 ab3e 609f dcbd 0382 46bd
00000190: 09bd 4d3e 56f3 66bd 6f5f aa3e 31fd a03d
000001a0: b9c0 933c d182 403d 1896 403e baab 35bc
000001b0: 45eb 76be 18fb 963e 686c a33e b84d 623e
000001c0: 8c83 96be 3155 693e 3aab c03d bb78 793e
000001d0: 7658 70be 1753 83be 52f3 5cbe 2c28 3fbe
000001e0: bba0 83be 4822 573d ae3e e63c 3257 cabd
000001f0: 365f 1dbd 75e4 82be e86a b0be 5dca e63d
00000200: e355 2d3e cefe 29be a513 0cbe ad06 a1be
00000210: 0be6 6c3e 7481 a33e cbc8 983e 0b7d aabe
00000220: a564 463e d5b3 243e 5642 b93e dc9a f5bd
00000230: 6be8 55be 2a4b f23d 7c89 5bbe 2814 0c3e
00000240: aa1b 5cbd 7599 68be 2018 9fbe 78c9 72be
00000250: 6074 4abe 3dd5 0d3e 3646 92bd dde3 a83d
00000260: e335 a8be 3905 3cbe d217 03be ce65 3fbe
00000270: a9c3 293e f926 6c3d 2b40 8d3e e92b 21be
00000280: c958 4dbd a9a7 98be 9f1d 18be 86ca fc3c
00000290: d42c e73c a780 983e 140d 423e f2ba 3dbe
000002a0: 6912 d0bd 7f9a a63e 07e9 a43e 49ba 883e
000002b0: 797b adbd 819d 32be d526 c53c b129 12bd
000002c0: 5a43 993d 80ce 32be 8baa 833e ea77 e03d
000002d0: 4387 6a3e 2c6b ca3e eae6 c3bd cd39 743e
000002e0: 0416 11be ee73 9e3d ae52 f4bd 24ea 68bd
000002f0: bd60 543e 1291 963d 0df1 7f3e 676f 3a3d
00000300: 9ca1 e23c 3e58 94bd 70f1 3bbe 54e1 88bc
00000310: 17d3 74be 8cca 83bc 3fe6 cfbe 94a7 08be
00000320: 6f03 473e 7cb8 4abe 08ed 0bbe 3f32 ae3d
00000330: a290 e43c ef5a 323e 31d5 a7bc 7153 d5bb
00000340: 4824 26be 54b8 de3d 6e96 63be 194d a1be
00000350: 9503 443c 8c95 543e d60f 813d 7bd4 6fbe
00000360: e55a 99bd 9a6c b2bd 2787 873d 9bb4 8abe
00000370: ee71 79be 637f 563e fb59 8ebe 5a70 9c3e
00000380: 4e20 293d b65f 0dbe 38ba efbc 6fac 78bd
00000390: 92e7 2a3e 193d 66be 664f 473d ba5d d13d
000003a0: 0ec4 6d3e 2820 273e c05c c1be 4190 1cbe
000003b0: 53c7 a2bc 4197 45be 59e2 453d afd9 9d3e
000003c0: dd80 bdbd 4d0e 83be 30a3 733e 25e5 f43d
000003d0: adad 28be dff8 973b c81d 6ebe 5bc1 483e
000003e0: 33a1 83bc 8e12 283e a1a7 583e 08ef 253e
000003f0: 5ba4 8e3e 4ebe da3d 1e51 4dbd d20e 16be

network_body.linear_encoder.seq_layers.0.bias f4 [128]
-0.04908604 -0.3097342 -0.13044177 -0.30043605 -0.1336315 -0.062297776 -0.37142655 -0.06745726
-0.22410433 0.05416969 -0.26268625 0.15532634 -0.47376424 -0.29859197 -0.12306233 0.04447287
-0.23465574 -0.2921366 -0.21607992 0.13517864 -0.059930548 -0.060343612 -0.0926599 0.0772242
-0.05438899 -0.16749302 -0.024276884 -0.23317221 -0.20410573 -0.15480131 -0.25642964 -0.35782602
0.014509952 -0.19214252 -0.35436642 -0.10908781 -0.07886515 -0.4383228 -0.12002594 -0.51026875
-0.10523542 -0.08436502 -0.22632849 -0.5395156 -0.35297233 -0.15303515 0.001955114 -0.20979832
0.031855267 -0.28125763 -0.24251914 -0.17282654 -0.21354532 0.13707918 -0.19761908 0.082555115
-0.11056628 -0.3787464 -0.034597598 -0.20177889 -0.027149888 -0.2806802 0.027398873 -0.03212437
-0.4623267 0.02962978 0.024898723 -0.06944095 -0.28762874 -0.3070684 -0.055334233 -0.31578842
-0.17685792 -0.11734931 -0.3085099 -0.022278951 -0.03257156 0.08116322 -0.017755644 -0.17852955
-0.34778708 0.08366803 -0.26540536 -0.04333944 -0.21717171 -0.20468691 -0.05888559 -0.27806094
0.017093737 0.021160731 -0.09928917 -0.2218782 -0.21863805 -0.4575305 -0.20587502 -0.19442372
-0.20329729 -0.117046736 0.07754543 -0.37756616 -0.14216772 -0.3530283 -0.058531784 0.082164
-0.12586768 -0.30334356 -0.19425787 0.016212597 0.056271207 -0.37838307 -0.17440408 -0.18733649
-0.550782 -0.35142502 -0.27524197 -0.3754172 0.03526934 -0.22035633 -0.25138927 -0.09060971
-0.28688303 -0.2601237 -0.26138306 0.11619211 -0.15100732 -0.3408468 -0.05032872 -0.5090207
00000000: 720e 49bd 7b95 9ebe 8792 05be c1d2 99be
00000010: b2d6 08be f42b 7fbd 9f2b bebe 0827 8abd
00000020: 9b7b 65be 09e1 5d3d d07e 86be de0d 1f3e
00000030: 3a91 f2be 0ce1 98be 1a08 fcbd 2f29 363d
00000040: 9849 70be ee92 95be 0e44 5dbe 456c 0a3e
00000050: bc79 75bd dd2a 77bd 79c4 bdbd b927 9e3d
00000060: fdc6 5ebd 4a83 2bbe 51e0 c6bc b2c4 6ebe
00000070: 1801 51be 3c84 1ebe bf4a 83be f934 b7be
00000080: 26bb 6d3c 02c1 44be 846f b5be 6e69 dfbd
00000090: 0d84 a1bd d96b e0be 29d0 f5bd f9a0 02bf
000000a0: ab85 d7bd 91c7 acbd a8c2 67be b21d 0abf
000000b0: cab8 b4be 3fb5 1cbe 5f21 003b 5fd5 56be
000000c0: ab7a 023d 0001 90be f056 78be 71f9 30be
000000d0: a0ab 5abe 7c5e 0c3e a85c 4abe a812 a93d
000000e0: 9370 e2bd 0ceb c1be 36b6 0dbd 209f 4ebe
000000f0: 7169 debc 51b5 8fbe 9a73 e03c d894 03bd
00000100: 16b6 ecbe 27ba f23c 68f8 cb3c 0f37 8ebd
00000110: 1344 93be 1238 9dbe 26a6 62bd 05af a1be
00000120: 3e1a 35be d654 f0bd 02f5 9dbe 5982 b6bc
00000130: c269 05bd e738 a63d 4974 91bc 73d0 36be
00000140: 2611 b2be 255a ab3d 36e3 87be b284 31bd
00000150: 4362 5ebe 7299 51be 0432 71bd 015e 8ebe
00000160: 2a08 8c3c 4559 ad3c 1f58 cbbd 0a34 63be
00000170: a7e2 5fbe 7041 eabe e7d0 52be 0317 47be
00000180: 2a2d 50be 33b6 efbd 23d0 9e3d 5a50 c1be
00000190: 6a94 11be 20c0 b4be 06bf 6fbd 9945 a83d
000001a0: 75e3 00be d94f 9bbe 89eb 46be 48d0 843c
000001b0: a37c 663d 6dbb c1be fc96 32be 23d5 3fbe
000001c0: 0d00 0dbf fbed b3be 84ec 8cbe af36 c0be
000001d0: 9576 103d 17a5 61be 18b6 80be 9591 b9bd
000001e0: 55e2 92be ef2e 85be 00d4 85be 21f6 ed3d
000001f0: aaa1 1abe 7983 aebe 7d25 4ebd 2e4f 02bf

network_body.linear_encoder.seq_layers.0.weight f4 [128, 35]
0.29763737 -0.4628395 0.04207693 -0.024403099 -0.03410339 0.19678712 -0.054254085 0.056084104
-0.06703752 0.17553413 0.07275077 -0.20979676 -0.042673092 0.03629577 -0.23890682 0.042676073
0.18550831 -0.092841506 0.5346265 -0.15461007 0.009303361 -0.64234066 0.03961861 0.42464823
0.79224706 -0.18442813 -0.4005974 -0.32714736 -0.20945178 -0.08648666 0.07637767 -0.11042516
0.33809334 -0.020266088 0.04319951 0.12444165 0.2635069 0.06936436 -0.28161392 0.01457835
-0.05342311 -0.058838487 -0.04174241 -0.30261254 0.25343758 0.21352224 -0.24028385 0.10370528
0.20544808 -0.34558004 0.17573793 0.061302435 -0.042438652 -0.13929312 -0.26360297 0.035585374
0.47061586 -0.5786899 0.08555749 -0.22008976 0.20527942 -0.1345525 0.024737058 0.053675625
-0.0049007963 0.02497587 0.22210838 0.029952105 -0.11074813 -0.09043745 -0.47703525 0.18613082
-0.052719526 -0.29225522 -0.0759289 -0.068868294 -0.1989085 0.05513292 0.084436364 -0.09372152
0.46146476 0.34656745 0.12596154 -0.4291894 0.34009388 -0.05979378 -0.22517513 -0.03428661
-0.8590839 0.27070573 0.26515028 -0.067633264 0.10748868 -0.33190408 0.39573774 -0.027968114
-0.12884095 0.3287307 -0.2305012 0.08081343 0.15119483 0.046184115 0.12120655 0.2491842
0.09905057 0.046787445 -0.16704991 0.18287973 -0.11771026 0.019476403 0.017081276 0.11273961
-0.1724646 0.039625335 0.2281481 0.11783423 -0.26086414 0.027933018 0.13832784 -0.06970358
0.2500435 -0.16290207 0.055673502 0.32793725 -0.058408905 -0.14328788 0.1351029 -0.6253536
0.3317924 -0.28110805 0.10528348 -0.3691326 0.116504095 -0.009060224 0.21430878 0.058517832
0.058895268 0.23304678 -0.07687628 0.0038830384 -0.056157585 0.255512 0.07491707 -0.30497152
0.0024475288 0.16176929 -0.20140082 0.18793768 -0.13650922 -0.19423203 0.06287293 -0.08266661
-0.24180771 0.13889551 0.04126649 -0.056496203 0.06200485 -0.110973835 -0.6656032 0.47961745
0.16687782 -0.3972663 -0.6796322 0.58719647 0.70010936 -0.07333657 -0.44263992 -0.07457829
0.258047 -0.0027698283 0.21249427 -0.32478678 -0.123851344 -0.015526246 0.13664085 -0.0643233
-0.15248726 -0.17846209 -0.18855359 0.35933352 0.07579381 0.017452724 -0.01672359 0.2616039
0.06787432 0.10407286 -0.058520764 0.08079493 0.09934052 -0.3053946 0.08906535 0.028023118
0.1381329 0.5224197 -0.26791227 -0.33294326 0.4289885 -0.4201949 0.27266592 -0.6748299
0.06619955 -0.09382579 0.13065928 -0.09406357 -0.19819675 -0.046645142 -0.28415334 0.10317849
-0.1215331 -0.20932715 0.15832162 -0.20219056 0.025811734 -0.08762014 0.28434345 0.34123167
0.38382334 -0.10443269 -0.065342285 0.02447301 -0.03614066 -0.047097657 0.18828163 0.24684718
0.00851455 0.098523684 0.09680491 0.010937985 -0.08582145 0.36604726 0.047201537 -0.10131387
-0.1233658 -0.3583404 0.1904287 -0.03658349 0.29792437 0.124910876 -0.19659716 0.15996715
0.042911243 0.26950002 0.14773528 0.17471994 -0.064285666 0.12205813 -0.31674823 0.18716063
-0.45053804 0.025398692 0.06717223 0.1461177 0.08637553 0.17453708 -0.21335989 0.29917762
00000000: ed63 983e 4df9 ecbe dc58 2c3d 02e9 c7bc
00000010: ffaf 0bbd 9082 493e 8839 5ebd 72b8 653d
00000020: f84a 89bd 38bf 333e 5bfe 943d f6d4 56be
00000030: fbc9 2ebd e0aa 143d fda3 74be 1bcd 2e3d
00000040: e4f5 3d3e b023 bebd 48dd 083f 1a52 1ebe
00000050: 206d 183c 7070 24bf 2047 223d 7e6b d93e
00000060: b4d0 4a3f bada 3cbe 1a1b cdbe dc7f a7be
00000070: 877a 56be eb1f b1bd e56b 9c3d 9626 e2bd
00000080: 921a ad3e 1105 a6bc f8f1 303d 44db fe3d
00000090: 60ea 863e e70e 8e3d b32f 90be 08da 6e3c
000000a0: 31d2 5abd a000 71bd 17fa 2abd 08f0 9abe
000000b0: 92c2 813e 93a5 5a3e f80c 76be 6f63 d43d
000000c0: fb60 523e deef b0be a5f4 333e 4318 7b3d
000000d0: 27d4 2dbd dba2 0ebe f8f6 86be f8c1 113d
000000e0: 90f4 f03e 0525 14bf c438 af3d 365f 61be
000000f0: c534 523e 21c8 09be 5fa5 ca3c f9da 5b3d
00000100: dc96 a0bb 329a cc3c 6170 633e 1e5e f53c
00000110: eacf e2bd 4537 b9bd f73d f4be 1499 3e3e
00000120: 6ef0 57bd 7aa2 95be 9c80 9bbd d20a 8dbd
00000130: abae 4bbe 0fd3 613d f9ec ac3d 11f1 bfbd
00000140: 1c45 ec3e 4a71 b13e 10fc 003e b7be dbbe
00000150: c920 ae3e 53ea 74bd 4f94 66be 1e70 0cbd
00000160: ecec 5bbf f199 8a3e c7c1 873e 4f83 8abd
00000170: 0623 dc3d 55ef a9be 239e ca3e 631d e5bc
00000180: e2ee 03be 644f a83e 8208 6cbe 8381 a53d
00000190: d1d2 1a3e 8e2b 3d3d 243b f83d 252a 7f3e
000001a0: 06db ca3d 31a4 3f3d 220f 2bbe d344 3b3e
000001b0: 1412 f1bd fa8c 9f3c 08ee 8b3c 06e4 e63d
000001c0: 8f9a 30be 2d4e 223d a89f 693e 1353 f13d
000001d0: fc8f 85be c9d3 e43c d0a5 0d3e c0c0 8ebd
000001e0: b405 803e cdcf 26be e609 643d 64e7 a73e
000001f0: 2d3e 6fbd 0fba 12be 6a58 0a3e 2c17 20bf
00000200: b2e0 a93e 65ed 8fbe dd9e d73d f3fe bcbe
00000210: b399 ee3d 5571 14bc c373 5b3e 65b0 6f3d
00000220: 2a3c 713d d1a3 6e3e 5071 9dbd 937a 7e3b
00000230: 7f05 66bd 78d2 823e 1f6e 993d 3a25 9cbe
00000240: b866 203b d9a6 253e 043c 4ebe bc72 403e
00000250: 13c9 0bbe c3e4 46be 86c3 803d 1d4d a9bd
00000260: 719c 77be a03a 0e3e 0d07 293d 9068 67bd
00000270: ccf8 7d3d 4046 e3bd f964 2abf 6b90 f53e
00000280: 05e2 2a3e 7d66 cbbe 60fc 2dbf 8252 163f
00000290: 5e3a 333f 7c31 96bd b3a1 e2be 81bc 98bd
000002a0: bd1e 843e 0286 35bb 1998 593e 744a a6be
000002b0: c6a5 fdbd cc61 7ebc 94eb 0b3e efbb 83bd
000002c0: 9f25 1cbe c4be 36be 3114 41be 90fa b73e
000002d0: c939 9b3d 04f9 8e3c e9ff 88bc f2f0 853e
000002e0: b101 8b3d 2724 d53d 78b3 6fbd d077 a53d
000002f0: 0b73 cb3d ae5c 9cbe e567 b63d bd90 e53c
00000300: b672 0d3e 4cbd 053f cc2b 89be 8a77 aabe
00000310: 61a4 db3e c923 d7be de9a 8b3e a7c1 2cbf
00000320: a193 873d bc27 c0bd 8ccb 053e 67a4 c0bd
00000330: 17f4 4abe fa0e 3fbd 8c7c 91be 3f4f d33d
00000340: 59e6 f8bd db59 56be 101f 223e 0b0b 4fbe
00000350: 2173 d33c 3072 b3bd 7795 913e ebb5 ae3e
00000360: 7e84 c43e cee0 d5bd 2dd2 85bd 9f7b c83c
00000370: 3b08 14bd 79e9 40bd e6cc 403e 82c5 7c3e
00000380: 9c80 0b3c c9c6 c93d a741 c63d 3c35 333c
00000390: 28c3 afbd 8c6a bb3e 6656 413d a57d cfbd
000003a0: 35a7 fcbd 6578 b7be beff 423e 92d8 15bd
000003b0: 8b89 983e 46d1 ff3d c450 49be 6ece 233e
000003c0: b3c3 2f3d e8fb 893e eb47 173e c9e9 323e
000003d0: 34a8 83bd 9df9 f93d d32c a2be 09a7 3f3e
000003e0: ecac e6be eb10 d03c 9891 893d e19f 153e
000003f0: a7e5 b03d d9b9 323e 047b 5abe cf2d 993e

network_body.linear_encoder.seq_layers.2.bias f4 [128]
-0.037750475 0.06450332 -0.0910227 -0.026092887 -0.11948109 0.057636857 -0.03568449 -0.44149685
-0.115885265 -0.3560684 -0.32241702 0.0829062 -0.40436408 -0.1570258 -0.2565056 -0.31085724
-0.21541402 -0.20956282 -0.0024692006 -0.026541132 -0.029233176 -0.05480611 -0.17163594 0.1531328
-0.3200048 0.15946957 -0.3838261 -0.23053631 0.093083814 0.12447206 -0.09236771 0.085902534
-0.03782924 -0.23206411 0.10043053 -0.39305392 -0.3647701 -0.29928443 -0.32373855 -0.023757046
-0.33109978 -0.29691616 -0.034124088 -0.46086878 -0.08198417 -0.0023972897 -0.27194378 -0.11037139
-0.36595717 -0.2214272 -0.42951024 -0.0708442 0.10728477 -0.31367388 0.117498055 -0.15045044
-0.08388752 -0.08241631 0.012781766 -0.15090688 -0.30184007 -0.05443745 -0.093539126 -0.27263322
0.0697719 -0.32880837 0.1941162 -0.025112942 -0.46693176 -0.34881756 -0.40702105 -0.13649477
-0.24973577 -0.087621026 0.12790218 -0.15403901 -0.11081836 0.007844227 -0.13588291 -0.1267443
-0.27905592 -0.02666588 -0.015978934 0.111081935 -0.20868222 -0.009416189 -0.053250596 -0.3387579
0.014082534 -0.4685489 0.07398442 -0.3425346 -0.2869736 -0.24968936 -0.09596882 -0.2146655
0.0858455 -0.09092505 -0.029244421 -0.06298771 -0.29970834 0.03308565 -0.058108833 -0.099399224
-0.36784607 -0.13532718 -0.013129151 0.1489689 0.09786095 -0.16613711 -0.08740497 -0.11359451
-0.21204932 -0.40664247 -0.10986014 -0.10459524 -0.012752417 -0.35262161 -0.30959988 -0.21114479
0.077347934 -0.05190595 -0.24065393 0.11732831 -0.34678286 -0.298326 -0.24029754 -0.0016693926
00000000: 3ea0 1abd 511a 843d 1c6a babd c0c0 d5bc
00000010: 80b2 f4bd a014 6c3d e629 12bd e00b e2be
00000020: 4155 edbd 994e b6be d813 a5be baca a93d
00000030: cf08 cfbe 5fcb 20be b454 83be ae28 9fbe
00000040: 7e95 5cbe a397 56be 50d2 21bb ca6c d9bc
00000050: 6a7a efbc 5f7c 60bd 55c1 2fbe d8ce 1c3e
00000060: abd7 a3be fe4b 233e db84 c4be b611 6cbe
00000070: baa2 be3d 35eb fe3d 482b bdbd abed af3d
00000080: d5f2 1abd 37a2 6dbe 86ae cd3d 5d3e c9be
00000090: 26c3 babe cf3b 99be 0fc1 a5be 239e c2bc
000000a0: e985 a9be 6505 98be b3c5 0bbd fef6 ebbe
000000b0: 51e7 a7bd d91b 1dbb 373c 8bbe 650a e2bd
000000c0: bd5e bbbe d0bd 62be c4e8 dbbe c416 91bd
000000d0: 1eb8 db3d dd99 a0be d2a2 f03d ae0f 1abe
000000e0: 38cd abbd e2c9 a8bd 9d6a 513c 5587 1abe
000000f0: c88a 9abe cef9 5ebd 7191 bfbd 9596 8bbe
00000100: 92e4 8e3d 9259 a8be 66c6 463e a8b9 cdbc
00000110: ae11 efbe 3798 b2be 1065 d0be 49c5 0bbe
00000120: bcba 7fbe a772 b3bd caf8 023e 67bc 1dbe
00000130: bcf4 e2bd 1385 003c e424 0bbe 42c9 01be
00000140: 6be0 8ebe 6772 dabc 41e6 82bc ed7e e33d
00000150: cbb0 55be 5c46 1abc 4c1d 5abd ad71 adbe
00000160: 6eba 663c a4e5 efbe 2585 973d b260 afbe
00000170: 34ee 92be 91ae 7fbe 4d8b c4bd 46d1 5bbe
00000180: c4cf af3d ea36 babd ff91 efbc b3ff 80bd
00000190: 5f73 99be d284 073d 8703 6ebd d291 cbbd
000001a0: 5256 bcbe 3593 0abe a71b 57bc 4e8b 183e
000001b0: 526b c83d d91f 2abe 6001 b3bd 3da4 e8bd
000001c0: 7523 59be 7133 d0be 5afe e0bd 0736 d6bd
000001d0: 83ef 50bc d28a b4be e083 9ebe 5736 58be
000001e0: 9868 9e3d 559b 54bd fc6d 76be d349 f03d
000001f0: 868d b1be 2fbe 98be 8f10 76be 85cf daba

network_body.linear_encoder.seq_layers.2.weight f4 [128, 128]
-0.059373096 -0.052236743 -0.022395162 -0.1376602 0.020705594 -0.21751656 -0.28993958 -0.13326807
-0.11662996 -0.24329275 -0.032167446 0.25588208 -0.04107532 -0.4639912 0.10481014 -0.0629682
-0.15332475 -0.036309913 -0.032913376 0.3516938 -0.34950906 0.06972135 0.10718324 0.071256064
-0.058590118 -0.008647822 -0.26282772 -0.20843542 -0.16591607 -0.068406545 -0.040684704 0.18066536
0.25525782 0.035426777 0.2189889 -0.3036275 0.08781905 0.016897688 -0.23822613 0.2532427
0.05712744 -0.030319171 -0.06955573 0.026756184 -0.18817733 0.09321138 0.14546195 0.30937952
0.18943016 -0.07357127 -0.0150658535 -0.30327386 -0.3649864 -0.07767094 -0.2059383 -0.36893967
-0.02593836 0.1611642 0.12571126 0.043976687 0.20382659 0.21372144 -0.3474336 0.04764446
0.018998036 -0.068400204 0.09790556 -0.589073 -0.052083876 0.24370733 0.1715826 0.047506806
-0.087281406 0.0071755527 0.124486454 -0.2252819 -0.18919662 0.29934403 0.0033777268 -0.056428295
-0.010005958 0.28103235 0.01866813 0.16780905 -0.28344363 0.07702941 0.10668716 -0.15303814
0.054507248 -0.087199524 -0.09497215 0.12538432 -0.3757324 -0.2922326 -0.071830146 -0.3638877
0.088109344 0.08134055 -0.33199 0.15935498 -0.37485668 0.12600628 0.18482246 -0.28448772
-0.020919554 0.21257535 -0.3084358 -0.2998326 -0.29126576 -0.024355581 -0.3132597 -0.22217336
0.15262581 -0.14471896 0.18500528 -0.43401906 -0.45737457 -0.107701324 0.29195037 0.17564759
-0.28675792 -0.04718056 -0.039657053 -0.031490784 0.51460147 -0.31151345 -0.36814627 -0.41967124
-0.28414592 0.09253601 0.026864655 0.17983787 -0.106319934 0.050486244 -0.1788873 -0.32168132
0.015330572 -0.30365694 0.23382019 -0.10613675 -0.0069814203 -0.31763378 -0.26879695 0.1560624
0.43549296 0.2437609 -0.26098788 -0.08175689 0.006422449 -0.20699829 -0.17835885 -0.034688383
-0.17534453 -0.14718413 -0.6803988 0.41593045 -0.1487304 -0.61468446 -0.10480132 -0.21395896
0.017587163 -0.13288608 -0.23557533 -0.06682144 -0.20082861 -0.03371844 -0.14911103 -0.03157875
-0.21671924 -0.18673004 0.20192344 -0.28234878 -0.22249815 -0.005872272 -0.041602228 -0.13630247
-0.019744253 -0.13025045 0.053435244 0.15761071 0.08454187 -0.3036417 -0.309241 0.17050412
-0.40017763 0.19907075 -0.10917637 -0.31450063 -0.34353828 -0.3577161 -0.25941274 -0.31863907
0.11170703 -0.07881147 0.102242276 -0.040230233 -0.42304492 -0.16232653 -0.23801142 0.34446532
0.010806228 0.08247425 -0.14224885 0.6755161 0.24098867 -0.07764348 -0.13869226 0.40308985
-0.37628138 -0.738394 0.25160825 0.15966497 0.049063526 -0.40262476 -0.33318597 -0.1609507
0.001642937 0.39370874 -0.04336388 -0.31270716 -0.19754685 0.06675656 0.16231333 0.022951178
0.035901092 -0.0011302871 -0.14889422 0.26174545 -0.7191295 -0.43241686 -0.20595543 -0.06226903
-0.2581933 -0.0103613995 -0.17083286 -0.14607854 -0.09507436 -0.031453717 -0.09844912 -0.17135055
-0.5288401 0.12725028 -0.29188263 0.12659387 -0.031234754 0.15576607 -0.19730449 -0.06511881
0.21542399 -0.13987099 0.04503631 0.15532114 0.0010882415 -0.26064867 0.30214277 -0.42711332
00000000: 3431 73bd 32f6 55bd 0f76 b7bc ccf6 0cbe
00000010: c79e a93c a9bc 5ebe f672 94be 6d77 08be
00000020: b0db eebd bc21 79be 03c2 03bd fa02 833e
00000030: 983e 28bd 4190 edbe b3a6 d63d 79f5 80bd
00000040: 2a01 1dbe b4b9 14bd 2dd0 06bd 3611 b43e
00000050: daf2 b2be 11ca 8e3d e382 db3d b3ee 913d
00000060: 31fc 6fbd 98af 0dbc 5b91 86be 1870 55be
00000070: e7e5 29be bb18 8cbd 01a5 26bd 5700 393e
00000080: 27b1 823e ab1b 113d a03e 603e 1075 9bbe
00000090: 79da b33d 056d 8a3c 8df1 73be 07a9 813e
000000a0: 76fe 693d e95f f8bc 3c73 8ebd c92f db3c
000000b0: 8fb1 40be 9ce5 be3d faf3 143e fe66 9e3e
000000c0: fbf9 413e 89ac 96bd c5d6 76bc b646 9bbe
000000d0: 7fdf babe f111 9fbd 7de1 52be a9e5 bcbe
000000e0: af7c d4bc 3a08 253e 74ba 003e e620 343d
000000f0: ebb7 503e cbd9 5a3e d1e2 b1be d626 433d
00000100: c5a1 9b3c 6815 8cbd b682 c83d 7dcd 16bf
00000110: e755 55bd 6a8e 793e 59b3 2f3e 7f96 423d
00000120: 98c0 b2bd e620 eb3b c1f2 fe3d 4cb0 66be
00000130: c2bc 41be 9f43 993e da5c 5d3b 5b21 67bd
00000140: 08f0 23bc 79e3 8f3e e8ed 983c 23d6 2b3e
00000150: 861f 91be 98c1 9d3d cc7e da3d 08b6 1cbe
00000160: fe42 5f3d aa95 b2bd c280 c2bd bf64 003e
00000170: ff5f c0be 839f 95be af1b 93bd 7d4f babe
00000180: ac72 b43d e095 a63d 98fa a9be f42d 233e
00000190: 37ed bfbe ca07 013e 1942 3d3e 60a8 91be
000001a0: 7c5f abbc 5aad 593e 4ceb 9dbe a983 99be
000001b0: c920 95be 5b85 c7bc 9363 a0be 6a81 63be
000001c0: f149 1c3e 3531 14be 0672 3d3e bf37 debe
000001d0: 002d eabe 8392 dcbd 857a 953e f6dc 333e
000001e0: efd1 92be 6740 41bd 6f6f 22bd 7bfc 00bd
000001f0: ecbc 033f b17e 9fbe ab7d bcbe 26df d6be
00000200: 937b 91be 8583 bd3d 4413 dc3c 6b27 383e
00000210: 44be d9bd aaca 4e3d 3b2e 37be 6ab3 a4be
00000220: 142d 7b3c ec78 9bbe 8f6e 6f3e 395e d9bd
00000230: 66c4 e4bb e5a0 a2be c19f 89be d2ce 1f3e
00000240: eff8 de3e 759c 793e 34a0 85be 2870 a7bd
00000250: 6873 d23b 5cf7 53be b4a3 36be 6815 0ebd
00000260: 848d 33be 70b7 16be 9e2e 2ebf d6f4 d43e
00000270: c84c 18be f65b 1dbf 13a2 d6bd 0f18 5bbe
00000280: f412 903c 4a13 08be a93a 71be aed9 88bd
00000290: 04a6 4dbe 591c 0abd 90b0 18be b858 01bd
000002a0: a6eb 5dbe 2936 3fbe 05c5 4e3e 0590 90be
000002b0: 8ed6 63be 306c c0bb 1967 2abd e092 0bbe
000002c0: b3be a1bc 6060 05be eade 5a3d b464 213e
000002d0: 4a24 ad3d ed76 9bbe d654 9ebe a298 2e3e
000002e0: 15e4 ccbe 34d9 4b3e dc97 dfbd 3a06 a1be
000002f0: 40e4 afbe 9126 b7be bfd1 84be a924 a3be
00000300: a8c6 e43d e867 a1bd 6664 d13d 75c8 24bd
00000310: 5899 d8be ed38 26be 44b9 73be c25d b03e
00000320: 9b0c 313c 42e8 a83d afa9 11be a0ee 2c3f
00000330: bcc5 763e 8b03 9fbd 5805 0ebe cb61 ce3e
00000340: f4a7 c0be 6407 3dbf ccd2 803e 377f 233e
00000350: d6f6 483d d524 cebe 5a97 aabe 43d0 24be
00000360: d157 d73a 3194 c93e 539e 31bd 271b a0be
00000370: b949 4abe aab7 883d 7735 263e 1c04 bc3c
00000380: 060d 133d 2426 94ba ba77 18be 8003 863e
00000390: df18 38bf be65 ddbe fbe5 52be cf0d 7fbd
000003a0: ea31 84be dcc2 29bc cfee 2ebe 9d95 15be
000003b0: 59b6 c2bd 9dd5 00bd b19f c9bd 8576 2fbe
000003c0: 1162 07bf e64d 023e a471 95be d3a1 013e
000003d0: 07e0 ffbc 2481 1f3e 300a 4abe 035d 85bd
000003e0: 1b98 5c3e 573a 0fbe fe77 383d 810c 1f3e
000003f0: 53a3 8e3a be73 85be 75b2 9a3e 99ae dabe

network_body.linear_encoder.seq_layers.4.bias f4 [128]
0.29425395 -0.14963678 -0.1507539 0.51543146 -0.06953901 0.15058866 0.38273758 0.48415428
0.3780979 0.12642829 0.5165205 -0.38679382 0.11970968 0.08731491 0.09592378 0.02084558
-0.38002318 -0.14919715 0.23236337 -0.058507044 -0.07040152 -0.266417 0.078865424 0.07622152
-0.10642763 0.2163757 0.22584157 0.2587061 0.1327417 0.41588622 -0.19534005 0.43468198
-0.08763132 0.07485735 -0.08270779 0.078526564 0.2142336 -0.05013901 -0.10691195 0.057220474
0.33791006 -0.106242985 0.5311293 0.05866846 0.40151736 0.13557978 -0.092815906 0.23466669
-0.017446835 -0.068676166 0.39893982 -0.20671508 0.22119765 0.055648122 0.18084307 -0.1815553
0.093197845 0.22598565 -0.092750266 -0.14576973 0.34556332 -0.11609375 0.3288081 -0.40356386
0.46147412 -0.08362441 0.3413133 0.6007735 0.23693386 -0.26518047 0.0067508034 -0.20794593
-0.16871247 0.10924614 0.4235112 -0.050127544 -0.016923036 0.5937775 0.27626726 0.127262
-0.0949474 0.01581095 0.1509175 0.2719636 0.02617375 0.29348886 -0.053714074 0.027887292
0.124618314 0.15407462 -0.3946541 0.1833004 0.48218226 0.2036255 -0.02229439 0.48594686
0.14864911 0.47934037 -0.14429596 0.10327455 -0.0009936267 0.28499624 -0.030811226 0.14088617
0.10343609 0.010526049 0.017867137 -0.006713432 0.19682808 0.017385261 0.08010813 0.5572234
0.20921461 -0.040120788 0.016088363 0.45653275 0.080891594 0.02775502 0.14509396 0.33523083
0.028762879 -0.19781756 0.0056865667 0.008563288 0.34967393 0.27783406 0.409377 -0.1413207
00000000: 74a8 963e 623a 19be 3b5f 1abe 51f3 033f
00000010: 786a 8ebd ea33 1a3e 2ef6 c33e 12e3 f73e
00000020: 0c96 c13e 6b76 013e b03a 043f d709 c6be
00000030: 592a f53d 29d2 b23d b073 c43d 5ac4 aa3c
00000040: 6692 c2be 23c7 18be aaf0 6d3e 15a5 6fbd
00000050: ac2e 90bd cf67 88be 3284 a13d 071a 9c3d
00000060: bbf6 d9bd 9791 5d3e 0343 673e 2075 843e
00000070: 71ed 073e 0aef d43e 3907 48be a38e de3e
00000080: 0d78 b3bd cf4e 993d b462 a9bd 89d2 a03d
00000090: 0e60 5b3e 905e 4dbd a7f4 dabd 0460 6a3d
000000a0: 8c02 ad3e ec95 d9bd 17f8 073f 574e 703d
000000b0: af93 cd3e 6dd5 0a3e 4416 bebd 774c 703e
000000c0: aaec 8ebc 17a6 8cbd d741 cc3e 1ead 53be
000000d0: a381 623e 49ef 633d ed2e 393e a2e9 39be
000000e0: 83de be3d c868 673e daf3 bdbd a944 15be
000000f0: aded b03e 8fc2 edbd 8959 a83e ec9f cebe
00000100: 5646 ec3e 4643 abbd 9ec0 ae3e 4bcc 193f
00000110: ca9e 723e bcc5 87be d835 dd3b c7ef 54be
00000120: f6c2 2cbe 71bc df3d 76d6 d83e 8a52 4dbd
00000130: 2ea2 8abc cd01 183f e772 8d3e f850 023e
00000140: c873 c2bd f785 813c 1e8a 1a3e d03e 8b3e
00000150: 556a d63c 2c44 963e 4a03 5cbd e473 e43c
00000160: e337 ff3d bdc5 1d3e 1a10 cabe 1ab3 3b3e
00000170: 98e0 f63e 3483 503e b9a2 b6bc 07ce f83e
00000180: 7937 183e 1a6c f53e 52c2 13be 9b81 d33d
00000190: 943c 82ba 07eb 913e d367 fcbc 7744 103e
000001a0: 4dd6 d33d 7375 2c3c 1a5e 923c 59fc dbbb
000001b0: 4d8d 493e 896b 8e3c bb0f a43d 31a6 0e3f
000001c0: 5b3c 563e b255 24bd becb 833c a9be e93e
000001d0: 7eaa a53d 7f5e e33c 8393 143e 60a3 ab3e
000001e0: 21a0 eb3c b090 4abe 6156 ba3b 084d 0c3c
000001f0: 7608 b33e 4440 8e3e dd99 d13e 60b6 10be

network_body.linear_encoder.seq_layers.4.weight f4 [128, 128]
-0.21479006 -0.047279675 -0.25156268 0.029128257 -0.10826505 0.07319895 -0.02318898 0.52649796
0.097983964 -0.25285476 -0.6606436 0.026811633 0.1761211 -0.18996513 -0.023469789 -0.098795846
0.36815032 -0.103132516 -0.16722676 -0.20741777 0.003106352 -0.050281454 0.09013168 -0.7273316
0.20899382 -0.109083414 -0.2994696 0.016582532 -0.036512554 0.032781538 -0.71648484 0.31340274
-0.43777442 -0.40594754 -0.22356404 -0.09631638 -0.4590567 -0.046961147 -0.28781426 -0.07890767
-0.14232388 -0.1907493 0.0067403778 -0.40686136 -0.021636287 0.0014842768 -0.03538502 0.22502835
-0.24235557 -0.7100949 -0.13835977 0.07255239 -0.55614156 -0.11896882 -0.06457253 -0.71654636
-0.14802405 -0.18590093 -0.115197286 0.13283142 -0.34968495 -0.4463797 0.25448123 0.007035603
-0.06465497 -0.44815525 -0.35695595 -0.03763315 -0.5244319 0.045581773 -0.21548332 0.06309425
0.11348481 -0.51083964 0.1003046 -0.07540571 0.45414448 -0.5555876 -0.30263433 0.16253643
-0.12322847 -0.29760593 -0.12520783 0.018398015 0.17182532 0.24406874 0.015367625 0.080343135
-0.014590427 -0.479958 0.115023464 0.01887804 -0.044821367 -0.22284693 -0.38459438 -0.04255104
0.06454132 -0.45731476 -0.04491912 0.095746845 -0.021061284 -0.903225 -0.1665321 -0.18186088
-0.4224477 0.1760701 -0.6209611 -0.015164551 -0.22858481 0.33865464 -0.23832706 -0.91372955
-0.23359872 -0.0028867156 -0.25152475 -0.14904432 -0.030537153 -0.04979694 0.15511425 0.031800363
0.054617874 0.045166172 0.17714024 -0.1523607 -0.39490137 -0.113955125 0.10455011 -0.20908771
0.12775177 0.090306155 0.13218506 -0.024416307 -0.06627736 -0.14635582 -0.4148758 -0.00360279
0.18438737 -0.055566628 0.021334177 0.109379895 -0.036729425 0.06352126 -0.09870503 0.016164029
0.07683519 0.09522924 -0.3421809 0.16100436 -0.11329945 -0.3923124 -0.04535538 -0.36030605
0.28264073 -0.27095485 0.06695163 0.1282778 0.0865487 0.056622602 -0.15411238 -0.27854815
0.28994387 0.089645 0.07885409 0.33602715 0.13690387 -0.22207046 -0.50994545 -0.10992916
0.094337784 0.113134496 0.016901327 0.26590997 -0.08188573 -0.11167713 0.20683959 0.17538576
0.05556651 -0.20146629 -0.3267097 -0.3454566 -0.10448342 0.1633613 0.27112386 -0.014285425
0.2598474 -0.5734457 -0.07955538 -0.39466554 -0.31233853 0.37557814 0.00074670906 0.015628649
0.14853536 0.112286285 -0.079966076 0.48527023 0.16797969 -0.36921445 -0.06177066 -0.3380169
0.14960843 -0.06922522 -0.23795201 0.13906446 -0.37065634 0.13956359 0.28473178 -0.5944795
0.25889537 0.0010577206 0.16243735 -0.117899366 0.22105755 -0.08191424 0.09970879 0.20867226
0.012248036 -0.14257702 -0.16696614 0.23545007 0.15581642 0.2100468 0.40628147 0.0015313759
0.15197916 -0.026824856 -0.0070434962 -0.49341726 0.25231972 0.40325642 0.15056343 0.0561489
-0.28877228 0.18661395 -0.13135184 0.10007648 0.46563792 -0.43245828 -0.20528921 0.16691276
0.12131781 0.42975467 -0.5709142 0.066420816 -0.1877826 -0.0015716151 0.3575132 0.08109698
-0.013283269 0.05191805 -0.24084955 0.4943196 -0.0732107 0.47197464 0.12922335 0.46598724
00000000: edf1 5bbe 55a8 41bd d3cc 80be 629e ee3c
00000010: 11ba ddbd 55e9 953d d1f6 bdbc 92c8 063f
00000020: d1ab c83d 2e76 81be f01f 29bf 12a4 db3c
00000030: 1759 343e 3886 42be b743 c0bc 7a55 cabd
00000040: 337e bc3e 2437 d3bd 7e3d 2bbe 5365 54be
00000050: f093 4b3b edf3 4dbd f596 b83d 6732 3abf
00000060: 7a02 563e 2067 dfbd 1454 99be 17d8 873c
00000070: 308e 15bd ef45 063d 8d6b 37bf 5376 a03e
00000080: f823 e0be 5bd8 cfbe f9ed 64be 8641 c5bd
00000090: 7b09 ebbe 555a 40bd 645c 93be 589a a1bd
000000a0: 5abd 11be c953 43be 63de dc3b 2250 d0be
000000b0: 953e b1bc 118c c23a e2ef 10bd d56d 663e
000000c0: 0f2c 78be c8c8 35bf 2fae 0dbe 5996 943d
000000d0: 4b5f 0ebf eda5 f3bd 9a3e 84bd 956f 37bf
000000e0: 9e93 17be d05c 3ebe 8eec ebbd f604 083e
000000f0: e809 b3be e18b e4be 5d4b 823e ea8a e63b
00000100: d369 84bd 9b74 e5be eec2 b6be 3825 1abd
00000110: 2b41 06bf f4b3 3a3d a9a7 5cbe 8f37 813d
00000120: b96a e83d 63c6 02bf 806c cd3d 4f6e 9abd
00000130: a085 e83e fd3a 0ebf e3f2 9abe f36f 263e
00000140: 355f fcbd ce5f 98be 7b36 00be 6fb7 963c
00000150: faf2 2f3e 28ed 793e 7ec8 7b3c f18a a43d
00000160: b00c 6fbc 0ebd f5be 6c91 eb3d 1fa6 9a3c
00000170: 9c96 37bd fc31 64be 8ee9 c4be 004a 2ebd
00000180: 3d2e 843d 2925 eabe 1cfd 37bd ec16 c43d
00000190: b788 acbc c139 67bf 6487 2abe bd39 3abe
000001a0: 114b d8be b84b 343e 4ff7 1ebf bd74 78bc
000001b0: 2312 6abe 2464 ad3e 020c 74be 2eea 69bf
000001c0: 8134 6fbe 0d2f 3dbb dac7 80be 139f 18be
000001d0: 0d29 fabc e0f7 4bbd 45d6 1e3e 1941 023d
000001e0: feb6 5f3d 2a00 393d 4064 353e 7104 1cbe
000001f0: 8330 cabe 4e61 e9bd 5e1e d63d 171b 56be
00000200: 5cd1 023e 6ff2 b83d 855b 073e b504 c8bc
00000210: 6dbc 87bd 4dde 15be 9a6a d4be c91c 6cbb
00000220: 0bd0 3c3e d599 63bd 03c5 ae3c 9102 e03d
00000230: 9871 16bd 6f17 823d dd25 cabd 6d6a 843c
00000240: c55b 9d3d 8c07 c33d 5632 afbe 54de 243e
00000250: 8b09 e8bd 2cdd c8be 90c6 39bd 097a b8be
00000260: 49b6 903e 98ba 8abe f01d 893d 415b 033e
00000270: 7240 b13d 1aed 673d a3cf 1dbe dd9d 8ebe
00000280: 8673 943e cc97 b73d 417e a13d c00b ac3e
00000290: 8730 0c3e 7066 63be c98b 02bf 8a22 e1bd
000002a0: 2b34 c13d 0fb3 e73d a774 8a3c 5a25 883e
000002b0: b5b3 a7bd fbb6 e4bd c2cd 533e 5398 333e
000002c0: b599 633d 2e4d 4ebe 7e46 a7be b0df b0be
000002d0: 67fb d5bd 2f48 273e bfd0 8a3e 6a0d 6abc
000002e0: b80a 853e 56cd 12bf eeed a2bd 9a11 cabe
000002f0: d6ea 9fbe c74b c03e ccbe 433a a707 803c
00000300: a719 183e 5af6 e53d 41c5 a3bd 5775 f83e
00000310: de02 2c3e ad09 bdbe 3b03 7dbd 8d10 adbe
00000320: f432 193e f4c5 8dbd b1a9 73be ea66 0e3e
00000330: abc6 bdbe c2e9 0e3e 5dc8 913e cf2f 18bf
00000340: ef8d 843e 37a3 8a3a fa55 263e 3975 f1bd
00000350: e95c 623e a7c2 a7bd 1f34 cc3d 2eae 553e
00000360: fdab 483c b6ff 11be 2cf9 2abe d319 713e
00000370: 578e 1f3e 8216 573e 2004 d03e 73b8 c83a
00000380: 6da0 1b3e cdbf dbbc 21cd e6bb 30a1 fcbe
00000390: 0d30 813e a077 ce3e 4d2d 1a3e 64fc 653d
000003a0: f6d9 93be ba17 3f3e 1981 06be e6f4 cc3d
000003b0: 1868 ee3e 2c6b ddbe 5637 52be 2eeb 2a3e
000003c0: 7975 f83d ce08 dc3e 6f27 12bf a307 883d
000003d0: 154a 40be a7fe cdba f80b b73e 2c16 a63d
000003e0: 11a2 59bc 05a8 543d 44a1 76be 7517 fd3e
000003f0: 7eef 95bd a9a6 f13e 2053 043e e195 ee3e

network_body.vector_processors.0.normalizer.running_mean f4 [35]
0.93946517 0.9702218 0.93420047 0.9673918 0.94290555 0.9711059 0.9400825 0.97053117
0.9500751 0.9745971 0.9453976 0.9725509 0.9516344 0.9751107 0.950705 0.97538346
0.950705 0.97538346 0.018596541 -4.6017733e-05 -0.062953554 -0.5367524 0.49871954 -0.5133975
-0.39964047 0.26641014 -0.4528428 0.0 0.0 0.0 0.0 0.0
0.0 0.0 0.0
00000000: ca80 703f 7560 783f c327 6f3f fda6 773f
00000010: 4262 713f 659a 783f 3fa9 703f bb74 783f
00000020: 1f38 733f 327f 793f 9405 723f 19f9 783f
00000030: 509e 733f dba0 793f 6761 733f bbb2 793f
00000040: 6761 733f bbb2 793f c657 983c 2a03 41b8
00000050: cbed 80bd 9b68 09bf 2b58 ff3e 056e 03bf
00000060: ad9d ccbe e966 883e 03db e7be 0000 0000
00000070: 0000 0000 0000 0000 0000 0000 0000 0000
00000080: 0000 0000 0000 0000 0000 0000
