Assets/Scripts/2.1 SensorBall&Cat/BallEngineAI-5M.onnx (onnx, 154666 bytes, 11 tensors)

69 f4 [35]
000000 68 74 71 3e e7 27 05 3e fd 9a 76 3e 38 fc 07 3e
       0.23579562 0.13003503 0.24082561 0.13279808
000010 5a 40 65 3e c8 85 00 3e ed 66 74 3e a4 ee 07 3e
       0.2238783 0.12551033 0.23867388 0.13274628
000020 41 ab 5e 3e 0a b5 fc 3d 28 63 66 3e 95 ca 00 3e
       0.21745016 0.12339218 0.22498763 0.12577279
000030 62 96 5c 3e 72 28 fb 3d 4e 4a 61 3e 70 7f fc 3d
       0.21541741 0.12263574 0.22001001 0.12328994
000040 4e 4a 61 3e 70 7f fc 3d b5 5f 91 40 5f 32 6b 3d
       0.22001001 0.12328994 4.542933 0.057421084
000050 f4 00 92 40 d0 8a 83 40 17 73 3b 3d ff b8 83 40
       4.5626163 4.110695 0.045764055 4.1163325
000060 6f ef 94 40 55 b2 58 3d 7c 38 94 40 e2 8e df 39
       4.6542277 0.052904446 4.631895 0.0004264033
000070 e2 8e df 39 e2 8e df 39 e2 8e df 39 e2 8e df 39
       0.0004264033 0.0004264033 0.0004264033 0.0004264033
000080 e2 8e df 39 e2 8e df 39 e2 8e df 39
       0.0004264033 0.0004264033 0.0004264033

action_model._continuous_distribution.log_sigma f4 [1, 2]
000000 bb eb 4d 3e fe 04 da 3c
       0.20109455 0.026613709

action_model._continuous_distribution.mu.bias f4 [2]
000000 a4 8b 53 3c 50 55 10 bc
       0.012911711 -0.008809403

action_model._continuous_distribution.mu.weight f4 [2, 128]
000000 e7 cd fd bd 40 e5 d2 39 69 88 e4 3b 13 07 92 bc
       -0.123927884 0.00040225126 0.006974269 -0.017825639
000010 ca 23 ac 3c 22 d5 e7 3c 46 96 e0 3d 2e ea 80 bc
       0.02101316 0.028299872 0.109661624 -0.015736666
000020 82 25 e3 3d 7e f1 68 3c d5 b5 b8 3b 85 de e8 bc
       0.110911384 0.0142177325 0.0056369104 -0.028426418
000030 fc 26 dd 3d 5d 71 48 bd 03 19 15 3d 3e cb 12 bb
       0.10798451 -0.048936237 0.036400806 -0.0022398974
000040 7f 26 ce 3c da 5e 50 3b 90 b2 12 3e 96 60 e7 3b
       0.02516484 0.0031794817 0.14325929 0.0070610745
000050 ed e9 13 3d 34 ba 37 3d 1e 6e c7 bc 8a c7 84 3d
       0.03611176 0.04485531 -0.0243445 0.064833716
000060 fb 85 8e bc 5f c5 cb 3b ec f6 8e bd 1c a7 ca bd
       -0.017397871 0.006218597 -0.0698069 -0.09895155
000070 75 06 ae bd 32 69 01 3e c9 13 56 3c 74 33 dc 3d
       -0.08497325 0.12637785 0.013066241 0.107520014
000080 0d 9d 8d 3c ee 0c d9 3c 7c b7 01 bc 21 ee 1e 3d
       0.017286802 0.026495423 -0.007917281 0.038801316
000090 79 79 ad bd 84 10 63 3d 03 06 eb b8 2d f7 fe bc
       -0.08470435 0.055435672 -0.00011206793 -0.031123722
0000a0 a0 f2 d9 bd f7 4a 06 3c 45 e6 00 be d1 e6 83 3c
       -0.1064198 0.008196584 -0.12587841 0.016101273
0000b0 52 32 f9 bd 9e 09 af bd ae 63 e4 3d 9f 21 bd 3d
       -0.12167801 -0.08546756 0.11151825 0.09234928
0000c0 f5 87 19 bc b0 a5 91 3d ad 5a 98 b9 55 77 f5 3d
       -0.009370794 0.071116805 -0.00029059258 0.119856514
0000d0 8d 31 df b9 fe f8 c2 3c 11 8e 9f bd ce 79 12 3d
       -0.00042570793 0.02380037 -0.07790769 0.035760693
0000e0 fa 02 1d 3e 61 7f cd 3d 20 d9 8f bb 6f 19 38 b9
       0.15333167 0.10034061 -0.004389897 -0.00017557082
0000f0 16 5b 9f 3d 31 24 02 3c 58 62 c7 bd 8f 3b 0f bd
       0.07781045 0.007943199 -0.097355545 -0.03496891
000100 d6 7d 14 be 67 56 e2 3b c3 54 ea 3d 48 36 56 be
       -0.14501128 0.0069072726 0.11441948 -0.20919144
000110 44 7d 7a bd 74 c1 a0 3b 3f ea f2 3c d2 54 08 3d
       -0.06115462 0.004905874 0.029652713 0.033284016
000120 9e e7 77 bb 03 e2 88 3b 32 4b 03 be c5 ce 7a 3d
       -0.0037827264 0.0041773333 -0.12821653 0.061232347
000130 14 4c c3 3c 7f 6d 1e 3e e0 ac f9 bd f0 d2 d1 bd
       0.023839988 0.15471457 -0.121911764 -0.10245311
000140 0b ae da 3c d6 ab 2c 3c 3e 26 8d bd 59 f6 14 3c
       0.026694318 0.010539016 -0.0689206 0.009091937
000150 0c 8a 16 3d 90 7a 2e 3d 5c c5 3b 3d c4 25 01 bd
       0.036752746 0.042597353 0.045842513 -0.031530157
000160 e2 11 24 3d be b8 cc bc 0c 31 38 3d 61 01 4a 3d
       0.040056117 -0.024990436 0.04496865 0.04931772
000170 01 87 9c bd 08 7d 50 bd ff 0e 64 3d be 5e ae bd
       -0.076429375 -0.05090049 0.055678364 -0.085141644
000180 3d 59 54 3c 05 5b 18 3e e9 54 73 bd 95 6a 6a bd
       0.012960729 0.14878471 -0.05940715 -0.05723055
000190 e8 f3 a0 3c 48 66 9b 3d cc 08 56 3c b5 d0 97 3d
       0.019647554 0.07587868 0.013063621 0.074128546
0001a0 1a 41 04 3d f8 17 85 3d f0 ae ab 3d 2d 6f f9 3c
       0.03228865 0.06498712 0.08382976 0.03044852
0001b0 80 ee 82 bd b1 2c 57 3d 02 50 14 3d 1d 63 e3 3d
       -0.063931465 0.052532855 0.036209114 0.11102889
0001c0 9a 82 9f bd e9 d6 5e 3d aa fd cf 3c c0 4a f1 3d
       -0.07788582 0.054404173 0.025389511 0.117818356
0001d0 a6 00 1e bd 4b 0c 83 bd 2f 4b 50 bd 7a 14 8d bd
       -0.038574837 -0.06398829 -0.05085295 -0.06888671
0001e0 bf 5c e3 bc b5 ba 6e bd 28 bd 03 3d c6 74 9a bd
       -0.027754186 -0.058283526 0.032162815 -0.07541804
0001f0 b9 0d 9b bc dc 1c c1 bd 7c b9 0e be 53 69 3b 3d
       -0.018927442 -0.094293326 -0.13937944 0.045754742
000200 f0 84 0e bd f3 dc 32 3c a7 4c ea ba d6 bc 06 be
       -0.034794748 0.010916936 -0.0017875627 -0.13157973
000210 4b 15 01 3d 99 d2 44 3c e2 dc 7b 3d da 33 1d be
       0.031514447 0.012013101 0.061489947 -0.15351811
000220 9b 7f 93 3d 31 f9 ae bb bd ff 0e 3e d7 ce bf bc
       0.07202073 -0.0053397645 0.13964744 -0.023414059
000230 a1 f9 a9 bc 4b 6a bf 3d 89 85 83 bd 32 2f b2 bc
       -0.020748915 0.09346446 -0.06421954 -0.02175102
000240 78 30 27 bc e5 4a 4f bc 0f 31 c0 bd 0f 92 b9 3c
       -0.010204427 -0.012652134 -0.09384357 0.022652654
000250 b5 47 1e 3c b6 1f 88 bd 1f 82 52 bb da 1c a3 3c
       0.009660651 -0.066466734 -0.0032121015 0.019911218
000260 ec 5d 9b bb 9c de 76 bd 3d 57 17 bc 8c f2 bf bc
       -0.004741421 -0.06027089 -0.009237108 -0.023431085
000270 ef e3 61 bd fa d7 52 3d 7b 16 e6 3c 7c 3f ae bd
       -0.055149015 0.051475503 0.028086891 -0.085082024
000280 3b 07 d0 bc e8 1f f5 b8 62 e4 3d bc 92 df aa bd
       -0.025394073 -0.000116884534 -0.011590095 -0.08343424
000290 06 3d 85 3d 05 4f 39 3d 6b f8 d9 bb 76 f7 22 3d
       0.0650578 0.045241375 -0.006651928 0.03978678
0002a0 1e 4a 06 bd dd 4e 47 bc 06 41 3e 3e 96 8f cb 3d
       -0.032785527 -0.012164799 0.18579492 0.09939496
0002b0 6b 80 19 bd c5 8c 36 3d ec ac 88 bb 5a a2 02 bd
       -0.037475985 0.044567842 -0.0041710045 -0.03189311
0002c0 3d 56 a2 3b 92 f9 ec 3b 63 06 ff 3d 84 ac 63 bc
       0.004954128 0.0072318995 0.1245239 -0.013896111
0002d0 7e cc 97 3d 17 f1 bc 3c 8b 38 2b 3d 79 b9 19 3d
       0.07412051 0.02306418 0.04180197 0.037530396
0002e0 61 aa 3d bd b9 ea 09 3c bf b7 dd 39 26 04 9d 3c
       -0.046305064 0.008417779 0.00042289306 0.019167017
0002f0 87 50 90 3d 98 cb 07 bb 52 0d 2f 3e 19 d0 07 bc
       0.07046609 -0.0020720717 0.17094925 -0.00828936
000300 26 02 c9 3c 3e 74 e4 bb 18 a2 06 be 64 d7 f0 38
       0.024537157 -0.006971865 -0.13147771 0.000114842114
000310 42 85 bc bd 9e 63 3b bc 9b b1 40 3b 0d 53 10 3d
       -0.092051044 -0.011437325 0.0029402736 0.035235453
000320 44 3f e8 3b 9f 45 fd bd 9e 68 99 bd c9 04 ce 3c
       0.00708762 -0.12366795 -0.07490657 0.025148766
000330 2a 0c 20 3d da 04 7c 3d d4 4f 2b bd 3c ad 9f 3d
       0.0390741 0.061528064 -0.041824177 0.07796714
000340 31 d2 72 3b 8e 93 be bc b0 9e 84 3d 44 03 e2 bd
       0.0037051553 -0.023263719 0.0647558 -0.11035779
000350 f2 0e dc bc b8 bb dc 3d 2e cf 6a bc 0d 86 e1 3b
       -0.026862595 0.10777992 -0.014331622 0.006882435
000360 8d 89 41 3d e1 1e a1 bd 63 65 16 3d 2a bc 74 bd
       0.04725032 -0.07867218 0.036717784 -0.05974976
000370 fa d7 22 be 42 a0 b5 3d 3e 73 1b bd 05 1a 03 3e
       -0.15902701 0.088684574 -0.0379517 0.12802894
000380 5b 69 2e 3d 0c 7d ab bd d7 fa 9f 3d d4 c6 a9 bd
       0.042580944 -0.0837346 0.07811516 -0.082898766
000390 23 d1 87 bb 75 d0 c5 bd 4a 92 7d 3a 74 40 ef 3d
       -0.004144804 -0.09658901 0.0009672983 0.11682215
0003a0 0c ba b8 3d 52 95 a2 3d 25 1b 29 be 8a dc f7 bc
       0.090198606 0.07938637 -0.16514261 -0.030256528
0003b0 69 d9 a4 3d 1d 38 82 bd 98 ce 81 ba 7c bb 08 3e
       0.0804928 -0.06358359 -0.0009903489 0.1335277
0003c0 66 c8 b2 bc 35 19 9c bb 9d 35 88 bd d2 e8 40 3d
       -0.021824073 -0.004763747 -0.06650851 0.047097035
0003d0 5d 29 12 bd a6 9a b4 3d 94 c6 22 3d c3 08 df 3d
       -0.03568398 0.08818559 0.03974016 0.10890343
0003e0 a9 e0 58 3c 0d 50 cf 3b 04 de 3d bc e6 cd 6b 3d
       0.013237157 0.0063266815 -0.011588577 0.057569407
0003f0 43 58 fc 3d b7 30 71 3c be b4 ab bd 1e 1c 66 3c
       0.12321522 0.014721087 -0.08384083 0.01404479

network_body.linear_encoder.seq_layers.0.bias f4 [128]
000000 c9 e1 81 3c 74 26 83 bd 3e 22 1d bd c7 05 f5 bc
       0.015854733 -0.06403819 -0.038362734 -0.029909981
000010 48 15 c3 bc 94 c6 15 bc da 8d 0d be 47 79 3e bd
       -0.023813859 -0.009141583 -0.13823643 -0.046502378
000020 a0 64 2d bd 4b 28 06 3d 63 dc 31 bc 52 54 91 3d
       -0.04233229 0.03275327 -0.010855767 0.07096161
000030 d6 fc cf bd 1a d6 c4 bd a6 9a 30 bd 24 49 62 3d
       -0.101556465 -0.09611149 -0.043116234 0.055245534
000040 69 48 94 bd 1a cd 00 be 9d 93 cf bc e2 d5 d2 3d
       -0.07240374 -0.1257824 -0.025338942 0.10294701
000050 cb 77 4b bd a8 2c 41 3a 8f bf 35 bd 27 d0 19 3d
       -0.04967479 0.000736902 -0.044372138 0.037552025
000060 c7 f0 78 bd 60 c5 b8 bd b1 30 9a bc c9 4c 94 bd
       -0.0607765 -0.09022021 -0.018822046 -0.07241208
000070 65 8e 14 bd 10 d0 43 bc cb a0 f5 bd 1b 11 be bd
       -0.03626861 -0.011951461 -0.119935594 -0.09280606
000080 30 79 96 3b 9c a9 dd bc 6c 2c ca bd e6 2d b9 bd
       0.0045920834 -0.027058415 -0.09871754 -0.090419576
000090 7c 34 4c bd f2 f7 c1 bd 86 88 bf bd 7e b9 4b be
       -0.04985474 -0.0947112 -0.09352212 -0.19894978
0000a0 55 11 b5 bb 71 9b 7b bd ff 5d 92 bd a8 b9 16 be
       -0.005525748 -0.061427537 -0.071468346 -0.1471926
0000b0 69 ca c7 bd 8b 8e 3c bd 2f 31 0f 3d 82 09 01 bd
       -0.097554035 -0.046034377 0.034959015 -0.031503208
0000c0 ce a5 7d 3a 5e ac 8b bd 38 97 71 bd f9 e8 7a bc
       0.0009675891 -0.06819986 -0.058982104 -0.015314334
0000d0 0c 85 99 bd f8 db ad 3d cb 41 f3 bd d6 67 32 3d
       -0.0749608 0.08489221 -0.118777834 0.043556057
0000e0 bf 48 e9 bc 01 ca d8 bd db d9 39 bc 1d 81 62 3d
       -0.02847707 -0.10585404 -0.011343445 0.055298913
0000f0 bd 7f 2e 3d 24 dd ef bd 88 68 81 3d a0 d7 61 bb
       0.04260229 -0.11712101 0.06318766 -0.0034460798
000100 87 29 8b bd d5 41 a9 3c b7 8c db 3c 56 32 b6 bc
       -0.0679503 0.020661274 0.026800497 -0.022240799
000110 ee 9a b4 bd f3 f0 18 be dc 2a 15 3c 05 83 9a bd
       -0.08818613 -0.14935665 0.009104457 -0.07544521
000120 8d 89 05 bd 93 f2 16 bd 75 bd cb bd 80 b8 42 bc
       -0.03260188 -0.03685243 -0.099482454 -0.011884809
000130 1a f2 e6 bb 49 27 d1 3c 2b c6 62 3c 31 38 10 be
       -0.0070479037 0.025531428 0.013841192 -0.14083935
000140 db 70 6f be 7d bb b3 3d 4c b8 fa bd 40 32 bc bc
       -0.23382895 0.08775995 -0.12242183 -0.02297318
000150 df 65 cd bc c9 65 a7 bd bf 65 dd bc 51 a2 cf bd
       -0.02507299 -0.08173711 -0.027026055 -0.10138381
000160 4b b8 11 3d ff 65 0c 3b 63 f6 8a bd 45 ea eb bd
       0.035576146 0.00214231 -0.06785276 -0.11519293
000170 5e f0 80 bc f8 ed c2 bd b3 35 0a bd 42 d4 d1 3a
       -0.015739616 -0.09518045 -0.033742618 0.0016008692
000180 af 95 85 bd 58 36 2e bd c4 22 23 3d 1e f7 5a be
       -0.065226905 -0.042532295 0.039828077 -0.2138333
000190 57 1f 37 bd d7 ec 4c be 55 0d 64 bc 9b 1f 17 3d
       -0.044707622 -0.20012222 -0.013919194 0.036895376
0001a0 04 b5 cf bc 75 fd 0e be df f0 9c 3c 25 59 66 3d
       -0.02535487 -0.13963874 0.019157825 0.05623736
0001b0 b0 4f f4 3c 8d fa a6 bd d9 a8 86 bb b6 52 6b bd
       0.029823154 -0.081532575 -0.0041094837 -0.057451926
0001c0 28 e1 53 be 98 6b f3 bd cd 78 ae bd 8a 92 be bd
       -0.20691359 -0.11885756 -0.08519135 -0.09305294
0001d0 53 e1 79 3d 9e 3b b2 bd e8 3f e4 bd a4 75 17 bd
       0.0610059 -0.08702777 -0.11145002 -0.036977425
0001e0 a3 e0 05 be c7 32 ae bd bd a5 d8 bd 14 5e 0e 3d
       -0.13073973 -0.08505779 -0.10578487 0.03475769
0001f0 b7 43 1f bd a6 f5 97 bd 04 e5 a1 3c 69 4c 02 be
       -0.038882937 -0.074199006 0.019762523 -0.1272446

network_body.linear_encoder.seq_layers.0.weight f4 [128, 35]
000000 03 1e 17 3e 22 c8 f9 be 5d 46 8f 3d ab 58 36 bd
       0.14757542 -0.48785502 0.069958426 -0.044518154
000010 44 28 ea 3d 57 fd 82 3e 08 b4 ad 3b 5e e5 a9 3d
       0.11433461 0.25583908 0.0053010024 0.082957014
000020 11 c3 5d 3d bc b5 eb 3d e7 16 5c 3d c0 77 74 be
       0.054141108 0.115092725 0.05373278 -0.23873806
000030 1b d6 26 3e d9 96 0c 3e 03 28 82 be e2 b4 b1 3c
       0.16292612 0.13729419 -0.25421152 0.021692697
000040 0b 4a 2e 3e d9 1d e9 bd cc aa b8 3e 3a 81 d1 3d
       0.17020433 -0.11382646 0.36067808 0.10229726
000050 97 bd c9 bc ca 07 95 be f6 45 a5 3d b2 e1 d3 3d
       -0.024626536 -0.29107505 0.080699846 0.10345782
000060 ea 75 0d 3f 82 f6 21 3d cc bc a0 be dc 7f a7 be
       0.5525805 0.03954173 -0.3139404 -0.32714736
000070 87 7a 56 be eb 1f b1 bd e5 6b 9c 3d 96 26 e2 bd
       -0.20945178 -0.08648666 0.07637767 -0.11042516
000080 92 1a ad 3e 11 05 a6 bc f8 f1 30 3d 4a 20 a1 bd
       0.33809334 -0.020266088 0.04319951 -0.07867487
000090 4b dd ee 3d 03 b4 0e 3d 08 05 5f be 83 d6 38 3d
       0.11663302 0.03483964 -0.21779263 0.04512645
0000a0 ce a4 42 bc 04 ac a3 bc 6b 8d 1d 3d d3 83 3f be
       -0.011880113 -0.019979484 0.038464945 -0.1870263
0000b0 47 7d 83 3e cb 9f 1d 3e 60 c0 63 be ea 44 14 be
       0.25681517 0.15392987 -0.22241354 -0.14479414
0000c0 a9 8e 04 3e a3 d0 6b be cb 36 3d 3e 80 d5 34 3e
       0.12945046 -0.23028807 0.18477933 0.17659569
0000d0 78 cb 08 bd 80 99 55 bd 17 4a 0f bc 0b 1d 7d 3d
       -0.033397168 -0.052148342 -0.008745692 0.061795276
0000e0 b6 69 b4 3e 9d 57 83 be ae 3d e7 3d ea 05 2a be
       0.352369 -0.2565278 0.11291061 -0.16603819
0000f0 f5 7c b1 3d 37 8c 40 bd 5f a5 ca 3c f9 da 5b 3d
       0.08666412 -0.04700872 0.024737058 0.053675625
000100 dc 96 a0 bb 32 9a cc 3c 61 70 63 3e 1e 5e f5 3c
       -0.0049007963 0.02497587 0.22210838 0.029952105
000110 ea cf e2 bd 45 37 b9 bd d8 07 b2 be 4f e9 62 3e
       -0.11074813 -0.09043745 -0.3477161 0.22159313
000120 d0 6b 84 3d 47 d5 65 be ea 3c 6d bc a6 ac 34 bd
       0.06465876 -0.2244464 -0.014479855 -0.044109963
000130 e5 3a d3 3c 91 c5 6a 3e 9c f3 85 3d 4b e5 34 be
       0.025784919 0.22926928 0.065406054 -0.17665593
000140 98 87 9f 3e 6b c6 91 3d 20 7e 42 3d 9b 33 d0 be
       0.31158137 0.07117923 0.047483563 -0.40664372
000150 0c da 5f 3e 1a 87 d2 bd db 7d b1 be 6a 49 9e bd
       0.21860522 -0.10279675 -0.34666333 -0.07728846
000160 1a 3d ba be a3 3b 08 be 85 f5 9c 3d 09 e6 20 be
       -0.36374742 -0.13304 0.07664017 -0.15712751
000170 79 fa 47 3e 18 27 ef bd 7e 80 68 3e ec 50 28 3c
       0.19529141 -0.116773784 0.22705266 0.0102731995
000180 79 8f ad 3d 64 4f a8 3e 82 08 6c be 83 81 a5 3d
       0.08474631 0.3287307 -0.2305012 0.08081343
000190 d1 d2 1a 3e 8e 2b 3d 3d 24 3b f8 3d 25 2a 7f 3e
       0.15119483 0.046184115 0.12120655 0.2491842
0001a0 06 db ca 3d 1e b0 20 bd b4 c2 11 be 2e 0b 93 3e
       0.09905057 -0.03923046 -0.1423443 0.28719467
0001b0 94 b4 0e 3d db a4 72 bd 14 0e af bd 68 1c 64 3e
       0.03484018 -0.05923925 -0.08547607 0.22276461
0001c0 2d b1 be bd ae 19 cf 3d 03 dc 97 3e 06 8f c7 3e
       -0.09311137 0.1011232 0.29660043 0.38976306
0001d0 34 49 1d bd 24 53 56 bc d9 a6 b1 3d e6 65 1d bd
       -0.03839989 -0.013081346 0.08674402 -0.038427256
0001e0 6d f5 55 3e 11 c9 06 be 73 a8 6e 3c 4e ee 2c 3e
       0.20894404 -0.13162638 0.014566529 0.16887781
0001f0 5e 86 0c be fc ae ed bc dd e6 cf 3d 9e aa 27 be
       -0.13723132 -0.029014103 0.101514556 -0.16373679
000200 05 be 87 3e d8 76 59 be 0e af 67 bc b8 8f 42 be
       0.2651216 -0.21236742 -0.014140857 -0.19000137
000210 b3 99 ee 3d 55 71 14 bc c3 73 5b 3e 65 b0 6f 3d
       0.116504095 -0.009060224 0.21430878 0.058517832
000220 2a 3c 71 3d d1 a3 6e 3e 50 71 9d bd 93 7a 7e 3b
       0.058895268 0.23304678 -0.07687628 0.0038830384
000230 67 dc 9d 3c 3e 1a 84 3e 2d ec c2 3d db 65 71 be
       0.019270135 0.2580127 0.09517703 -0.23574011
000240 13 dd 4a bd de 76 8d 3d ae 0e 1e be cf ce 6e 3e
       -0.04952724 0.06907438 -0.15435287 0.23321079
000250 c7 8c 0f be 05 25 43 be 75 38 04 3d 82 f1 b3 bd
       -0.14018546 -0.1905709 0.032280404 -0.08786298
000260 49 e6 82 be c3 f4 2c 3e 12 69 23 3d fd 11 1c bc
       -0.2556632 0.16890244 0.039895125 -0.009525773
000270 f2 5b 78 3d a1 13 83 bd aa 00 95 be 67 1f 80 3e
       0.06063456 -0.06400228 -0.2910207 0.25023958
000280 4f 6e f5 3d e1 73 93 be ff 0e be be 75 20 ce 3e
       0.1198393 -0.28799346 -0.37120816 0.40259138
000290 8a 99 f5 3e e6 e0 ec 3b d5 eb 35 be 81 bc 98 bd
       0.47968704 0.0072289584 -0.17765744 -0.07457829
0002a0 bd 1e 84 3e 02 86 35 bb 19 98 59 3e 74 4a a6 be
       0.258047 -0.0027698283 0.21249427 -0.32478678
0002b0 c6 a5 fd bd cc 61 7e bc 94 eb 0b 3e 02 93 0f be
       -0.123851344 -0.015526246 0.13664085 -0.14020923
0002c0 0d 5e c7 bd 8d d5 5b be d8 96 d1 bd 76 75 a3 3e
       -0.09734736 -0.21468182 -0.10233849 0.31925553
0002d0 cf b1 57 bd d2 e7 64 bc 82 d5 11 bc 24 03 a0 3e
       -0.052659806 -0.013971286 -0.008901002 0.31252396
0002e0 b4 07 d2 3d 17 97 ad 3e 58 44 13 3e 45 e7 87 3c
       0.102553755 0.33904335 0.1438154 0.01658977
0002f0 6a 77 94 3d 5f 33 9b be 44 07 00 3d 56 25 f8 3c
       0.07249339 -0.3031263 0.03125693 0.03029124
000300 1a 81 a4 3d 78 a4 8f 3e 8f f1 7d be 98 e6 1f be
       0.08032437 0.28055167 -0.24799179 -0.15615308
000310 ef 7b b9 3e 62 f0 93 be f3 8d 3b 3e eb ca ee be
       0.36227366 -0.28894335 0.18315868 -0.4663919
000320 8f a4 9e 3c 7e 48 4d bd 8c cb 05 3e 67 a4 c0 bd
       0.019365577 -0.050117962 0.13065928 -0.09406357
000330 17 f4 4a be fa 0e 3f bd 8c 7c 91 be 3f 4f d3 3d
       -0.19819675 -0.046645142 -0.28415334 0.10317849
000340 59 e6 f8 bd db 59 56 be 7a 77 67 bd 18 2e 8d be
       -0.1215331 -0.20932715 -0.056510426 -0.2757423
000350 1a cf 63 3d 9a 5a df 3c 18 5a c6 ba 21 49 87 3d
       0.05561743 0.027264882 -0.0015133051 0.06605745
000360 56 48 c3 3e b3 f6 4b bd fb 76 bd ba e1 01 d7 3d
       0.38141125 -0.049795818 -0.0014455015 0.10498405
000370 4c f3 ac 3c da c0 d2 3d 51 60 46 3c 1a 67 91 bd
       0.021112107 0.1029069 0.012107925 -0.07099743
000380 78 55 fe bc ce 4e 03 3e d1 7a 6a 3d a2 7b 26 3d
       -0.031046614 0.1282303 0.057246033 0.04064525
000390 15 32 ee bd cb aa 99 3e dd 19 4b 3d 74 d9 aa bd
       -0.11630646 0.30013117 0.049585212 -0.08342257
0003a0 6b 24 c5 3d 9a 6e f7 bd 4e 59 41 bc 3a e5 4a be
       0.09626087 -0.120816424 -0.011801077 -0.19814005
0003b0 a7 8f 7a 3d 46 d1 ff 3d c4 50 49 be 6e ce 23 3e
       0.061172154 0.124910876 -0.19659716 0.15996715
0003c0 b3 c3 2f 3d e8 fb 89 3e eb 47 17 3e c9 e9 32 3e
       0.042911243 0.26950002 0.14773528 0.17471994
0003d0 34 a8 83 bd 5d c8 df 3d 26 24 56 be e6 a8 6d 3e
       -0.064285666 0.10926888 -0.20912227 0.23208961
0003e0 38 16 80 be f8 dc ec 3b 26 53 44 3d 8a 58 3e 3d
       -0.25016952 0.00722849 0.04793086 0.046471156
0003f0 81 7a 4d bd 85 39 1c 3e cd 30 3f be cd 4d 19 3e
       -0.050165657 0.15256317 -0.1867096 0.14971085

network_body.linear_encoder.seq_layers.2.bias f4 [128]
000000 6b 61 d7 3a 73 d0 13 3d fc 8c b5 bb 68 b5 65 bd
       0.0016432231 0.036087465 -0.0055404883 -0.056081206
000010 67 d9 22 3b 9a 2f 0a 3d f3 f9 80 bd 99 cc 17 be
       0.002484882 0.033736803 -0.06297674 -0.14824142
000020 c6 5a 85 bd 6c 8d 86 bd dc 50 44 be f6 a9 a3 3c
       -0.06511454 -0.06569943 -0.1917147 0.019978505
000030 82 27 18 be f5 5f dc bc 13 5c 1a be 55 04 d0 bd
       -0.14858821 -0.026901225 -0.15074186 -0.10157076
000040 98 da f8 bd 42 39 51 bd ad cf 06 3d 79 66 92 3b
       -0.121510684 -0.051079996 0.0329129 0.004467782
000050 43 43 ee 3c 5b f5 96 bc 2f 8d a3 bc 81 59 b3 3c
       0.029084807 -0.018427541 -0.019964783 0.021893265
000060 22 da f3 bd af 5e 19 3d aa ed c4 bd ec 2e 09 be
       -0.1190684 0.037443813 -0.09615643 -0.13396806
000070 cf bc 9e 3d 92 84 f8 3c bd 83 af b9 fc 8d b8 3d
       0.07750856 0.030336652 -0.00033476754 0.09011456
000080 2e 88 02 be b6 e1 81 bd a7 5f 64 3d 91 e7 7e be
       -0.12747261 -0.06341879 0.055755284 -0.24893023
000090 08 6e 34 be a7 46 7b be b9 a0 d7 bd ff c4 a7 bd
       -0.17620099 -0.2453867 -0.10528702 -0.08191871
0000a0 4a 75 0e be 34 ac 16 be a6 23 16 bb 37 a4 6f be
       -0.1391193 -0.14714128 -0.0022909432 -0.23402487
0000b0 71 dd 99 bb 02 8c 6e 3c 76 25 e0 bd 08 0d 3c bd
       -0.0046955873 0.014559748 -0.10944645 -0.045910865
0000c0 59 b5 08 be 57 42 9a bd 44 81 4e be 13 aa 52 bd
       -0.13350429 -0.075321846 -0.20166498 -0.051431727
0000d0 11 ba 55 3d 33 1c 82 bc 76 f4 25 3d c8 25 85 bd
       0.0521794 -0.015882587 0.04051634 -0.06501347
0000e0 29 a7 3d bd 5e 29 d9 bd d7 ad 17 3d 65 45 d8 bc
       -0.046301994 -0.10603593 0.03703102 -0.026400277
0000f0 f6 e1 d2 bd 6e 2f 30 bd b1 8b 3a bd 54 e0 95 bd
       -0.10297005 -0.043013982 -0.045543376 -0.07318178
000100 0d 41 27 3d 77 b4 10 be 87 dd 88 3c df fe 85 bd
       0.04083352 -0.14131342 0.016707195 -0.065427534
000110 c4 e4 83 bd ec 8d 0c bd ae 20 36 be 57 fb 57 bd
       -0.06440118 -0.034315035 -0.17785904 -0.05272993
000120 5f cc 42 be 5e 6c db bc 7e 14 52 3d 70 1f 06 bc
       -0.19023274 -0.026785072 0.051289074 -0.008186206
000130 bd 7b 81 bd 94 57 06 bd bf 5c 7d bd d7 69 58 bc
       -0.06322429 -0.032798365 -0.061856028 -0.013208828
000140 15 2c bc bd bf 93 32 bd fe a9 56 bd ab fd 97 3d
       -0.091880955 -0.043597933 -0.05240821 0.0742143
000150 22 b6 80 bd 22 41 89 bd 01 f5 1e bd d6 24 2a bd
       -0.06284739 -0.06701876 -0.038807873 -0.041539036
000160 b0 5e 8c 3c 0e 52 b3 bd 91 70 01 bd 50 4a 32 be
       0.017134994 -0.08755885 -0.031601492 -0.1741116
000170 78 97 27 bd 45 a2 1b be a2 72 a5 bd dd 14 a8 bd
       -0.040915936 -0.1519862 -0.08078505 -0.08207104
000180 f9 a5 75 3d 38 91 6f bd 76 e1 7a bd 5c c3 81 3d
       0.059972737 -0.0584881 -0.061250173 0.0633609
000190 9c 94 c0 bd 40 07 02 bb 0e dd 6c bc 3c 78 1e be
       -0.09403345 -0.0019840747 -0.014457 -0.15475553
0001a0 eb 23 d0 bd 27 4b 10 be c6 13 f5 bd 0a a9 35 3d
       -0.10163101 -0.14091168 -0.11966662 0.04435066
0001b0 3e 0e 3f bb 8e a2 81 3c a0 00 58 bd 60 a7 a8 bd
       -0.0029152776 0.015824582 -0.05273497 -0.08235049
0001c0 3a fe bc bd 07 b4 e5 bd b9 fe df bd 34 41 2f be
       -0.09228177 -0.11215978 -0.10937256 -0.17114717
0001d0 32 07 7d bd d0 84 d2 bd 9b 39 35 be b9 ff 57 bd
       -0.06177444 -0.10279238 -0.17697756 -0.05273411
0001e0 fa 0b b0 bc c1 f3 0c bd 87 b0 19 be 5f 35 82 3c
       -0.021490086 -0.03441215 -0.15008746 0.01589459
0001f0 3b 40 e5 bd 93 06 1f be 04 67 6d bd 95 18 9a bc
       -0.111938916 -0.15529852 -0.05795957 -0.01881055

network_body.linear_encoder.seq_layers.2.weight f4 [128, 128]
000000 ff 7f 33 3c fb d3 69 bd 92 e3 c6 bc ca 86 15 be
       0.01095581 -0.057086926 -0.024278436 -0.14602199
000010 6f 1d cc bc 28 66 8d be b5 a8 44 bd ed db 4f bd
       -0.024916379 -0.27617002 -0.048012454 -0.050746847
000020 a8 d5 3b bc c0 70 44 bd 76 c2 12 3d 16 42 8a 3e
       -0.011464514 -0.04795909 0.035829984 0.27003545
000030 a9 c2 f6 bd d8 51 3c be 43 8e d1 bd c9 fe 34 bc
       -0.12048847 -0.18390596 -0.102322124 -0.011047074
000040 13 e4 de bd f2 b1 04 3c 63 eb e0 bd 21 0b 94 3e
       -0.108833455 0.008099066 -0.109823965 0.2891474
000050 c0 c3 e9 bd e8 84 56 3d 72 0b 29 3c 9d e2 25 3e
       -0.114142895 0.052372843 0.01031767 0.16199727
000060 84 fb 48 3d c1 5d 33 bd fc fb 34 be fa d3 25 be
       0.04906799 -0.043790583 -0.1767425 -0.16194144
000070 67 6c 93 bd 6b f7 6a bd 6d 1a 1a be f2 40 a6 3d
       -0.071984105 -0.057364862 -0.15049143 0.08117856
000080 61 81 20 3e b0 76 06 3e 84 d5 de 3d 24 b1 a7 bc
       0.15674354 0.13131213 0.108805686 -0.02047021
000090 f7 ef e3 3d 27 80 2a 3d 25 89 58 3d 48 34 f9 3d
       0.11129754 0.04162612 0.052865166 0.12168175
0000a0 14 e6 da bc d6 77 41 bd e1 d4 3e bd d2 6f 71 3d
       -0.026721038 -0.047233425 -0.046589736 0.05894453
0000b0 7b ac 39 be 74 61 88 bd b2 d7 39 3e d5 26 8d 3e
       -0.18132202 -0.06659213 0.18148687 0.2756869
0000c0 15 e8 58 3e 6d 58 da bc 91 29 a6 bd 74 ec 95 be
       0.21182282 -0.026653493 -0.08113397 -0.29281962
0000d0 1d af 93 be f8 ba ae bc 83 d7 88 bd 6f 68 52 be
       -0.28844538 -0.021329388 -0.066817306 -0.20547651
0000e0 5c 4b 10 bd af 5f a5 3d 4b 42 07 3b ec 4f 40 bd
       -0.03522812 0.08074891 0.002063888 -0.04695122
0000f0 c4 24 12 3e ea dd 29 bd ba 03 ea be e2 d8 26 3d
       0.14271837 -0.0414714 -0.45705968 0.04073418
000100 8a 88 50 3e 65 66 a6 bc 7f eb 2d 3e f8 ce d0 be
       0.20364586 -0.020312497 0.16984366 -0.40782905
000110 94 fe 9d 3d bd 2e 31 3e 72 fe d6 bd 69 6f 6b bd
       0.077145725 0.17302985 -0.1049775 -0.057479296
000120 25 24 8b bd 4d b4 9d 3b ae 17 9a 3c 8a 88 d9 bd
       -0.067940034 0.0048127533 0.01881012 -0.10621746
000130 67 6f c0 bc f1 3d 56 3e 43 d9 82 3d 0a 7d c6 bd
       -0.02349062 0.20922066 0.06389096 -0.09691818
000140 f2 e7 1a bd 01 9b 67 3e e6 04 91 bc 42 04 5a 3d
       -0.037818857 0.22617723 -0.017702531 0.053226717
000150 93 8b b5 bd ad 0a f1 3d 5c f2 1e 3e 49 b2 cf 39
       -0.08864512 0.11769614 0.1552214 0.0003961495
000160 63 83 29 3d 39 2e 21 be 0b d2 2c be 65 e5 16 3e
       0.041385066 -0.15740289 -0.16877 0.14735945
000170 67 1d 8d be 2e d9 33 be e2 8c 12 be d6 5b 4f be
       -0.27561495 -0.17563316 -0.14311555 -0.20249876
000180 49 7a 28 3a 98 35 f0 bc 21 99 02 be 59 09 b5 3d
       0.00064269133 -0.02932243 -0.12753727 0.088396735
000190 39 7f 59 be 95 11 0c 3d 72 87 6e 3e 2d f5 8e be
       -0.21239938 0.034196455 0.23293856 -0.2792143
0001a0 19 c9 00 3d 31 86 1d 3e 47 42 8b be 38 33 81 be
       0.03144178 0.15383221 -0.27199003 -0.2523439
0001b0 1d ec 30 bd 7e c2 b8 bd b3 53 98 bd 1c 24 02 be
       -0.043193925 -0.090214714 -0.07437839 -0.12709087
0001c0 07 6d 03 3d 4a 64 a4 bd 7d 8e 08 3e e3 49 53 be
       0.0320864 -0.08026941 0.13335605 -0.20633654
0001d0 f2 94 24 be 3a 46 51 bc 39 8c cc 3c 23 aa 55 3e
       -0.16072443 -0.012773091 0.024969207 0.20865683
0001e0 ba 6b 1c be 46 4e c2 bc 58 7c e3 bc 53 6a e5 3d
       -0.1527547 -0.023718964 -0.027769253 0.1120192
0001f0 3a 11 94 3e 30 56 23 be 1a 0b 9e be fb d3 1f be
       0.28919393 -0.15950847 -0.30867845 -0.15608208
000200 5b ec a1 be cd e1 d7 bd ac 96 c9 3c 33 ed 8f bc
       -0.31625637 -0.10541115 0.024607979 -0.01756916
000210 45 82 70 be d2 2b 3c be 29 06 51 bd 7a 49 22 bd
       -0.23487194 -0.18376091 -0.051031265 -0.039620854
000220 50 6d da bb a8 5f 59 be de 79 4f 3d b2 7c 9f bd
       -0.006665863 -0.21227896 0.05065333 -0.077874556
000230 f1 52 64 be 24 a6 14 be 7a 83 fe bc 36 07 aa bd
       -0.22297265 -0.14516503 -0.031068552 -0.083021566
000240 0d 99 29 3e d7 35 c7 3d 80 07 75 be ae 84 b4 3d
       0.1656229 0.09727066 -0.23928642 0.08814369
000250 70 58 56 3d 1e 3c 5e bd 72 ba 8a bd 5b f5 82 3d
       0.052330434 -0.05425655 -0.06773843 0.06394454
000260 e6 15 43 bd ec de 8d bd 69 92 9e be 06 36 77 3c
       -0.047628306 -0.069272846 -0.30971077 0.015088564
000270 47 9a ce bd 93 35 be be 96 c0 a9 bd da 92 56 bd
       -0.1008802 -0.3715025 -0.08288686 -0.052386142
000280 0c f6 33 be 5b 0a 43 3e 73 07 6a be 70 8f 61 3d
       -0.17574328 0.19046919 -0.22854404 0.055068433
000290 27 c6 d0 bd 2a a5 4d 3d 59 d5 3b 3d b2 1c 76 bd
       -0.101940446 0.05020634 0.04585776 -0.06008596
0002a0 99 8f 89 be 00 f7 92 be 3b 70 9f 3d 0c 66 69 be
       -0.2686737 -0.2870407 0.07785078 -0.22792834
0002b0 b3 ae bf 3b a2 a2 02 3d f3 76 25 3e 4c bc 24 be
       0.005849683 0.03189338 0.16158657 -0.16087455
0002c0 5d 8a 69 3d 2a 2c 2b be 6a bc d6 bc 82 7a cd bd
       0.05701672 -0.16716066 -0.02621289 -0.10033132
0002d0 03 f7 ce bd 10 94 f9 bc 91 36 11 3d 4f a1 97 bd
       -0.101057075 -0.03046611 0.03545243 -0.07403814
0002e0 92 a3 4f be 63 83 cc 3d 16 05 97 3c b6 d0 a4 be
       -0.20277241 0.099859975 0.018435042 -0.32190484
0002f0 88 c7 34 be 30 80 25 be db d1 7a be 04 4a ea bd
       -0.1765424 -0.16162181 -0.24494116 -0.114398986
000300 9c ae c1 3d 83 dd 87 3c 50 16 00 3e b4 b7 20 be
       0.09457132 0.016585117 0.12508512 -0.15695077
000310 32 f9 71 be 42 58 65 be dd af c7 bd 67 ee 8c 3d
       -0.23630217 -0.22396949 -0.0975034 0.06881409
000320 eb 34 4b bc 78 a5 47 bc 37 6b 1e 3d 7d de a2 3e
       -0.012402753 -0.012185447 0.038676467 0.3181037
000330 60 ae da 3c 88 da e4 3c d9 bb be bc fa 22 0f 3e
       0.026694477 0.027936235 -0.023282932 0.13978186
000340 87 c0 42 be 80 68 89 be aa 8b 49 3c 10 2c 1b 3c
       -0.19018756 -0.2683754 0.012301365 0.009470955
000350 5c cd ca bc 87 99 e5 bd d4 a7 60 be 8f 67 28 bb
       -0.024756126 -0.11210924 -0.21939021 -0.0025696491
000360 cd 0f 32 bb 50 d8 4d 3e 12 da a4 bd 02 77 fa bd
       -0.0027170063 0.20102048 -0.08049406 -0.1222973
000370 10 fa 8a be 8f 21 8e 3c cc 11 9c bd ec 44 02 be
       -0.27143908 0.017349986 -0.07620582 -0.12721604
000380 6a 36 c8 b8 a9 b8 0b be d1 67 a6 3d d7 69 06 bd
       -9.5468786e-05 -0.13644661 0.0812527 -0.03281578
000390 62 37 be be 96 7e 12 be 32 d2 37 be 5b c5 ce bb
       -0.3715163 -0.14306101 -0.17951277 -0.0063101477
0003a0 7b dc 9a bc 7c 4d 9a 3d 11 0d 66 be 40 cb bd ba
       -0.018903961 0.0753431 -0.22465922 -0.0014480129
0003b0 a1 83 27 be ba 36 09 be 53 2e ed bc 31 e6 8c bd
       -0.16358806 -0.13399783 -0.028952753 -0.06879843
0003c0 d3 76 a8 bd 72 d9 e3 bc 52 33 3b be 1a 0a c2 3d
       -0.08225789 -0.027813647 -0.18281296 0.09474583
0003d0 f2 d6 19 be 76 44 51 3d 2a 2d 23 3c e0 ac 0f be
       -0.15023401 0.05109068 0.009959498 -0.1403079
0003e0 8e ce 1b 3e 44 f1 31 bd 3e 6d 1e 3d 7d 3b 6e 3d
       0.15215513 -0.04344298 0.0386784 0.0581622
0003f0 18 20 58 3d f0 2e b1 3c ea 18 6c 39 e3 ce 7b be
       0.052764982 0.021628827 0.00022515995 -0.2459064

network_body.linear_encoder.seq_layers.4.bias f4 [128]
000000 f4 46 94 3d fc ef 5f bd 1e 4a 90 3d 19 9b e9 3d
       0.07240096 -0.054672226 0.07045387 0.11406536
000010 88 b5 93 bd c8 24 86 bb 3c 84 8c 3d 69 2d d2 3d
       -0.07212359 -0.00409374 0.06861159 0.102625675
000020 a5 1f be 3d 4f c2 f1 bc 3e 89 c7 3d 19 4e 00 bd
       0.092833795 -0.029511599 0.09742974 -0.03132448
000030 46 88 a5 3d 2b 5a e0 3c 45 9f d0 3c 56 7f 42 bc
       0.08082633 0.027386745 0.02546657 -0.01187118
000040 47 0d 9f bd 80 8b 79 bd 6d c4 c6 3d bf 43 be bc
       -0.07766204 -0.060924053 0.09705434 -0.023225663
000050 a0 d4 3e bd e8 00 ed bd 2b 10 aa 3c 13 ba 97 bc
       -0.046589494 -0.115724385 0.020759663 -0.018521344
000060 f7 c5 17 bd 43 50 be bc 20 a1 09 3d 68 fc 3a 3d
       -0.03705403 -0.023231631 0.033600926 0.04565087
000070 07 65 80 3d d2 91 b2 3d b5 e6 9e bd a6 c4 a6 3d
       0.062692694 0.08719219 -0.077588476 0.081429765
000080 59 af 1d bd e6 ae 86 bd 91 22 5d bd 14 14 31 3c
       -0.038497303 -0.06576328 -0.053988043 0.01080801
000090 0f c1 43 3d 27 c8 a8 3c 57 a0 cf bb 61 e0 d9 3c
       0.047791537 0.020603253 -0.0063362527 0.02659625
0000a0 67 c9 d9 3d 67 95 64 bd df 1f e1 3d e2 da 3e 3d
       0.106341176 -0.055806544 0.10992407 0.04659546
0000b0 42 98 f8 3d 6e a1 84 3d 8c ad fe 3c d9 0b 0f 3d
       0.12138416 0.06476103 0.031088613 0.03492341
0000c0 39 ec 6a bd a3 fa e6 3c 72 fd c1 3d dc df d1 3c
       -0.057354186 0.028195685 0.09472169 0.02561944
0000d0 3d 8d 0c 3d 87 10 37 3c 37 ee 3a 3d d7 6e 9b 3c
       0.034314383 0.011173374 0.045637336 0.018973751
0000e0 35 62 01 b9 11 79 73 ba 53 32 35 3c ef 21 26 bd
       -0.00012338984 -0.00092877547 0.0110593615 -0.040559705
0000f0 cd b9 9e 3d b4 85 25 bd 9a 79 08 3d 24 6b 90 bd
       0.077502824 -0.040410712 0.033319093 -0.070516855
000100 3e 1d 02 3e 03 47 b3 bd 95 ad ba 3d 80 dc 2b 3e
       0.12706468 -0.08753779 0.091151394 0.16783333
000110 84 e7 3f 3d 05 cd 06 be d5 44 d8 bd 57 9d b6 bd
       0.04685165 -0.13164146 -0.10560004 -0.08916729
000120 da 40 d9 bd a1 ea 8d bb e2 a5 ce 3d af 48 e6 bb
       -0.106080726 -0.0043309485 0.100902334 -0.0070277075
000130 f5 a3 68 3c 20 ef f6 3d 71 3e 95 3d a7 be 11 3b
       0.014199247 0.12057328 0.072873004 0.0022238882
000140 c6 12 55 bd 89 ce 23 bd 66 ad ba 3c 79 ab 94 3d
       -0.052019857 -0.03999189 0.022787761 0.07259268
000150 18 43 30 bd c5 30 f1 3c 1d 2e 83 bd f4 07 8f bb
       -0.043032736 0.0294422 -0.0640528 -0.0043649618
000160 80 43 fa bb 58 4b a4 bb b2 c2 8c bd bc 49 e5 3b
       -0.007637441 -0.0050138645 -0.06873073 0.006997315
000170 c7 41 e6 3d fc 93 1a 3d e0 ce 49 bd e8 37 b3 3d
       0.11243015 0.037738785 -0.049269557 0.08750898
000180 14 8c 19 ba e9 fc b3 3d 88 04 6d 3d b8 41 3b 3d
       -0.000585736 0.08788473 0.05786565 0.04571697
000190 69 50 64 bd d9 b2 58 3d 6e 35 a2 bd 97 0b c7 3d
       -0.055740748 0.052904937 -0.07920347 0.097190075
0001a0 96 8e 33 3d 3f df e6 3a 79 0b 0e bd 07 28 8a bd
       0.043837152 0.001761414 -0.03467891 -0.06745916
0001b0 46 9d 9a 3d ce ed 28 bc b5 ff 8c bd 88 54 2b 3e
       0.07549529 -0.010310603 -0.0688471 0.16731465
0001c0 57 c9 b7 3c e8 54 4b 3c 7f e3 ed bc 00 3f 8e 3d
       0.022434874 0.01241038 -0.029039143 0.0694561
0001d0 f6 6b c6 3c 89 e0 30 3d 11 ae ae 3c 0d 28 bb 3d
       0.024221402 0.043182883 0.021323236 0.091384985
0001e0 9a 89 06 bd 87 91 fb 3c cd e9 29 bd 9e 53 49 3d
       -0.03284607 0.030709041 -0.041482735 0.04915201
0001f0 e3 08 0b 3d ae e8 d2 3d 1a af 05 3e cd 71 68 bc
       0.033944022 0.102982864 0.13055077 -0.0141872885

network_body.linear_encoder.seq_layers.4.weight f4 [128, 128]
000000 78 87 1b 3c fd 85 8a 3d 9f a9 84 bd 60 7d 88 bd
       0.0094927475 0.067638375 -0.06477665 -0.066645384
000010 97 b3 86 bd 26 f1 2c 3d 4a c1 1e bd e2 9b 8e 3e
       -0.06577223 0.042222165 -0.038758554 0.27853304
000020 85 30 cf 3d 16 08 0a 3d 5e e7 84 be 9d 27 71 bd
       0.10116676 0.033699118 -0.2595777 -0.05887567
000030 ac b4 d1 3d f2 f3 a6 bd 5c 0b 5a ba e9 b6 63 bd
       0.102395386 -0.081519976 -0.0008317733 -0.05559436
000040 71 81 06 3e 3b d4 b4 bd 06 0b 48 3d d5 b6 1d bc
       0.13135315 -0.08829542 0.048838638 -0.00962611
000050 f7 17 7b bd 87 7b 62 bd e6 cd 11 be f4 06 a5 be
       -0.06130215 -0.055293586 -0.142387 -0.32231867
000060 34 b2 e4 3d 6a 38 28 bd 5d 41 9d bc 2e ae 49 be
       0.11166802 -0.041069426 -0.019196207 -0.1969535
000070 1f c3 f5 3d 8f da 1b 3e f4 72 8b be 2b b1 9c 3e
       0.12000107 0.15220092 -0.2723614 0.30603918
000080 8e f4 40 be 30 36 f2 bd b9 5d 84 bd ce 4f 26 bd
       -0.1884329 -0.11826742 -0.06463189 -0.04060345
000090 31 d1 f5 bd 75 a2 4d be 27 99 57 be 24 d8 56 bd
       -0.12002791 -0.20081504 -0.21054517 -0.05245222
0000a0 d2 ab 4f be 51 5d 9f bd 40 f0 e4 3d a9 5c 23 be
       -0.20280388 -0.077814706 0.111786366 -0.15953316
0000b0 35 3d 1c 3c f8 9a 0a be 0c 11 91 bd ea a3 73 bd
       0.009536077 -0.13535678 -0.070833296 -0.059482493
0000c0 01 1c 37 be 63 6c 7e be 70 c6 f7 ba 15 5e 9a 3d
       -0.17881776 -0.24846034 -0.0018903743 0.07537476
0000d0 86 31 a6 be 62 aa 37 3d 6f 1a 4a be d7 86 6c be
       -0.32459658 0.044840224 -0.19736646 -0.23098312
0000e0 45 08 0e 3e e3 c9 46 be 75 4b 6a be ce c1 80 3c
       0.13870342 -0.19412951 -0.22880347 0.015717413
0000f0 15 5e 1d 3d 1b ed 2a bd 2e b0 fb bb 42 e6 33 be
       0.0384198 -0.041730028 -0.0076809144 -0.17568305
000100 bc 96 80 be 17 95 3c bd 4e 5d df bd 9f 41 0e 3d
       -0.25115 -0.04604062 -0.10906468 0.03473055
000110 f1 dc 69 be a9 f5 25 3e 02 e9 81 bd 69 42 1c 3d
       -0.22838189 0.16206993 -0.06343271 0.03814927
000120 22 c2 02 3e 2e 71 ba be 4a 47 4d be f7 d5 92 3d
       0.12769368 -0.36414474 -0.20046726 0.07169717
000130 04 c4 45 3e a9 c8 7a be fd 6f b3 be 3e ba 3e 3e
       0.19313055 -0.24490608 -0.35046378 0.18625733
000140 7e ec c6 3c aa 19 70 3d b4 b3 df 3c d6 71 41 bc
       0.02428269 0.058618225 0.027307369 -0.011806926
000150 6a 06 2e 3e e3 01 d0 3d 7f b8 8b bc 90 b2 2e 3e
       0.16994634 0.1015661 -0.017055748 0.17060304
000160 51 8d 06 bb a5 df 29 3c 1d be 21 3e 27 d7 b2 3d
       -0.0020531008 0.010368262 0.15795179 0.08732443
000170 2c b1 0a 3e 30 4c 41 be 5b 4c 3d be 2a 27 4c be
       0.13544148 -0.1887672 -0.18486159 -0.19936815
000180 76 8d 3f 3e 66 aa 86 be fc 94 e3 bc 85 11 49 3d
       0.18706307 -0.2630188 -0.027781002 0.049088974
000190 22 5e 47 3c d0 c0 90 be bc 98 c1 3d d9 02 09 be
       0.012168439 -0.28272104 0.0945296 -0.13379993
0001a0 1e f0 aa bc ba cf 90 bd be 1e e8 bc 43 c1 9c 3d
       -0.02086645 -0.07070871 -0.028334972 0.07654049
0001b0 93 72 08 bd 73 b8 0f 3e 17 7d 6e bd 4f af fd be
       -0.03331239 0.14035206 -0.058224764 -0.49547812
0001c0 54 77 17 bd 6d 7d db bd 23 c7 d4 bd 33 59 d3 bb
       -0.036979035 -0.107172824 -0.10389545 -0.0064498424
0001d0 b4 92 0d be c6 ce d8 3c 44 6c 1d 3e 26 4e 0d 3e
       -0.13825494 0.026465785 0.15373331 0.13799343
0001e0 db 53 60 be 7a 9a e9 bd 52 e2 94 3c 4e 53 64 bd
       -0.21906988 -0.11406417 0.018174324 -0.055743508
0001f0 cf bb 96 be 2d 91 ae bd 4c 20 06 3e e8 63 4e be
       -0.29440162 -0.08523784 0.13098258 -0.20155299
000200 5b 05 14 3e 59 10 02 3e 0d 38 1c 3e 4c 49 e2 bc
       0.14455168 0.12701549 0.15255757 -0.027622841
000210 2c e7 41 bc 97 a5 c8 3d 8a 41 24 bd 44 ce 19 3e
       -0.011834901 0.09797209 -0.040101565 0.1502009
000220 2f 9b 06 3e 84 ae 9d bc 43 e2 5a 3d ce 52 73 3d
       0.13145135 -0.019248255 0.053438436 0.05940514
000230 fd 12 03 bd 2a 9a c8 bb 2a 51 4b bd 08 65 d8 bd
       -0.03200053 -0.0061218934 -0.04963795 -0.10566145
000240 a1 07 dc bc 67 fa 71 bc a2 ff 04 be 84 2c c9 bd
       -0.026859106 -0.014769173 -0.12988141 -0.09822944
000250 91 28 b4 bd 40 4a 43 be 91 29 a2 3d 5b 53 ce bc
       -0.087968 -0.19071293 0.079180844 -0.025186231
000260 c5 9d 10 3e 4e 92 7d bd 4e 20 48 bd 8d 47 18 be
       0.14122684 -0.061907105 -0.048858933 -0.14871044
000270 18 e2 27 3e f0 28 cb 3c b4 38 81 be 21 57 1f bc
       0.16394842 0.024799794 -0.25238574 -0.009725363
000280 65 49 0d 3d 02 5a db 3d 07 fb b4 3c 0e bb ea 3b
       0.034493823 0.10710527 0.022092355 0.007163412
000290 7e b6 13 3e 82 d1 4f 3e 9d f1 32 bd 39 c7 5f bd
       0.14425084 0.20294765 -0.04368745 -0.054633353
0002a0 61 6d 90 3c e3 2e 0f be 60 ba f3 bd ee 21 51 bd
       0.01763028 -0.1398273 -0.119007826 -0.05105775
0002b0 32 11 3b 3e dc 7e 9a 3d 87 92 85 3d 61 d0 3c 3b
       0.18268278 0.07543728 0.065220885 0.0028810727
0002c0 8c 23 dd 3d 0e 78 82 bd 45 d5 56 3d ed ed f3 bd
       0.10797796 -0.06370555 0.052449483 -0.11910615
0002d0 2f d4 73 bd 78 e6 c5 3c b7 67 3f bd bf 22 05 3d
       -0.059528526 0.024157748 -0.04672977 0.03250384
0002e0 c5 02 9c 3c 3f 17 bf bd e9 c4 08 be 18 95 57 be
       0.01904429 -0.09330606 -0.13356365 -0.21052969
0002f0 cc e1 8f bd 88 cb 30 3e 57 69 47 3d 2b 77 8c bd
       -0.07025489 0.17265141 0.048684444 -0.06858667
000300 e4 05 fb bc 6e 2a a9 3d 63 4f 09 be d9 e9 df 3d
       -0.030642457 0.08260046 -0.1340919 0.10933275
000310 72 3a 89 bd 44 44 22 3d 2e 65 81 bc 5e dc be bd
       -0.06700601 0.039615884 -0.015795317 -0.093193755
000320 f6 94 d8 3d d3 56 88 3c 58 df 4d be c6 60 95 3d
       0.10575287 0.016642964 -0.2010473 0.07293849
000330 be d1 8e bd 5a 99 23 bd 65 67 03 3e 1b d5 76 be
       -0.06973599 -0.03994117 0.1283241 -0.24104731
000340 16 d0 ed 3d 03 30 c2 bc ee 95 c7 3d 63 0d 17 3d
       0.11611955 -0.023704534 0.09745394 0.036878
000350 8e 45 95 3d e1 cc 16 3d 88 e2 2c 3d a0 73 a0 3d
       0.07288657 0.03681648 0.042208225 0.07834554
000360 d9 6d 9c bb 22 3d 8d bd 36 05 2a be 38 42 b5 bd
       -0.004773837 -0.06896426 -0.1660355 -0.08850521
000370 56 89 97 bd 4b 37 82 3d 87 20 bc bc e4 97 b4 bb
       -0.073992416 0.063582025 -0.022964729 -0.005511271
000380 e5 44 8f 3d d0 1f da bc b1 13 3e 3d 89 d5 93 bd
       0.069955625 -0.026626498 0.046405498 -0.07218463
000390 df 61 63 3d 97 7a 8e 3e 95 72 94 3d 98 0c 79 3d
       0.05551326 0.27827904 0.07248417 0.060803026
0003a0 d2 c4 f2 3d 49 8b db bc b6 61 90 bd b8 22 f6 3c
       0.11853947 -0.026799815 -0.07049887 0.030045852
0003b0 26 ce 7a 3d 69 99 1f bc b3 fe 67 bc 06 72 0a bd
       0.061231755 -0.009741166 -0.014159846 -0.033800147
0003c0 e0 0a f5 3a 11 33 71 bd 1d d5 22 be 36 90 80 bc
       0.0018695258 -0.05888659 -0.15901609 -0.015693765
0003d0 d1 44 bd bd de 77 e7 3c 51 f9 1b 3c 15 a8 e0 bd
       -0.09241641 0.0282554 0.009519891 -0.10969559
0003e0 44 0c 05 3d 5e a5 0a 3d 8d 38 22 bd e1 1a 8f 3e
       0.0324824 0.033849113 -0.039604712 0.27950194
0003f0 17 96 12 be 00 55 61 3e a6 32 2d 3c 27 2d ab 3d
       -0.14315067 0.22005081 0.010571158 0.083582215

network_body.vector_processors.0.normalizer.running_mean f4 [35]
000000 e1 df 70 3f 6b 8b 78 3f f9 2c 70 3f 8a 36 78 3f
       0.9409161 0.97087735 0.9381862 0.9695822
000010 0a 74 72 3f dd 31 79 3f 8d 79 70 3f 38 4d 78 3f
       0.9470831 0.9734171 0.9393547 0.96992826
000020 fe 41 73 3f 35 81 79 3f de 4f 72 3f 59 28 79 3f
       0.9502257 0.9746278 0.9465312 0.9732719
000030 fc 82 73 3f 8f 94 79 3f f3 f0 72 3f 80 6d 79 3f
       0.9512174 0.9749231 0.9489891 0.9743271
000040 f3 f0 72 3f 80 6d 79 3f 0c 89 e9 3b 62 1c 84 b9
       0.9489891 0.9743271 0.007126933 -0.0002519815
000050 d0 7f 5a bd 4d e6 11 bf 45 eb fe 3e 89 ad fc be
       -0.053344548 -0.56992036 0.4978887 -0.49351147
000060 dd f4 c2 be 99 fd 87 3e a6 02 ec be 00 00 00 00
       -0.3807744 0.26560667 -0.4609577 0.0
000070 00 00 00 00 00 00 00 00 00 00 00 00 00 00 00 00
       0.0 0.0 0.0 0.0
000080 00 00 00 00 00 00 00 00 00 00 00 00
       0.0 0.0 0.0
