Assets/Scripts/2.0 SensorBall&Target/BallEngineAI-1477368.onnx (onnx, 151541 bytes, 11 tensors)

69 f4 [29]
00000000: 90f4 ea3d bcb5 7d3d 0ad9 f03d 349c 7f3d
00000010: c5b6 e83d dfd1 743d f2b4 f93d 4f96 893d
00000020: 910d f63d 70ff 823d b93b 093e f433 943d
00000030: 2c26 ec3d 5108 703d aba9 e63d 2609 7d3d
00000040: aba9 e63d 2509 7d3d 8a4f 7b40 c940 1c3d
00000050: 86fb 8140 cc33 233a cc33 233a cc33 233a
00000060: cc33 233a cc33 233a cc33 233a cc33 233a
00000070: cc33 233a
0.11472428 0.061940894 0.11760147 0.062404826 0.113629855 0.05977046 0.12192716 0.06718122
0.12014306 0.06396377 0.13401689 0.07236472 0.11530718 0.05860168 0.1126283 0.061776303
0.1126283 0.0617763 3.9267297 0.03814772 4.0619535 0.0006225675 0.0006225675 0.0006225675
0.0006225675 0.0006225675 0.0006225675 0.0006225675 0.0006225675

action_model._continuous_distribution.log_sigma f4 [1, 2]
00000000: b27c 32bf 2eca 58bf
-0.6972152 -0.846835

action_model._continuous_distribution.mu.bias f4 [2]
00000000: a7b1 cb3c cfa1 133d
0.024864985 0.036042985

action_model._continuous_distribution.mu.weight f4 [2, 128]
00000000: 96cd ceba cbb6 66ba 4fb7 48bb 9447 713c
00000010: fd04 d73a 020d 98b9 ec05 fabd e4f4 e33a
00000020: 202d 03bb 79c8 0fba eddb 0b3c 2412 8a3c
00000030: 7011 893b 52d9 833d 48f5 12ba 847e a83b
00000040: 05d8 02bb c257 22bb 885d 843c eda1 99bb
00000050: 65bf 95bc 0d19 b83d da5e 8c3d 1c70 5dbd
00000060: d22f 87bd 1f97 7f3c 7776 173b 1467 943b
00000070: 72e2 8aba 9d70 60bd 07c9 9cbd 885c afba
00000080: 35e1 8fbd 78e8 38bb d7da abba 8d48 60bd
00000090: 7337 87bd 5802 573d 5912 7c3b e84e f2bb
000000a0: ea28 84bd 6817 693a 3427 2d3a 9656 c5bd
000000b0: 1863 92b9 afb2 ee3b 69ab 3a3d aea7 683c
000000c0: 2cc3 55bb 3170 bdbd cde7 f73c 8310 65bd
000000d0: f865 cabd cd8e 1f3c f5dc d63c ee57 573d
000000e0: bec6 85ba 17b6 31bc eb6f 91bd 482a 83bd
000000f0: 2d7e caba 62b1 9d3c 936c 213d a870 7d3d
00000100: 5784 62bb 19a1 00bc f733 043d 3152 14bb
00000110: 8e9c 103c 4272 c5bc 9f64 58bb b0c1 d13a
00000120: 9ee9 ac35 7c7d 0f3b 95e1 003b c294 85bb
00000130: 8b05 a93d 73d6 5f3c 446c 093c 26dc 163d
00000140: d102 fcbc 3bfa 69bb edb6 99ba e234 69bd
00000150: 9f1f 0cbb 72aa 3b3c 246b f6bc 2405 2dbc
00000160: 02b0 803d 7b42 33ba 7217 a3bd fc25 82bd
00000170: 8618 b63d 7057 4938 573a 28bc 55b9 28bd
00000180: dc9f 603d 1970 5d3d 68b3 893c edb7 6ebb
00000190: 3a79 a6bd f3c9 bebb 9961 e8bb a333 a2bc
000001a0: 7bb0 43bb d93a adb6 e4cb 7b3d a0fd c3bd
000001b0: ba1e a338 5f60 213d c7d6 feba 0dc9 d5ba
000001c0: 9154 473d 142c 923d 1b18 e539 223c 1bbd
000001d0: f2d0 903a 7978 633b 8e99 f3bc b97a ce3d
000001e0: 42cf b1bc 2eb9 09bd 511a 043d c014 1738
000001f0: 4928 8abd ee78 debc 4b24 1039 9b23 0dbd
00000200: e4bf 59bb b7c1 eb3a 4859 84bb e50d a93d
00000210: 1c9b 6bba e01e abb9 74ca 82bc 3aea a4ba
00000220: f38c 29bb 6978 0abb 6b6e b3bb 581f fd3b
00000230: d4e3 6cbb 6f63 8e3d 86c9 09bb 5c7e 393d
00000240: 9622 e83a 3284 073b 0779 59bc d07c cb3b
00000250: 25f2 56bb 67e3 253d ed6f ba3c 28b4 593d
00000260: 3561 0bbd 59d3 95bc e334 d9ba 879d 243a
00000270: 5726 b93a 2a61 7fbb 3667 9f3c 7cb3 5d3a
00000280: 4fe8 69bd 98dc bdbd 2a7f 39bb df5f 0abd
00000290: 3d6d 0ebd 5cca 70bd 3b8b 05bd 9052 c73b
000002a0: 99dc 1f3c 995b b337 cc0a 85bb 0f7d 68bd
000002b0: 0e03 56ba 3bf5 e2bd b47b c7bd 2f9b 6e3c
000002c0: 6e07 583c 4ee5 67bc 5621 3f3d c51c b13d
000002d0: fb8e 8c3d abb7 26bd d970 a93d d1a6 573d
000002e0: 36e5 69bb 2b4f fe3a 9c4f bb3c ad24 753c
000002f0: a7a4 693b 655c adbd 7e94 923d 5e00 ac3c
00000300: d4df 10bd 4819 1cbb 0b22 163d 1a83 8fbb
00000310: 9d9f 79bd b9fd 7f3c addd 1d3b 1af5 db3a
00000320: 2e63 d5ba 07aa 14bb 989a a0bb c921 7cbb
00000330: de00 a93d f196 babc 7f3d 503c 75bd 91bd
00000340: 4a32 3e3c a925 9c38 4d51 7eba 5f53 2dbd
00000350: 85bc 88ba e8b3 813c 64a1 9a3d 453a 4d3d
00000360: 4fb8 973d 69de c33b 4739 ac3b b50b 6c3d
00000370: eef7 ea3b 190c 2037 0827 953b 1efd 6cbd
00000380: a6f3 76bc 43de 043d e80b af3c a5f9 083b
00000390: ab66 58bd c2f4 f7ba 134d d9b8 4a30 a4bc
000003a0: 666c 883b 94c0 c23c e8fd 9e3c 27bc d0bd
000003b0: 7f74 6dbb df47 68bd 96aa 5339 f44c 8ab9
000003c0: e769 0fbd 70bc 49bd b68e 153a 1902 7b3c
000003d0: c961 e23a 8494 3b39 6f5c 8b3c 34f2 80bb
000003e0: d8b3 763d 5dd8 6bbc f206 a6bd 07ac b639
000003f0: 0888 023d d252 353b 856e 16bb 1189 d63c
-0.0015777822 -0.0008801042 -0.0030626839 0.014726538 0.0016404685 -0.0002900139 -0.12208161 0.0017391709
-0.002001591 -0.000548489 0.008536321 0.016854353 0.004182987 0.06437935 -0.0005606008 0.005142035
-0.0019965183 -0.0024771546 0.01615788 -0.0046884925 -0.01827974 0.08989153 0.06854029 -0.054061994
-0.06600918 0.015599995 0.0023111382 0.0045288894 -0.001059605 -0.054794896 -0.076555304 -0.0013379017
-0.07025377 -0.0028214734 -0.0013111484 -0.05475669 -0.06602373 0.05249247 0.0038463084 -0.0073946603
-0.06453116 0.00088917324 0.0006605268 -0.096356556 -0.0002792112 0.0072844843 0.045573626 0.014200134
-0.0032617552 -0.092499144 0.030261898 -0.05592395 -0.0988273 0.009738636 0.026228407 0.05257409
-0.0010206325 -0.010846636 -0.07101425 -0.06404549 -0.001544898 0.019249622 0.039410185 0.061875015
-0.0034563744 -0.007850909 0.03227612 -0.0022631998 0.008826388 -0.024102334 -0.003301896 0.0016003158
1.288299e-06 0.0021894863 0.0019665707 -0.004076571 0.0825301 0.0136619685 0.008387629 0.036831044
-0.030763062 -0.0035702127 -0.001172749 -0.0569352 -0.0021381152 0.011454212 -0.030080386 -0.010560308
0.06283571 -0.00068382145 -0.07963456 -0.06354901 0.08891396 4.8003567e-05 -0.010267816 -0.04119237
0.054839954 0.054061983 0.01680918 -0.0036425546 -0.08128591 -0.005822414 -0.0070917127 -0.019800013
-0.002985983 -5.1626525e-06 0.061473742 -0.095698595 7.778169e-05 0.039398547 -0.0019442671 -0.0016310528
0.048664633 0.071373135 0.00043696244 -0.037899144 0.0011048599 0.0034709258 -0.029736307 0.10082001
-0.021705274 -0.033623867 0.03225166 3.602053e-05 -0.06745965 -0.027157273 0.0001374643 -0.034457784
-0.0033225948 0.0017986809 -0.0040389635 0.08254603 -0.00089876517 -0.00032638665 -0.015965678 -0.0012582012
-0.0025871366 -0.00211289 -0.0054758093 0.0077246837 -0.0036146538 0.06952559 -0.0021024658 0.04528652
0.0017710503 0.002067816 -0.013273484 0.006209947 -0.0032798138 0.04050007 0.022758448 0.053150326
-0.03402825 -0.018289255 -0.0016571548 0.0006279577 0.0014125806 -0.0038967826 0.019458394 0.0008457226
-0.057106312 -0.092705905 -0.0028304555 -0.033782836 -0.034772146 -0.058786735 -0.032603484 0.0060828403
0.009757184 2.1381116e-05 -0.004060125 -0.05675989 -0.00081639073 -0.1108193 -0.097403914 0.014563366
0.013185365 -0.014153792 0.04666265 0.086480655 0.06863209 -0.040702503 0.08273477 0.052649323
-0.00356896 0.0019402256 0.02286511 0.0149623575 0.003565112 -0.084648885 0.07157229 0.020996269
-0.03536971 -0.002381878 0.03665356 -0.004379642 -0.060943235 0.015624457 0.0024088428 0.001678142
-0.0016280168 -0.0022684352 -0.0049012415 -0.0038472286 0.082521185 -0.022777053 0.012709974 -0.07116214
0.0116086695 7.4456744e-05 -0.0009701446 -0.042315837 -0.001043216 0.015832856 0.07550314 0.0501044
0.07408201 0.005977441 0.0052558514 0.057628352 0.007170669 9.53956e-06 0.004551772 -0.05785858
-0.015072739 0.032438528 0.021367982 0.0020900753 -0.052832287 -0.0018917548 -0.000103617225 -0.020042557
0.0041633127 0.023773469 0.019408181 -0.10192137 -0.0036232767 -0.056709167 0.00020186076 -0.00026378746
-0.035013106 -0.049251974 0.00057051645 0.015320324 0.0017271574 0.00017889036 0.01701185 -0.003935123
0.060230106 -0.014394847 -0.081067935 0.00034841915 0.03186801 0.0027667773 -0.0022954058 0.026188405

network_body.linear_encoder.seq_layers.0.bias f4 [128]
00000000: 3394 47bd 593f 2cbd 5fec 56bc 86d2 e7bd
00000010: d75f 35bd fa9b 513d c908 80bd 3920 80bd
00000020: 771d 1cbd e121 61bd f3cb 56bd a741 5abd
00000030: 1cc8 48bd 0071 18bd d1e1 68bd 8e80 243c
00000040: f874 dcbc 92e7 2ebd 0bb9 3ebd 8bf9 09bc
00000050: a325 183c d29a 8ebd cec7 b1bd 2c32 1d3d
00000060: 68ac 36bd 37eb d6bd 3df7 11bd 3d22 87bd
00000070: c74c 3cbc e4c6 63bd 3807 6fba 4a71 eebc
00000080: 512e 0b3d 315d 1f3d 1cdd 26bd e011 48bd
00000090: 09ea c5bc edcb dbbc 0c1d 69bc c530 a7bd
000000a0: 1686 2dbd b45f 44bd fde4 50bb 290a fe3c
000000b0: 5bc2 84bd eb14 59bd 81af b7bc ceb8 c0bd
000000c0: ec99 02bd 7ff5 63bd 34c8 88bd cbe7 39bc
000000d0: 3c70 e8bb dc06 013d 3b46 bdbd c4ca c93c
000000e0: c229 2cbd a306 b5bc 8ece 12bd c05d aebc
000000f0: ea34 a0bd fd94 c0bd e3ec 5ebc febb bcbd
00000100: 4ed8 b1ba d29b 89bd 6d96 a1bd 63cd 043d
00000110: 7f80 46bc 951b 1dbd 9b8a 0fbd 237c 2b3d
00000120: 8e8d bb3c ebd3 0cbd 1ae2 7ebc 4b04 bb3b
00000130: 3df7 7abd 24c1 d6bd 2a0f cfbc b812 a2bd
00000140: 2ce8 17bd 4553 1ebd badf a23c 353a b9bd
00000150: 3a41 97bb c08d e03c 383e fe3b 596d f03c
00000160: d9d6 1dbc f39d 3dbd bb3d e2bd 5790 c6bc
00000170: ff46 313d 0719 e1bc 4953 213d 840a 0bbd
00000180: 4779 20bd 0c56 4cbd 07fc 66bd 46ce 7cbd
00000190: abda 8ebd dc7c b0bd 776e a3bd 3610 84bd
000001a0: bba9 acbd 1e9c dbbc 826c 86bd ab7e f4bc
000001b0: c9ab f2bc f03d bcbd 5589 973d 784e 31bd
000001c0: b4d8 71bb 3ace b4bc 8147 a3b9 7c7d 12bd
000001d0: 2d24 fdbd a4fd 25bd 1972 83bd 2456 49bd
000001e0: 21e1 c5bc 2c55 a4bc 916e ddbd 5a82 4dbc
000001f0: 807f b8bc 9a68 25bd 4ff8 933c 2db7 a9bc
-0.04872532 -0.0420526 -0.013117879 -0.11319451 -0.044280853 0.05117414 -0.06251676 -0.06256146
-0.038114037 -0.05496395 -0.052440595 -0.053285267 -0.049018964 -0.03721714 -0.05685598 0.010040415
-0.026911244 -0.04270131 -0.04656319 -0.008421312 0.009286317 -0.069631234 -0.08680688 0.038377926
-0.044598013 -0.104940824 -0.035636175 -0.06598327 -0.0114929145 -0.0556096 -0.0009118202 -0.029106755
0.033979718 0.038907234 -0.04073821 -0.048845172 -0.024159448 -0.026830638 -0.014228117 -0.08163599
-0.042364202 -0.047942832 -0.003187477 0.031010704 -0.06482383 -0.052998465 -0.022422554 -0.09410249
-0.031885073 -0.055654045 -0.06678811 -0.011346768 -0.0070934575 0.031500682 -0.09241911 0.024632819
-0.04203201 -0.022097891 -0.035841517 -0.021284938 -0.078225926 -0.09403417 -0.013606283 -0.09215544
-0.0013568492 -0.067191735 -0.078900196 0.032422435 -0.012115597 -0.038356382 -0.035044294 0.041866433
0.022894647 -0.03438179 -0.0155568365 0.005707299 -0.06127094 -0.104860574 -0.025275785 -0.079137266
-0.03708665 -0.03865363 0.019882072 -0.09044305 -0.00461593 0.027411342 0.007758882 0.029349016
-0.009633743 -0.04629321 -0.110469304 -0.024238748 0.043280598 -0.027477754 0.039386068 -0.033945575
-0.03917816 -0.04988675 -0.056392696 -0.061720155 -0.06975301 -0.08617565 -0.07980054 -0.064484045
-0.08430811 -0.02680784 -0.06563665 -0.029845556 -0.02962293 -0.09191501 0.07399241 -0.043287724
-0.0036902847 -0.022070993 -0.00031143057 -0.035764202 -0.123604156 -0.040525094 -0.06418247 -0.049154416
-0.024155201 -0.020060144 -0.108121045 -0.012543285 -0.022521734 -0.04038296 0.018062739 -0.020717228

network_body.linear_encoder.seq_layers.0.weight f4 [128, 29]
00000000: 7564 0a3e ace7 14be b199 3f3c 8c92 f53d
00000010: ce8a 883e 49f9 3fbc 6de2 44be 755e 443e
00000020: aacc 2dbe 73d5 423c 6eb2 0d3f 9fdc 9e3e
00000030: f0b5 91bd 5d54 44be 3e3d b4bd e056 a33e
00000040: f25e 0fbe 8f50 63be b692 ed3d d46b f5bd
00000050: 5010 c0bd d4f4 e83d 962f 393e 74e7 103f
00000060: c53e 25bd 7c92 6abe d9cc fc3d e1d2 723e
00000070: 9c05 6ebd 7555 293e 3fe7 293e c8f0 73be
00000080: ed91 213e fa46 5ebc 29f1 4abe bf65 11bf
00000090: 0cb6 bbbd a17c b63d 6dcb 7bbe dc4b 1dbe
000000a0: 2667 703d 5a4a 263d 73b8 473e 83eb 7dbd
000000b0: 4113 a23e 5c0d 9d3d 6d1e 923e 74dc c1be
000000c0: 1b8e 453d db4e 203e 75b7 0b3c 5b1b 8bbe
000000d0: 44f2 ac3e ec97 a33e 416f 1bbe d1c9 2c3c
000000e0: 6e1b eebc c3ce 333e 0718 293e 0c89 52be
000000f0: 87fc 073e d29b 823e 8417 27be ffcf 293c
00000100: 9e0d babc c7dd 62be 0130 b7bd 8225 2cbd
00000110: 2146 b3be cc03 4ebe 9ad3 92be 9c92 463e
00000120: bd53 323d b0d0 163e 66a1 643e 320d 393e
00000130: 649e 5bbd eaae dd3d cef7 dc3e 62d7 803e
00000140: b394 debd 8bf5 ba3d 2797 0d3d 011e c9bb
00000150: 5f87 1d3e 6b19 dd3d 606d dd3d 3241 1d3d
00000160: 3d88 bfbe b900 6e3d 7a37 923d 43c6 a23d
00000170: cdd1 513e ab95 3cbd 5ffa 96be beab 263e
00000180: 2a21 27be 2819 0abe 42fc 323d 1f98 113e
00000190: 3693 91be 61c8 66bd 2a2b 30be 28cc 033e
000001a0: 1d23 75be a69c 2e3e cc25 15be 6a9c 95be
000001b0: 2fe7 cc39 1d93 c2be cbee 92bd 62a3 09be
000001c0: 2e22 4e3e 11e3 46bd ae2f 113e 315c d03d
000001d0: 0100 aebd 9d27 5dbe 930d 81be e25f 56be
000001e0: b083 a83e 0742 ee3d 39f7 97bb ec7d 33be
000001f0: a6d4 c63e 3fa7 64be fcb2 da3d a7bc 35be
00000200: 2bad 5d3e 4daf efbc ea5d a23d a35a 60be
00000210: ba16 e93d cf67 b23c 98dd dc3a 2172 83bd
00000220: 45b8 37be 4db9 29be 9fbd bd3d ae08 a13d
00000230: dd30 dfbd a444 1cbe d9bb df3d 8d8f 543e
00000240: 3ff8 8f3d c4bc c9bd 15f8 653e 6ccb ff3d
00000250: e704 a83d 93f9 86be 439c 303e fb45 1dbd
00000260: bc7b 9b3d e934 8bbd d657 debd f8e7 89bd
00000270: d50b b43e 5236 abbe 228d 04bd dda8 0abe
00000280: c557 8a3e a4ca 4bbe 7f1d aebe 3f92 df3d
00000290: 2376 f23e af18 883e b1db 1cbe 0d40 bfbd
000002a0: 198e bd3c b17a 713d 3c9a 62bd ce47 31bc
000002b0: a43a b5be 2e3e a5be 8516 ef3d d0d7 823e
000002c0: 5ee3 0ebe f53c 17bd da78 fdbd d092 f43d
000002d0: f556 82bd d29a 7abd 5efc 933d 76ed cb3d
000002e0: ea87 a93e 374a aa3d 2297 023e 1eab de3d
000002f0: d329 303e aad8 923e 4fbc a0be e520 00bc
00000300: 7a0c a73d c733 c3bb f5e5 85be 08be c63e
00000310: b415 dbbb 6304 0a3c 48f0 92bc 5b44 2fbe
00000320: 9d3f b93d 2515 183d cadc a93c 78af 39be
00000330: b5e1 7cbe 2070 b53b 3ae7 b4be 8ae1 0e3e
00000340: 6a3c dfbd 9ce2 0bbe 6cdb 933e 461a 49bd
00000350: ed31 673e c3aa 0f3e 1b6e 6abc 26bd 133e
00000360: d892 843d 34f2 b43d eae8 13bd 7ce6 d53d
00000370: a5f2 a33d 9212 f83c a085 293c ebe6 6e3d
00000380: d980 b43d c7b4 a7bd eabf db3d 6233 4d3e
00000390: ca6c 96bd 6d32 823e 708f c3bd e484 113e
000003a0: b909 43be 45b9 00bd 4560 9a3e d324 eebe
000003b0: d2ed bcbd 49a2 79bc b269 f93c f5e3 01be
000003c0: da4e 1b3e f168 b1bd 862b 573e 73bb 7dbe
000003d0: 8aa6 19be 03c4 873d 3b43 9cbe e220 9abe
000003e0: 1e71 a7bc 5d0a db3d 8312 adba 9a99 5e3d
000003f0: b3d2 e3be 470d 41be ce44 a8bd d746 e63c
0.13514884 -0.14541501 0.011694358 0.11990842 0.266684 -0.011717149 -0.19227 0.19176657
-0.16972604 0.011891711 0.5535039 0.31027696 -0.0711478 -0.19172807 -0.088007435 0.31902218
-0.14001063 -0.221987 0.116002485 -0.11983457 -0.09378111 0.11374822 0.18084559 0.5660317
-0.040343065 -0.22907442 0.12343759 0.23713256 -0.05811082 0.16536506 0.1659212 -0.2382232
0.15778323 -0.013566727 -0.19818558 -0.5679588 -0.09165582 0.0891049 -0.2458932 -0.1536097
0.05869212 0.04059825 0.19503956 -0.06199218 0.31655315 0.07668564 0.28538838 -0.37863505
0.048231225 0.15655081 0.008527626 -0.27169308 0.33778584 0.31951845 -0.15179159 0.010546164
-0.029065814 0.17559342 0.16513072 -0.20560092 0.13279925 0.25509506 -0.16317564 0.010364532
-0.022711571 -0.22154914 -0.08944703 -0.042027958 -0.35014442 -0.20118636 -0.28677064 0.19391865
0.04353689 0.14728045 0.22327194 0.1807144 -0.05361785 0.10824378 0.4315781 0.25164324
-0.10868206 0.09128865 0.03456798 -0.00613761 0.15383671 0.10795864 0.10811877 0.038392253
-0.3740863 0.058106158 0.071394876 0.07947972 0.20490189 -0.046041172 -0.29487893 0.16276452
-0.16321245 -0.13486159 0.043697603 0.14218186 -0.28432626 -0.05634344 -0.17203966 0.12870848
-0.23939176 0.17051944 -0.145652 -0.29220897 0.00039082157 -0.38002864 -0.071744524 -0.13441232
0.20130226 -0.04855639 0.14178345 0.10173834 -0.084960945 -0.21597143 -0.2520567 -0.20935014
0.3291297 0.116336875 -0.0046376255 -0.17528504 0.38834113 -0.22329424 0.1067867 -0.17747746
0.2164809 -0.029258395 0.07928069 -0.21909575 0.11381288 0.021778015 0.0016850708 -0.06418253
-0.17941387 -0.16574593 0.09264683 0.07862984 -0.10897992 -0.1526056 0.10924501 0.20757885
0.07029771 -0.09850457 0.22457917 0.124899715 0.0820406 -0.26362285 0.17247109 -0.038396817
0.0759196 -0.06797201 -0.10856597 -0.06733698 0.35165277 -0.3343988 -0.032361157 -0.13540979
0.27020088 -0.1990152 -0.3400688 0.10916566 0.47355756 0.26581332 -0.1531818 -0.093383886
0.023139047 0.0589549 -0.05532287 -0.010820342 -0.35396302 -0.32274002 0.11674217 0.25555277
-0.13953921 -0.036923368 -0.12376566 0.11942065 -0.06364242 -0.061182804 0.072258696 0.099574015
0.33111507 0.083149366 0.12752965 0.10872482 0.17203455 0.28680927 -0.31393668 -0.007820343
0.081566766 -0.0059571 -0.26152006 0.38816857 -0.006685937 0.008423897 -0.01793684 -0.1711592
0.090453364 0.03712954 0.020735163 -0.18133342 -0.24695475 0.005537048 -0.35332662 0.13953224
-0.10900195 -0.13660663 0.28878343 -0.049097322 0.22577639 0.14029984 -0.014308478 0.14427623
0.06473321 0.08835259 -0.036110796 0.10444352 0.08005265 0.030282293 0.0103468 0.05832569
0.08813638 -0.081887774 0.10729964 0.20039132 -0.073449686 0.25429097 -0.09548843 0.1421085
-0.19046678 -0.031426687 0.30151573 -0.4651247 -0.09225048 -0.015236446 0.030445907 -0.12684615
0.15166798 -0.08662594 0.21012697 -0.24778537 -0.15004936 0.06629183 -0.30520043 -0.30103213
-0.02043968 0.10695336 -0.001320437 0.054345705 -0.44496688 -0.18852721 -0.082162485 0.028109951

network_body.linear_encoder.seq_layers.2.bias f4 [128]
00000000: c982 d6bb 3864 82bd c015 0f3c 5d1b 16bd
00000010: e079 3fbd 40cf 29bc 17fa 35bd 5b42 2b3c
00000020: 5f43 203d 28e2 e2bc 619f 0f3c ff57 d4bd
00000030: 73e9 9abd 0491 7cbc 2e36 9d3c d7c5 113d
00000040: b1ff 273d 3c13 1cbd 23e0 333c 5164 62bd
00000050: c0d5 b9bc 98cd 90bc 09e6 28bd 52b8 f9bc
00000060: 526e 00bd a75a 16bd a118 d03c 66de bd3c
00000070: 984d 5f3b 2d4f 89bd 74ae 563c 4568 d13c
00000080: 0ad0 6bbc b48b b53b b38a a4bc 400e b33c
00000090: 8a4e e6bd 0714 29bc acca 93bc ac95 173c
000000a0: 55a1 c03b be67 e0bb e4dd 0abd b92a 80bd
000000b0: 76ec 5abd 8c30 aa3c 92ee a83c 2f19 653b
000000c0: 2bc5 ed3c 5c51 abbd 6dbc 4d3d ffd7 06bd
000000d0: e1a8 adbc 9c97 2f3c c070 4e3c 7c32 c83c
000000e0: 4d3e 09bd 5973 33bd 4c41 9ebd 1661 993b
000000f0: bfc3 10bd 9d18 f23a f7e7 95bc 87b0 10bc
00000100: 3131 9a3b 743a 3abd 2aaa 0bbd 59a3 1abd
00000110: fe85 97bc a8b0 1e3d 83fb 43bd 262d 3cbd
00000120: f637 af3c 3fed 2abd dc7f 9bbc caa9 dbb6
00000130: 565e 71bd 4ecf 263c 3ca7 ecbc 6c34 cf3c
00000140: ba14 e93c 55ac eabc 9806 94bc 4653 abbb
00000150: 0829 f03b 3c3a 893a 7330 bcbd f0e2 21bd
00000160: 63a3 af3b f302 39bd 657a 5e39 5187 9abc
00000170: 7b6c 05bc 429b f93b cd71 683d 1fc6 c13b
00000180: 00ac 9cbb 6441 0fbc b117 e33c 42e5 c33c
00000190: f254 f9ba d433 483c b1f9 bebc 779c 1a3d
000001a0: a6c5 53bd e05c 35bd 3e7d 72bb 980f 6dbc
000001b0: fa25 17bd 9a8b 43bb 53e1 923b 55ed 2c3b
000001c0: a664 b7bc bf11 b73c b1bc f73c 91a7 ffba
000001d0: 2c3d 733c 7202 223d b295 39bd 51d4 a63c
000001e0: 2307 40bd b9da d9bd 8ba0 993c a42c f23c
000001f0: c282 2dbb 7bb1 bb3c bec5 64bc 61b6 683c
-0.0065463525 -0.063667715 0.008733213 -0.03664719 -0.04674709 -0.010364354 -0.044427957 0.010452832
0.03912675 -0.02769573 0.008766026 -0.103683464 -0.07564058 -0.015415434 0.019190874 0.035589065
0.04101533 -0.03810428 0.010978731 -0.05527145 -0.022684932 -0.01767616 -0.041235004 -0.030483399
-0.03135521 -0.036707547 0.025402369 0.023177337 0.003407335 -0.06704555 0.013103116 0.025562415
-0.014392862 0.0055403356 -0.020085668 0.02185738 -0.11245449 -0.010319716 -0.018040977 0.009251993
0.0058786073 -0.0068483045 -0.033903018 -0.06258149 -0.053448163 0.020775102 0.020621572 0.0034957638
0.029024681 -0.083651274 0.050228525 -0.032920834 -0.021198692 0.010717299 0.012600124 0.024438135
-0.03350668 -0.043811176 -0.07727298 0.004680763 -0.035342928 0.001847047 -0.018299086 -0.00883115
0.004705571 -0.0454659 -0.034097828 -0.037753437 -0.01849651 0.03874269 -0.047847282 -0.045941494
0.021388989 -0.04173016 -0.018981867 -6.5464747e-06 -0.058927856 0.010181261 -0.028888337 0.025293551
0.028452266 -0.028646627 -0.01806955 -0.005228433 0.00732911 0.0010469626 -0.091889285 -0.039523065
0.0053600534 -0.04516883 0.00021217165 -0.018863352 -0.00814354 0.007617385 0.056749154 0.0059135105
-0.004781246 -0.008743618 0.027721258 0.02391303 -0.0019022508 0.012219388 -0.023312422 0.037746873
-0.051702164 -0.044278026 -0.003700092 -0.01446905 -0.03690145 -0.0029837848 0.004482427 0.0026386578
-0.02238686 0.02234733 0.030241342 -0.0019504895 0.0148461275 0.039553113 -0.045308776 0.020364912
-0.046881806 -0.10637421 0.01875331 0.029562302 -0.0026475643 0.022911778 -0.013963161 0.014203639

network_body.linear_encoder.seq_layers.2.weight f4 [128, 128]
00000000: dd2e 813d bdce d33d 486d cbbb 35f6 1ebe
00000010: ef0c 1dbe d443 543d 8e55 6dbd b160 0f3e
00000020: 1f73 66bc 19e6 d4bc 07be 40bd 9b10 9b3c
00000030: 5507 c93d c364 ebbd 2374 debd 6349 34be
00000040: 1862 c4bd f5a2 ab3d 0444 213d 1bc6 033c
00000050: b89c 0a3d 62f4 983d a68c 44be 71e7 61be
00000060: df2f 413d a9a9 ccbc 82b9 25be ee2e 72bd
00000070: e477 1d3d b8ed 51bc aa5b 78bb 27d3 143e
00000080: 6f90 60bd 40d1 69bc 5bea a93d 1ac9 103d
00000090: f84d 50bd 1d22 76bd 4ac1 683e 9e40 f8bc
000000a0: f6a1 1dbe cbda b33d 8d23 efbd dbd0 1dbd
000000b0: e992 ac3d 5c56 803c 349e 14bd 38af c53c
000000c0: ff7e aabd 6179 073e 6d29 8bbd 91a0 5dbd
000000d0: a446 8e3d e150 3bbc 3419 6ebd e913 86bc
000000e0: c66f 5abd a79c 933d e423 c8bd 2d25 4a3d
000000f0: 4994 73bc 09e2 413d 847d 9dbc 81dd 983b
00000100: 2dd6 23be ac01 9f3d 5195 6d3d 6303 57bd
00000110: 8bcf 263d bcf1 84be 6da2 99bd 90a1 1abe
00000120: 71dd 873d 44b5 493d a713 76bd 90b0 5ebe
00000130: 8759 8c3d 4ee3 173c 05ef f53d 769c 933a
00000140: db83 2e3e 3cb0 063e 3755 143d 43f0 d1bc
00000150: ccb0 c03d 0fc5 3d3d a6fe 003c 1e9d 0f3e
00000160: 9e6e d4bd 37b5 8bbe bc58 91bc dcca 033d
00000170: 5ac9 173c ad34 29bd 157f 413d 75b5 a93c
00000180: 8ca4 d93d aa40 57bd 0b8e adbd f591 573d
00000190: fd0e 01be c5a9 d3bc b4aa 1abe 8416 79bc
000001a0: aa3d 073d dd30 10be 432f 22be e0e3 25bc
000001b0: 1f35 7fbe d798 8dbd cf61 113d 6ae5 8c37
000001c0: a8f8 68be ec53 af3d 5f44 ccbd d835 193d
000001d0: 8e8b 3fbe 883c 3dbe 3193 afbd e502 9dbd
000001e0: 4b6b 5abc 68e5 1c3e d668 6ebd 0fba fdbc
000001f0: 8d39 b1bb 59c8 37be c76f 3fbe b35e b1bd
00000200: ce97 0c3d cd33 94bb 4694 5d3c 7c56 113e
00000210: 2b5e 1cbd 561b f3bd 8498 70bd 7eb0 2ebd
00000220: b6ad f1bd 50e6 2dbe da7a 2bbd 0468 893d
00000230: 7732 08be 1c4b ba3d f3bc af3d 9a05 06bd
00000240: 658a fc3c 7d45 b4bd 201e 0ebd 45eb 89bd
00000250: 9bff 283d c047 3b3e e778 3c3e dc85 083d
00000260: c680 8fbe 6719 3b3e ec1b 353e 06a4 5a3e
00000270: ea1c a23d 1a2b 0e3d adcb cbbc 1040 71be
00000280: 8880 bebd 063e e8bd 891f d0bd 7a0f 523e
00000290: 446e 743d e29b 1a3c 8b94 63be 3bab 893d
000002a0: baf5 edbd 18e8 073e 1650 8fbd d1a6 3fbb
000002b0: 1e00 a13d 5d56 c23c a2f2 bd3d cce5 dc3d
000002c0: 1b3a d63c f36c e03d 5a2d bfbc 71ed 2c3e
000002d0: 762f 84bd a2e3 f5bd 88b2 d6bc 126a 24be
000002e0: 8cf6 5ebd d230 a63d 0e17 2b3e 17ba 42bc
000002f0: 04dd 693e 16cd c13d bbd1 e5bd 77a5 d0bb
00000300: 7495 fb3c 2bfb d83d 7cbf 87bd 901e f2bd
00000310: 8056 b6bd 3c76 dbbd eb90 563d b211 f2bc
00000320: 5888 083d d358 2abe 0ee5 d53c fd66 20be
00000330: e195 983c 0c40 c1bd 0e3e 403d 8c90 683d
00000340: fd21 ac3d 4f75 113d 3154 6bbe 16dd 013e
00000350: 91e1 25bd 17a1 96bd ac9c 4f3d 12cc e63c
00000360: 8ab2 14bd 245d a53d f913 623d 2a23 10be
00000370: 4f8a 5e3d 6221 89bc 620e 3abe 284f 0e3c
00000380: 605b 3cbd bed3 cf3d b6bd d13d a4f3 a2ba
00000390: e310 1dbe 21f6 103e d250 6abc 7b0c 3abd
000003a0: 9dfb ecbd a3ce de3d 50b9 ebbd e0a5 15be
000003b0: 0b25 8c3b 7b23 333d ae6b 23bd a815 b8bb
000003c0: 46da 6dbc 8426 cabd f0d5 31be fad0 2a3e
000003d0: 6be7 9dbc 2dc5 a83d eac6 cf3c 138f 7a3d
000003e0: 2bf9 b7bb 797f 5dbe 2c8a ad3d bd33 9b3c
000003f0: dcae 72bc 00cc c53d e6ec 4b3e 40e7 f13b
0.063077666 0.103421666 -0.0062080957 -0.15523608 -0.15336965 0.0518225 -0.05794292 0.14001729
-0.014065533 -0.025988625 -0.047056224 0.018928817 0.098158516 -0.11493828 -0.10861995 -0.1760612
-0.095890224 0.08380691 0.039371505 0.0080428375 0.033840865 0.07468487 -0.19194278 -0.22060944
0.047164794 -0.024983244 -0.16184047 -0.059126787 0.038444415 -0.012813024 -0.0037896433 0.14533673
-0.054825243 -0.0142710805 0.08296653 0.035348035 -0.050855607 -0.060091127 0.22729984 -0.03030425
-0.15393814 0.08781966 -0.11676703 -0.03852926 0.084264584 0.01566618 -0.036283687 0.024131402
-0.08325004 0.13229896 -0.06795011 -0.054108206 0.069470674 -0.011432857 -0.058129504 -0.016366916
-0.05332925 0.072076134 -0.097724706 0.04935186 -0.014866897 0.047334705 -0.01922489 0.004665077
-0.1599967 0.07763991 0.058003727 -0.052493464 0.040725272 -0.2596568 -0.075016834 -0.15100694
0.066340335 0.049245134 -0.060077336 -0.21747041 0.068530135 0.009270502 0.1200848 0.0011261839
0.17042486 0.13153166 0.03621408 -0.025627261 0.09408721 0.046330508 0.007873213 0.14024779
-0.10372661 -0.27286693 -0.017742507 0.032175884 0.009264315 -0.04131 0.047240335 0.020716408
0.10627088 -0.052551903 -0.08474358 0.05262943 -0.12603374 -0.025837788 -0.1510418 -0.015203122
0.03301779 -0.1408114 -0.15838341 -0.01012513 -0.24922608 -0.069139175 0.03549367 1.679613e-05
-0.22751105 0.08560929 -0.09973978 0.037404865 -0.1870558 -0.18480122 -0.085729964 -0.07666568
-0.013331245 0.15321887 -0.058205448 -0.030972509 -0.005408472 -0.1794752 -0.18694983 -0.086606406
0.03432446 -0.0045227767 0.013524121 0.14193147 -0.038175743 -0.11870448 -0.0587392 -0.042648785
-0.11800711 -0.16982388 -0.041865207 0.067092925 -0.13300501 0.09096357 0.08580961 -0.032720186
0.03082771 -0.08802316 -0.0346967 -0.06734327 0.04125939 0.18289089 0.18405496 0.033330783
-0.28027934 0.18271409 0.17686433 0.21351632 0.07915671 0.034709074 -0.024877394 -0.23559594
-0.09301859 -0.11339955 -0.10162265 0.20513716 0.05967547 0.009436579 -0.22224633 0.06722113
-0.11619134 0.1327213 -0.06997697 -0.0029243717 0.078613505 0.023722822 0.09274794 0.10786018
0.026150754 0.109582804 -0.023337055 0.16887452 -0.06454365 -0.12006308 -0.026208177 -0.16056088
-0.054434344 0.081147805 0.16708013 -0.011885188 0.22838217 0.09462945 -0.112216435 -0.006367381
0.030710913 0.105947815 -0.066283196 -0.118222356 -0.08903217 -0.10715911 0.0523843 -0.029549453
0.033333153 -0.16635446 0.026110198 -0.15664287 0.018626155 -0.09436044 0.04693418 0.056778476
0.0840492 0.035512265 -0.22981335 0.12681994 -0.04049832 -0.07354944 0.050686523 0.02817348
-0.03630308 0.08074406 0.05519483 -0.14075914 0.05433112 -0.016739551 -0.18169549 0.0086858645
-0.04598558 0.101478085 0.102412626 -0.001243223 -0.15338473 0.1415639 -0.014301496 -0.04542206
-0.11571429 0.108792566 -0.11509955 -0.14614058 0.004276877 0.04373501 -0.039897613 -0.005617816
-0.0145173725 -0.098706275 -0.17366767 0.1668128 -0.019275388 0.08240733 0.025363404 0.061171602
-0.00561442 -0.21630658 0.0847362 0.01894557 -0.014812198 0.096580505 0.19914588 0.0073823035

network_body.linear_encoder.seq_layers.4.bias f4 [128]
00000000: 4a2f 45bd 8912 96bc 4f09 2d3c 31db 113d
00000010: f252 d23b f224 0d3d 65fc cebb 91a1 91bd
00000020: f441 793d 7aa3 0a3d b943 1abd b19f b43b
00000030: dcdc 263b 976c 783d 6fc4 043d e159 31bb
00000040: 033e 94bc 20e8 3dbd a89c 08bd 0a45 823d
00000050: b128 38bc 6e5e 633d 249e 473d dd20 8bbb
00000060: 80b3 52bc b653 18bd 4c2a c63b 86ae 80bc
00000070: 2f56 ff3c e6cc 67bc a4f3 9ebb f90f 983d
00000080: eb41 99bc 3817 e13b ca09 643b 4943 1abd
00000090: f447 92bc 4ab9 9c3b fbb6 e5bc 7051 d2ba
000000a0: 7ba1 c6bc 5639 d23c 8401 3dbc e390 e6b9
000000b0: 7e3e 5c3d cb55 fc3c 5fc3 26bc b9b3 9c3c
000000c0: 2ab6 523c d4e4 c43b 8e3e 063d 61f1 2f3d
000000d0: b84c 193d 1562 9ebd 8204 773d 757d d23c
000000e0: 44aa 36bc 90e9 37bd bbfa abbc 7b7a 86bc
000000f0: 62c0 22bd 93bf c93b 3466 263d cf06 2b3d
00000100: 918b 94bc 4973 5bbd c478 d03c aab0 7e3c
00000110: 6375 07bd 17e9 27bc 5182 a33d b48c 683d
00000120: 6b42 f63c 76d0 7abc db58 323d 0b3f 053d
00000130: 9a5d 643d 7bc9 90bb 603b dc3b 89d5 e83b
00000140: 530d f8bc 7904 003d 1842 53bc a861 cbbc
00000150: 22df 45bc 3814 543c 9e55 aa3c 2356 363c
00000160: 64b4 433d 051f ae3c 3812 55bc c495 a73c
00000170: f72a 453d 8f19 ac3b 671f a6bc 29cc 14bd
00000180: 39c1 743c 183f 2e3d 8eb6 583c 03ce 3dbd
00000190: 3dd7 e0bc 7277 703b 83a7 303c a977 75bd
000001a0: d40f 62bd c26f 7fbc 8832 0c3d db30 c53b
000001b0: dc89 5b3c 96ce c6bb 03b2 033d 203a 4c3b
000001c0: 2ac2 2a3b 5d56 a03c 9492 f13c 76d3 fbbc
000001d0: 96e4 f2bb 7738 4ebc 99fa b7bc 4249 5a3d
000001e0: f489 de3c 5e46 01bd 1764 8abc 6a9e febc
000001f0: de20 8bbb 4f88 64bd 105d 4e3c 8d44 00bd
-0.0481408 -0.018319385 0.010561301 0.035609428 0.0064185793 0.034459062 -0.006316709 -0.071108945
0.060853913 0.03384731 -0.03766224 0.0055122008 0.0025461232 0.060650434 0.032413896 -0.0027061629
-0.018095976 -0.04636395 -0.033352524 0.063608244 -0.01124017 0.055509977 0.0487348 -0.004245861
-0.012860179 -0.037189208 0.0060475226 -0.01570822 0.031169025 -0.014147973 -0.0048508216 0.074249215
-0.01870819 0.006869223 0.0034795874 -0.037661824 -0.017856576 0.0047828304 -0.028041353 -0.0016045999
-0.024246922 0.025662106 -0.011536006 -0.00043976968 0.053770535 0.030802628 -0.010178416 0.019128667
0.012860814 0.0060087238 0.0327745 0.042954806 0.03742668 -0.077335514 0.060307033 0.025694588
-0.011148993 -0.044900477 -0.020993581 -0.016415825 -0.03973425 0.0061568706 0.040624812 0.04175454
-0.018132957 -0.05357674 0.02544821 0.01554505 -0.033070933 -0.010248444 0.0798384 0.05677481
0.030060967 -0.01530849 0.04354177 0.032530826 0.055753328 -0.0044185496 0.0067209452 0.0071055335
-0.030279791 0.031254265 -0.012894176 -0.02482684 -0.012077125 0.012944274 0.020792779 0.011128935
0.047779456 0.021255026 -0.013004832 0.020457156 0.048136678 0.0052520703 -0.020278646 -0.036327515
0.014938646 0.04254064 0.013227118 -0.046339046 -0.027446384 0.0036692289 0.010782125 -0.05992857
-0.055190876 -0.01559061 0.034227878 0.006017787 0.013399567 -0.0060671074 0.032152187 0.0031162575
0.0026055672 0.019572431 0.02948884 -0.03074048 -0.0074125035 -0.012586704 -0.022458361 0.05329252
0.02716539 -0.031561248 -0.01689343 -0.031081397 -0.0042458614 -0.055794057 0.01259543 -0.031315375

network_body.linear_encoder.seq_layers.4.weight f4 [128, 128]
00000000: c9f7 edbd 6b1c 04bd ce54 b1bd be2a 233d
00000010: 7527 143d 1091 f6bb 5e5d 603c 2f80 56be
00000020: 6cf6 8cbd 3394 e93d 1388 67ba cdba 17be
00000030: fe6f 5bba ea88 ec3d 0bb0 0d3b 4b60 91bd
00000040: cfd7 92be 0716 e8bd 9b1d 3abe 1d60 283d
00000050: 0556 093e 7192 4a3e 243e c4bd b5c3 f23c
00000060: 7c0d 97bb 8874 a23d 4ad9 603d 10f9 7dbd
00000070: b250 c43c 1737 b7bc edd2 833e 6f54 c4bd
00000080: e625 043e a5b9 0bbc 9438 0dbe 12de df3d
00000090: cf91 da3c a8be 493e 0e10 953d fff4 25ba
000000a0: 196b e03d 3415 ab3d 1f0f 913d 960c c7bc
000000b0: 8b80 96bd f759 01be 4044 31bd 09d7 ca3d
000000c0: 1ae4 94be 127b e7bd bf19 edbd 7ce0 47bd
000000d0: df8e 04be ab29 c63d 29da 10be d42a ce3d
000000e0: ab0f 01be 3ffb 833d 3661 72bd 46c0 2e3e
000000f0: e4ba 293e 892b e6bd fa7c 47bd 4933 be3c
00000100: 04ae 483e 915e ea3d 54d9 c83d 51e5 e4bd
00000110: 6b6d 413c 37f2 b23c a501 0fbe d21e 6a3d
00000120: 7258 22bd 0747 72bb f883 0c3d 8ed3 81bc
00000130: f67e ba3c 533f f23c 1b43 bd3c 9441 efbc
00000140: 42d1 fbbd 582d 3e3e 4643 c5bd a64a 43bc
00000150: 8683 493d 2333 953d 4033 993d be26 673d
00000160: c558 c53d 071f d2bd c4b6 af3d 1314 2dbe
00000170: 346f 163e 4855 bebd 750f 07bd 38c8 82bd
00000180: 49b6 8e3e 3fe1 023d 2527 733d 84c9 d8bc
00000190: e086 1abe 226b 03be 8902 9abc 3ca2 053d
000001a0: 4bc1 963c 8e17 c1bd 39d7 27bd 6dd3 d4bc
000001b0: b9c3 693d a444 7339 f1fd c9bc 4992 4b3e
000001c0: 5192 db3d 63a9 b03d 7d3a b9bc b7ba 723d
000001d0: c238 753d 7827 f0bd 6f35 59bc 49d5 8dbd
000001e0: 4e7c 4ebd 2869 c2bd 5ef9 203e 4156 1abd
000001f0: 3c00 35bd d3d9 723d 5223 1cbe 44cd 143d
00000200: c2e0 053e 4e60 bcbb 0d0a d3bd 7246 d53d
00000210: 40b9 0dbc 2642 263e 28dc b73b 4fcb 1bbc
00000220: 6a47 0c3d c485 cdbd 591e a93d 5685 ccbc
00000230: 16ca cf3d f092 e23d 4bb3 2c3d e6bb 46bc
00000240: 906a a83a 01fc bbbd 1af2 2fbe c278 1cbd
00000250: 1cac f6bd be80 003e 3602 07be 821d a7bd
00000260: 1e0b d93d 9e8f 133e 94cf 0dbd fbae 243e
00000270: ad63 493e 1452 48bd c4cf 413e 1b3e 26bd
00000280: 376b 0c3e 62b2 19bd d50c 083d 2577 d2bc
00000290: 3f11 af3d 6d51 d93d 3268 c93d 3d1c 89bd
000002a0: f10a c83d 47fa 063e f5ac 1f3d 32f3 91be
000002b0: 0541 7e3d ec8d 7abc 1d44 dd3d baea 2f3c
000002c0: fcdf 52bd 01c0 82bc 374b ef3d 702e c9ba
000002d0: 18aa 663d 80a9 78bb dd74 c43d a2a1 bbbc
000002e0: b8cc 41bc 0539 da3b 7fd1 26bd 1f1d e73d
000002f0: 8eb1 b8bd b89e 053d 731b 403d 96f6 6ebd
00000300: 88a0 523d fd8e dd3c 4104 b43c 8ca9 223b
00000310: 809d 9a3c 92ca 513c 82f4 c3bc 06ae 01be
00000320: f9e6 173e d3fb 063c f96f ed3b 7b61 e23d
00000330: d7f9 463c 0e42 483b 5bf1 473e 2c73 333e
00000340: 6a09 6c3c 5e85 bc3d 5a08 c5bd f0cc c13c
00000350: c519 ecbc 5dbf 143b 42a8 3a3c bafe e63d
00000360: 557c 5cbd e59c 7d3e 1f18 ecbb b766 ce3d
00000370: 7120 46be 73de 2ebd 5a21 a63c 8503 3d3e
00000380: a070 483c c32b af3d fa01 77bd 9175 bbbd
00000390: 4cf4 d33d 8f00 39be b816 67bd db5b b9bc
000003a0: de5c 493e eb0c 87bd 0028 77bc e22a 843d
000003b0: 3ef4 5dbd 7901 6ebd cef9 943c 7bc9 af3c
000003c0: a75a c33d 8ce3 66b9 833f 16be c520 c9bc
000003d0: 4500 02be a0ef efbd 7936 55bd 17c6 59bd
000003e0: ed5b ba3b 3dfe 1fbe c65d 51bd 16d9 8cbd
000003f0: 171d cc3a a193 6e3d 8daa c13c 950a 033d
-0.11619527 -0.032253664 -0.08658753 0.039835684 0.03617044 -0.007524617 0.0136941355 -0.20947336
-0.06882939 0.1140522 -0.00088322273 -0.14817353 -0.0008370875 0.11549552 0.0021619822 -0.070984446
-0.28680274 -0.113323264 -0.18175356 0.041107286 0.1341172 0.19782425 -0.09582165 0.029634336
-0.0046097618 0.07932383 0.054894723 -0.062005103 0.02396426 -0.022365136 0.2574686 -0.09586417
0.12905082 -0.008528148 -0.13791114 0.109310284 0.026680855 0.19701636 0.07278453 -0.0006330758
0.10957927 0.083536536 0.07082962 -0.024297994 -0.073487364 -0.12631975 -0.04327798 0.09904296
-0.29080278 -0.11302771 -0.11577176 -0.04879807 -0.12945126 0.09675916 -0.14145721 0.100667626
-0.12603633 0.06444406 -0.05917474 0.17065534 0.165752 -0.112387724 -0.04870317 0.023217814
0.19597632 0.11443818 0.09807077 -0.11176551 0.011805872 0.021844013 -0.13965471 0.0571583
-0.03963513 -0.0036968605 0.034305543 -0.015847947 0.022765618 0.029571211 0.023103287 -0.029206075
-0.12295772 0.18571985 -0.09631972 -0.011919653 0.049197696 0.07285144 0.07480478 0.05643343
0.09636072 -0.10259824 0.08579782 -0.16902189 0.14690858 -0.0929361 -0.032973725 -0.06385845
0.27873448 0.031953093 0.059363503 -0.026463278 -0.15090513 -0.12833837 -0.018800037 0.032625422
0.018402716 -0.09428321 -0.040976737 -0.025979722 0.05707142 0.00023199857 -0.024657222 0.19880022
0.10721267 0.08626058 -0.022610897 0.059260096 0.05986858 -0.11726278 -0.0132573685 -0.069254465
-0.050411515 -0.09492713 0.15720126 -0.037679914 -0.044189677 0.059289765 -0.15247849 0.03632857
0.1307402 -0.005748785 -0.103046514 0.10413827 -0.008650124 0.16236171 0.0056109615 -0.009508922
0.034247793 -0.100352794 0.082577415 -0.024965923 0.10145967 0.11063182 0.042163175 -0.012129759
0.0012849141 -0.09178925 -0.17182198 -0.0382011 -0.12044546 0.12549111 -0.13184437 -0.08159925
0.105978236 0.14410254 -0.03462179 0.16082375 0.1966693 -0.0489064 0.18926913 -0.040586572
0.13712774 -0.037523635 0.033215363 -0.025691578 0.08548211 0.10611234 0.09834327 -0.06694839
0.09767712 0.1318141 0.038983304 -0.28505856 0.062073726 -0.015292626 0.10804007 0.0107371155
-0.05148314 -0.015960695 0.11684268 -0.0015348922 0.056314558 -0.0037942827 0.095926024 -0.022904221
-0.011828594 0.0066596293 -0.040727135 0.11284851 -0.09018241 0.03262207 0.046901178 -0.05834063
0.051422626 0.027045721 0.021974685 0.0024820296 0.01887393 0.012804644 -0.023920301 -0.12664041
0.14834203 0.0082387505 0.007246014 0.11053749 0.012144527 0.003055695 0.19525664 0.17524403
0.014406541 0.09205125 -0.096207336 0.023657292 -0.028820882 0.002269707 0.011392655 0.11279054
-0.05382951 0.24766882 -0.007205024 0.10078185 -0.19348313 -0.042692613 0.020279575 0.18458374
0.012233883 0.08553269 -0.06030462 -0.091532834 0.1034933 -0.1806662 -0.05641815 -0.022626808
0.19664332 -0.06594261 -0.01508522 0.06453492 -0.054188006 -0.058106873 0.018185522 0.021458378
0.09538775 -0.00022019277 -0.14672665 -0.024551759 -0.12695415 -0.11715627 -0.052053902 -0.05316743
0.005687228 -0.15624328 -0.05111482 -0.06877343 0.0015572634 0.05824626 0.023640895 0.031992514

network_body.vector_processors.0.normalizer.running_mean f4 [29]
00000000: 9f95 7c3f 9052 7e3f c968 7c3f 2e48 7e3f
00000010: 9ba6 7c3f 7b6a 7e3f 0323 7c3f 930d 7e3f
00000020: c53f 7c3f 762f 7e3f dc50 7b3f a7b2 7d3f
00000030: 7e8c 7c3f b771 7e3f bfb5 7c3f 415b 7e3f
00000040: bfb5 7c3f 415b 7e3f c469 9cbe b73b ff3e
00000050: 2ce8 3dbe 0000 0000 0000 0000 0000 0000
00000060: 0000 0000 0000 0000 0000 0000 0000 0000
00000070: 0000 0000
0.98665804 0.9934473 0.9859739 0.9932889 0.9869172 0.99381226 0.98490924 0.9923946
0.98534805 0.9929117 0.98170257 0.99100727 0.98651874 0.99392265 0.9871482 0.9935799
0.9871482 0.9935799 -0.30549443 0.49850246 -0.18545598 0.0 0.0 0.0
0.0 0.0 0.0 0.0 0.0
