Assets/Scripts/2.0 SensorBall&Target/BallEngineAI-1new.onnx (onnx, 151541 bytes, 11 tensors)

69 f4 [29]
0.11277139 0.05913334 0.11345367 0.058885638 0.11263506 0.05956204 0.114661224 0.060873415
0.11762449 0.06254276 0.12438659 0.06472178 0.11888251 0.061269637 0.114369825 0.06137121
0.114369825 0.06137121 4.0676374 0.057051353 4.141865 0.0009523049 0.0009523049 0.0009523049
0.0009523049 0.0009523049 0.0009523049 0.0009523049 0.0009523049
00000000: b0f4 e63d cd35 723d 665a e83d 1132 713d
00000010: 36ad e63d 53f7 733d 81d3 ea3d 6756 793d
00000020: 1ce5 f03d 6b16 803d 66be fe3d da8c 843d
00000030: ac78 f33d dff5 7a3d ba3a ea3d 6160 7b3d
00000040: ba3a ea3d 6160 7b3d 162a 8240 aeae 693d
00000050: 288a 8440 1aa4 793a 1aa4 793a 1aa4 793a
00000060: 1aa4 793a 1aa4 793a 1aa4 793a 1aa4 793a
00000070: 1aa4 793a

action_model._continuous_distribution.log_sigma f4 [1, 2]
-0.43216863 -0.4595346
00000000: 3545 ddbe 1e48 ebbe

action_model._continuous_distribution.mu.bias f4 [2]
0.017012907 0.03323784
00000000: a75e 8b3c 6724 083d

action_model._continuous_distribution.mu.weight f4 [2, 128]
-0.012835358 -0.0017622387 -0.0196571 0.0046760556 -0.0036313504 -0.0013936498 -0.10725713 -0.012083589
-0.01231861 -0.0384562 0.0008244072 0.02111819 -0.0149599565 0.05394264 0.0021196785 -0.009522342
0.00029494206 0.010814451 0.026288657 -0.001622656 -0.026002105 0.077194884 0.076948464 -0.034537
-0.05010625 0.027199978 -0.009101672 0.0091255335 0.0077382205 -0.058937285 -0.05741806 -0.027763018
-0.056722827 -0.011386804 -0.017147321 -0.025966296 -0.055567704 0.049576867 0.0013809446 -0.022728471
-0.053592473 0.0021596614 -0.01866992 -0.06396978 0.009075654 0.0038005896 0.041162986 0.010654348
-0.0004295884 -0.07820842 0.019296162 -0.04077196 -0.070285626 0.01641013 0.011080156 0.05270389
0.0050343852 -0.010894979 -0.059381083 -0.07043001 -0.002266258 0.01156625 0.025631048 0.06859535
0.0188003 -0.055570886 0.022472708 -0.0015821682 0.023248343 -0.059562515 0.011398074 -0.0026339146
0.001518164 -0.0013653751 -0.0030206775 -0.0057672495 0.07006232 0.049213424 0.029047055 0.04023393
-0.055751126 -0.005075391 -0.04126517 -0.02293373 0.00081686507 0.012472849 -0.03145884 -0.017875254
0.05357909 -0.012636467 -0.06387173 -0.06147277 0.08071516 -0.0045852675 -0.039218448 -0.040171236
0.058386777 0.05785975 0.019421931 -0.00019141272 -0.056102555 0.0019248328 0.00065528566 -0.0122112185
0.012145672 -0.0100400755 0.05630042 -0.06756398 -0.002695823 0.03381306 -0.02812124 -0.029432153
0.053273436 0.06763304 -0.03469429 -0.046750765 -0.0013937743 0.018565299 -0.04406535 0.08696398
-0.021410402 -0.040711068 0.028266566 0.014294749 -0.058131717 -0.038669612 0.0056866524 -0.03805036
-0.008031075 0.0012840119 0.0018860218 0.06682555 -0.008638142 -0.022792473 -0.034494728 -0.028813416
-0.0030068143 0.014905263 -0.0031287728 0.023469603 0.022574885 0.0668291 -0.005692391 0.04914067
-0.0021816383 0.014482008 -0.036295358 0.0005129932 0.023648024 0.03142201 0.011235211 0.036001053
-0.047995098 -0.03227327 0.012086346 -0.017334618 0.019488657 0.0021459414 0.009394337 0.0127457585
-0.06476596 -0.09850325 -0.013847842 -0.046609797 -0.04942336 -0.04418084 -0.05132424 0.030523082
0.0057449536 0.0019707005 -0.03486822 -0.05565174 0.009750016 -0.117464386 -0.079538934 0.04570914
0.025970694 -0.021878326 0.06467608 0.059471693 0.04948014 -0.040652797 0.0817942 0.044357724
0.001622501 -0.03714464 0.008561651 -0.00088225486 0.0006513429 -0.07446031 0.07012936 0.0072717154
-0.058660395 0.016319282 0.037112776 0.0007731483 -0.054727294 0.023077806 0.018140644 0.027419044
-0.024224145 0.0006439159 0.00520213 -0.027467318 0.06874798 -0.025558662 0.02339499 -0.056960054
0.00025638202 0.0017594357 0.0007647957 -0.05585001 -0.00046378447 0.03062446 0.06463308 0.05521991
0.05656639 -0.0064948574 -0.0067670047 0.042098876 0.0011133744 0.0011706928 0.02402649 -0.076340206
-0.020953108 0.040909708 0.04411098 0.002179908 -0.063971065 -0.0007047858 6.426965e-05 -0.020802334
0.0026314484 0.041203134 0.024479661 -0.10349191 0.0003490466 -0.04868814 0.013415398 0.008474616
-0.032988835 -0.03633521 0.017705018 0.015053455 -0.009066874 -0.01803722 0.024259396 -0.0066289906
0.052446626 -0.032705624 -0.06361493 -0.045839027 0.023092626 -0.034695365 0.0026369605 0.027361361
00000000: 654b 52bc ebfa e6ba ed07 a1bc 9939 993b
00000010: f3fb 6dbb 21ab b6ba a0a9 dbbd 3ffa 45bc
00000020: ffd3 49bc 4084 1dbd 081d 583a 0e00 ad3c
00000030: 9b1a 75bc f5f2 5c3d 4eea 0a3b 9903 1cbc
00000040: 74a2 9a39 182f 313c 4f5b d73c 4daf d4ba
00000050: 5e02 d5bc 5a18 9e3d 2897 9d3d ab76 0dbd
00000060: 363c 4dbd 7dd2 de3c 2e1f 15bc 4383 153c
00000070: e690 fd3b 3968 71bd 332f 6bbd 456f e3bc
00000080: 3256 68bd b88f 3abc 8a78 8cbc 45b7 d4bc
00000090: f69a 63bd 1d11 4b3d d000 b53a 0f31 babc
000000a0: c883 5bbd 1b89 0d3b a9f1 98bc 9702 83bd
000000b0: 0db2 143c 5013 793b 859a 283d 938f 2e3c
000000c0: 613a e1b9 bc2b a0bd fc12 9e3c 8000 27bd
000000d0: e9f1 8fbd 896e 863c 8b89 353c 09e0 573d
000000e0: 7cf7 a43b db80 32bc 9439 73bd 9c3d 90bd
000000f0: 8085 14bb 5e80 3d3c 34f8 d13c b87b 8c3d
00000100: 1603 9a3c 4c9e 63bd af18 b83c c160 cfba
00000110: 4f73 be3c d3f7 73bd fdbe 3a3c c19d 2cbb
00000120: 21fd c63a 63f6 b2ba 8ff6 45bb 32fb bcbb
00000130: d57c 8f3d 0494 493d 17f4 ed3c 55cc 243d
00000140: 4b5b 64bd 774f a6bb ab05 29bd 85df bbbc
00000150: e322 563a ec5a 4c3c fcda 00bd 206f 92bc
00000160: bf75 5b3d 2f09 4fbc 2ecf 82bd dfca 7bbd
00000170: fd4d a53d 0340 96bb 86a3 20bd 988a 24bd
00000180: f926 6f3d 58fe 6c3d be1a 9f3c f6b5 48b9
00000190: cbcb 65bd ac4a fc3a 7ac7 2b3a 9011 48bc
000001a0: a4fe 463c 217f 24bc 459b 663d fc5e 8abd
000001b0: 68ac 30bb 907f 0a3d 845e e6bc b31b f1bc
000001c0: 3f35 5a3d 3183 8a3d 9a1b 0ebd bb7d 3fbd
000001d0: 4eaf b6ba 4116 983c de7d 34bd 2c1a b23d
000001e0: de64 afbc a6c0 26bd 498f e73c 8634 6a3c
000001f0: 861b 6ebd 0764 1ebd 1957 ba3b b2da 1bbd
00000200: c594 03bc 4a4c a83a 6434 f73a d5db 883d
00000210: fe86 0dbc 48b7 babc 584a 0dbd 1d0a ecbc
00000220: f90d 45bb 3435 743c 190c 4dbb 5343 c03c
00000230: f7ee b83c b2dd 883d 3d87 babb ba47 493d
00000240: d1f9 0ebb f245 6d3c 71aa 14bd 647a 063a
00000250: 80b9 c13c 5eb4 003d e413 383c d775 133d
00000260: 8296 44bd fa30 04bd cf05 463c 5401 8ebc
00000270: ada6 9f3c eca2 0c3b b5ea 193c 96d3 503c
00000280: 04a4 84bd 12bc c9bd 0fe2 62bc eae9 3ebd
00000290: 2670 4abd f8f6 34bd 5e39 52bd 8b0b fa3c
000002a0: 2a40 bc3b de26 013b fbd1 0ebd 14f3 63bd
000002b0: 88be 1f3c 2b91 f0bd 4fe5 a2bd 8239 3b3d
000002c0: 7ec0 d43c 2d3a b3bc e574 843d 9798 733d
000002d0: b0ab 4a3d 8c83 26bd b883 a73d 72b0 353d
000002e0: 19aa d43a fa24 18bd 2b46 0c3c 1f47 67ba
000002f0: e2be 2a3a a67e 98bd fb9f 8f3d 9247 ee3b
00000300: e245 70bd 04b0 853c 9103 183d 1bad 4a3a
00000310: ba29 60bd ab0d bd3c b09b 943c e79d e03c
00000320: b771 c6bc 77cc 283a a176 aa3b 2403 e1bc
00000330: becb 8c3d 6660 d1bc daa6 bf3c f24e 69bd
00000340: 036b 8639 de9c e63a 927c 483a fbc2 64bd
00000350: 1928 f3b9 26e0 fa3c 595e 843d 462e 623d
00000360: 29b2 673d d0d2 d4bb c0bd ddbb df6f 2c3d
00000370: a5ee 913a ef71 993a 34d3 c43c 4158 9cbd
00000380: daa5 abbc f090 273d b7ad 343d cadc 0e3b
00000390: 4303 83bd 60c1 38ba 81c8 8638 a869 aabc
000003a0: 6174 2c3b 9ec4 283d 9289 c83c 91f3 d3bd
000003b0: 3e00 b739 376d 47bd 42cc 5b3c 1ed9 0a3c
000003c0: 4d1f 07bd 3bd4 14bd 1d0a 913c c4a2 763c
000003d0: 3a8d 14bc cbc2 93bc a4bb c63c 0138 d9bb
000003e0: 46d2 563d 55f6 05bd 8b48 82bd b4c1 3bbd
000003f0: bf2c bd3c ba1c 0ebd dbd0 2c3b ef24 e03c

network_body.linear_encoder.seq_layers.0.bias f4 [128]
-0.011948364 -0.01974859 0.003260585 -0.07825243 -0.035172466 0.0469322 -0.021925824 -0.05799616
-0.01061439 -0.02025414 -0.025249308 -0.027719483 -0.01529221 -0.0050365385 -0.040993907 -0.010652889
0.0014328886 -0.029689055 -0.019415056 0.009115033 0.01508075 -0.03193935 -0.06732333 0.034184042
-0.018128842 -0.046178028 -0.03056107 -0.026747853 -0.017404884 -0.021909868 0.031501 -0.01309768
0.043444805 0.046442598 -0.019020403 -0.0067915097 -0.027760811 -0.0062352726 0.0021751372 -0.05569666
-0.018196441 -0.028459534 -0.008810858 0.045325056 -0.039230727 -0.02026228 -0.0061200755 -0.020503629
-0.0131120775 0.002315369 -0.028536914 0.007307351 0.013281189 0.020294001 -0.03855907 0.015191889
-0.019683624 -0.009456969 -0.02824736 -1.5550268e-05 -0.056901287 -0.05417173 -0.0073770373 -0.0719991
0.019641068 -0.06283887 -0.035899676 0.03508035 -0.021672491 -0.02136247 -0.03640139 0.048418216
0.023630815 -0.0339451 0.001296655 0.0063789277 -0.024146734 -0.08101184 0.003090845 -0.04910428
-0.0010756188 -0.02325097 0.018987136 -0.060740262 0.007866853 0.02822494 0.024563234 0.024189238
-0.010432372 -0.033537406 -0.070495196 -0.0067329886 0.053308386 -0.0042147194 0.046142858 -0.0019700585
-0.016765451 -0.029343555 -0.024636516 -0.032922484 -0.06204434 -0.053786147 -0.044128414 -0.021860255
-0.07477384 -0.0020184591 -0.049806785 0.004027935 0.0070024766 -0.051375717 0.056731757 -0.019302389
0.013801274 -0.0033956645 0.026317311 -0.024823321 -0.054645754 -0.034971856 -0.0028334178 0.018417932
0.005763923 -0.019951321 -0.08789327 -0.02185304 -0.008901535 -0.04562458 0.017075805 0.0045418814
00000000: 12c3 43bc ccc7 a1bc 8aaf 553b cf42 a0bd
00000010: 0111 10bd fb3b 403d c99d b3bc 628d 6dbd
00000020: fae7 2dbc 03ec a5bc a3d7 cebc f813 e3bc
00000030: 2d8c 7abc 8c09 a5bb 3ae9 27bd 7489 2ebc
00000040: c3cf bb3a 7636 f3bc 530c 9fbc 3857 153c
00000050: 4015 773c d6d2 02bd d0e0 89bd 9104 0c3d
00000060: f082 94bc 2c25 3dbd 365b fabc 501e dbbc
00000070: b094 8ebc 537c b3bc 3107 013d a797 56bc
00000080: 2ef3 313d 983a 3e3d add0 9bbc 508b debb
00000090: a46a e3bc 4251 ccbb bf8c 0e3b 2e22 64bd
000000a0: b410 95bc f823 e9bc 6b5b 10bc c4a6 393d
000000b0: 66b0 20bd 15fd a5bc ea8a c8bb 3af7 a7bc
000000c0: 0ad4 56bc 72bd 173b 3fc6 e9bc 8172 ef3b
000000d0: 5899 593c 9b3f a63c 1ef0 1dbd 67e7 783c
000000e0: 8d3f a1bc 67f1 1abc 0267 e7bc f271 82b7
000000f0: 5311 69bd 2de3 5dbd 13bb f1bb 4474 93bd
00000100: 4ee6 a03c aab1 80bd 8a0b 13bd 6ab0 0f3d
00000110: 828a b1bc 5900 afbc a019 15bd 2e52 463d
00000120: 6995 c13c 040a 0bbd 86f4 a93a 5306 d13b
00000130: 5fcf c5bc 89e9 a5bd c68f 4a3b 9221 49bd
00000140: c7fb 8cba d178 bebc e98a 9b3c c8ca 78bd
00000150: f9e3 003c fd37 e73c d638 c93c 8228 c63c
00000160: 8aec 2abc 855e 09bd c95f 90bd 67a0 dcbb
00000170: e559 5a3d a11b 8abb 4b00 3d3d 191c 01bb
00000180: b357 89bc e561 f0bc 85d2 c9bc bad9 06bd
00000190: 3522 7ebd dd4e 5cbd ffbf 34bd 4714 b3bc
000001a0: 0723 99bd 2048 04bb 3302 4cbd c5fc 833b
000001b0: 0875 e53b 586f 52bd 8f5f 683d 0b20 9ebc
000001c0: bd1e 623c cc89 5ebb 6797 d73c 475a cbbc
000001d0: 3ad4 5fbd a63e 0fbd ddb0 39bb 34e1 963c
000001e0: 4adf bc3b f470 a3bc 6301 b4bd 2605 b3bc
000001f0: bed7 11bc d7e0 3abd 8fe2 8b3c 10d4 943b

network_body.linear_encoder.seq_layers.0.weight f4 [128, 29]
0.15423125 -0.103849255 0.030740058 0.16293041 0.3071377 0.030638654 -0.16903697 0.20152816
-0.1969491 -0.012053561 0.550972 0.31326467 -0.065621465 -0.21000667 -0.10928095 0.27997002
-0.16128314 -0.26104066 0.122070126 -0.056117084 -0.17302608 0.11374822 0.18084559 0.5660317
-0.040343065 -0.22907442 0.12343759 0.23713256 -0.05811082 0.15987563 0.15836433 -0.2060934
0.20246372 -0.0042435373 -0.17256203 -0.5815526 -0.110754475 0.080867395 -0.2586022 -0.13887237
0.069792636 0.009827748 0.19276935 -0.033498984 0.34162876 0.10517853 0.31046402 -0.34157413
0.0718545 0.16450098 0.008527626 -0.27169308 0.33778584 0.31951845 -0.15179159 0.010546164
-0.029065814 0.17559342 0.13090591 -0.2367407 0.17885044 0.2823921 -0.115990795 0.0335255
-0.043602943 -0.24933296 -0.09294141 -0.00068520155 -0.33300036 -0.18642902 -0.24320148 0.2264801
0.055440802 0.16200632 0.23517577 0.19544034 -0.059295848 0.12304736 0.44589794 0.25164324
-0.10868206 0.09128865 0.03456798 -0.00613761 0.15383671 0.10795864 0.10811877 0.03775859
-0.3538162 0.05875874 0.11167854 0.040478267 0.20493893 -0.08360784 -0.30928677 0.124892786
-0.19531778 -0.14780226 0.022122772 0.103230976 -0.31983978 -0.054115806 -0.16628939 0.13093667
-0.2336421 0.13744888 -0.116126895 -0.28161132 0.00039082157 -0.38002864 -0.071744524 -0.13441232
0.20130226 -0.04855639 0.14178345 0.10173834 -0.07199748 -0.23131175 -0.248234 -0.21264717
0.32963467 0.090395 -0.021739308 -0.17504178 0.36795586 -0.23729609 0.07073017 -0.21253341
0.23107877 -0.0029326149 0.090809286 -0.20009947 0.12534174 0.040774237 0.015844967 -0.07115328
-0.18605158 -0.16574593 0.09264683 0.07862984 -0.10897992 -0.1526056 0.10924501 0.20757885
0.07029771 -0.14064729 0.19413686 0.102366015 0.055818446 -0.23680228 0.14325283 -0.055297103
0.04858275 -0.045407258 -0.06753329 -0.07305084 0.33824527 -0.323954 -0.04554548 -0.12294545
0.26308998 -0.18655127 -0.3471798 0.10809197 0.47998747 0.25245655 -0.1531818 -0.093383886
0.023139047 0.0589549 -0.05532287 -0.010820342 -0.35396302 -0.32274002 0.13375089 0.25859395
-0.11263067 -0.021102462 -0.15158585 0.14046855 -0.064840674 -0.051644918 0.059437025 0.080461
0.3344568 0.085929625 0.14048438 0.14910065 0.18970871 0.32238612 -0.29626474 0.027760379
0.08989305 0.022429395 -0.2916889 0.38816857 -0.006685937 0.008423897 -0.01793684 -0.1711592
0.090453364 0.03712954 0.020735163 -0.18543099 -0.27880442 0.021342563 -0.34926713 0.14337654
-0.077632494 -0.18947329 0.25144508 -0.030988272 0.19866997 0.10997552 -0.038116075 0.12793171
0.06512299 0.054700203 -0.057466004 0.070791155 0.05869721 0.039597705 -0.0042791064 0.0694597
0.08813638 -0.081887774 0.10729964 0.20039132 -0.073449686 0.25429097 -0.09548843 0.1421085
-0.178241 -0.01748623 0.32177895 -0.44184986 -0.09464677 0.000963063 0.022791915 -0.09484014
0.12820049 -0.10365258 0.24458657 -0.22484353 -0.15335083 0.09583729 -0.31107864 -0.3041406
-0.026319997 0.103843 -0.009562988 0.0756243 -0.43790525 -0.18852721 -0.082162485 0.028109951
00000000: ccee 1d3e ebae d4bd 93d2 fb3c 3bd7 263e
00000010: 2741 9d3e eafd fa3c 0718 2dbe 665d 4e3e
00000020: 06ad 49be 4d7c 45bc 800c 0d3f 3a64 a03e
00000030: 8c64 86bd fd0b 57be b1ce dfbd 3b58 8f3e
00000040: 6827 25be 1fa7 85be e7ff f93d 07db 65bd
00000050: c02d 31be d4f4 e83d 962f 393e 74e7 103f
00000060: c53e 25bd 7c92 6abe d9cc fc3d e1d2 723e
00000070: 9c05 6ebd 70b6 233e 422a 223e 260a 53be
00000080: a652 4f3e 5f0d 8bbb 1ab4 30be a2e0 14bf
00000090: 3ed3 e2bd ce9d a53d 8267 84be 8f34 0ebe
000000a0: 71ef 8e3d 9004 213c 5465 453e 3b36 09bd
000000b0: f7e9 ae3e d767 d73d 24f5 9e3e cee2 aebe
000000c0: 7428 933d f272 283e 75b7 0b3c 5b1b 8bbe
000000d0: 44f2 ac3e ec97 a33e 416f 1bbe d1c9 2c3c
000000e0: 6e1b eebc c3ce 333e 330c 063e 276c 72be
000000f0: 9224 373e b395 903e 958c edbd 0952 093d
00000100: 0099 32bd 2451 7fbe 1158 bebd 199f 33ba
00000110: 067f aabe 40e7 3ebe cf09 79be 66ea 673e
00000120: e515 633d fce4 253e ebd1 703e 8321 483e
00000130: 34e0 72bd 4100 fc3d bc4c e43e 62d7 803e
00000140: b394 debd 8bf5 ba3d 2797 0d3d 011e c9bb
00000150: 5f87 1d3e 6b19 dd3d 606d dd3d c0a8 1a3d
00000160: 6627 b5be 01ad 703d b8b7 e43d 8acc 253d
00000170: 83db 513e 963a abbd d65a 9ebe cac7 ff3d
00000180: 6201 48be 7a59 17be d13a b53c c36a d33d
00000190: 0ac2 a3be 89a8 5dbd c447 2abe 4314 063e
000001a0: e03f 6fbe 66bf 0c3e f0d3 edbd 5c2f 90be
000001b0: 2fe7 cc39 1d93 c2be cbee 92bd 62a3 09be
000001c0: 2e22 4e3e 11e3 46bd ae2f 113e 315c d03d
000001d0: 6a73 93bd fddc 6cbe 0e31 7ebe 2ec0 59be
000001e0: e0c5 a83e 0421 b93d a216 b2bc 273e 33be
000001f0: b664 bc3e bffd 72be fbda 903d 5ca2 59be
00000200: ea9f 6c3e 1d31 40bb 38fa b93d e0e6 4cbe
00000210: 9659 003e e302 273d 4ecd 813c d0b8 91bd
00000220: 4e84 3ebe 4db9 29be 9fbd bd3d ae08 a13d
00000230: dd30 dfbd a444 1cbe d9bb df3d 8d8f 543e
00000240: 3ff8 8f3d d805 10be d0cb 463e 46a5 d13d
00000250: e2a1 643d 4c7c 72be dfb0 123e 377f 62bd
00000260: b5fe 463d f6fc 39bd e54e 8abd ae9b 95bd
00000270: 7c2e ad3e 4cdd a5be e68d 3abd d3ca fbbd
00000280: bbb3 863e 4c07 3fbe 8dc1 b1be 535f dd3d
00000290: ebc0 f53e fc41 813e b1db 1cbe 0d40 bfbd
000002a0: 198e bd3c b17a 713d 3c9a 62bd ce47 31bc
000002b0: a43a b5be 2e3e a5be fef5 083e 6d66 843e
000002c0: e9aa e6bd 12df acbc 5239 1bbe fdd6 0f3e
000002d0: 30cb 84bd 9f89 53bd 3d74 733d bdc8 a43d
000002e0: ec3d ab3e dffb af3d 23db 0f3e d7ad 183e
000002f0: 0043 423e cb0f a53e 03b0 97be bc69 e33c
00000300: d919 b83d dabd b73c 3f58 95be 08be c63e
00000310: b415 dbbb 6304 0a3c 48f0 92bc 5b44 2fbe
00000320: 9d3f b93d 2515 183d cadc a93c 9fe1 3dbe
00000330: 74bf 8ebe 99d6 ae3c 24d3 b2be 4dd1 123e
00000340: c9fd 9ebd 4905 42be 69bd 803e 1edb fdbc
00000350: 2470 4b3e d83a e13d 9a1f 1cbd 8800 033e
00000360: 345f 853d 520d 603d 7961 6bbd f4fa 903d
00000370: 7c6c 703d 3431 223d bf37 8cbb e340 8e3d
00000380: d980 b43d c7b4 a7bd eabf db3d 6233 4d3e
00000390: ca6c 96bd 6d32 823e 708f c3bd e484 113e
000003a0: cf84 36be 483f 8fbc 36c0 a43e 253a e2be
000003b0: 2ad6 c1bd 1076 7c3a 1cb6 ba3c 8c3b c2bd
000003c0: fd46 033e ce47 d4bd e774 7a3e 623d 66be
000003d0: 0008 1dbe 5746 c43d b345 9fbe 51b8 9bbe
000003e0: 099d d7bc a4ab d43d 14ae 1cbc eae0 9a3d
000003f0: 1e35 e0be 470d 41be ce44 a8bd d746 e63c

network_body.linear_encoder.seq_layers.2.bias f4 [128]
-0.0070564626 -0.038872212 0.0085452255 -0.014861217 -0.02447678 0.00641828 -0.03344372 -0.0038955235
0.02241764 -0.034194518 -0.0020346483 -0.07479146 -0.032379404 -0.008236143 0.011603391 0.03260967
0.048030086 -0.030285364 0.012159734 -0.042989094 -0.025744008 -0.0077349297 -0.032345347 -0.011911522
-0.015926065 -0.053241856 0.03235336 0.017548436 -0.014423024 -0.047644734 0.01417895 0.015817814
0.008904534 0.012711131 -0.012045492 0.0015024593 -0.08587068 -0.00014483464 -0.0022996864 0.018260073
0.013840205 0.017111491 -0.02591477 -0.03192203 -0.03183627 0.022463387 -0.0009116678 0.014423621
0.022745999 -0.05838422 0.03764252 -0.028165596 -0.000995337 0.025702879 0.01011485 -0.022653788
-0.022522189 -0.04380627 -0.04794368 0.0059153736 -0.036376562 0.01658239 -0.01527091 0.0022401947
0.008935392 -0.020577142 -0.026223537 -0.00075528224 -0.02982208 0.005472958 -0.036153875 -0.024379155
0.024942936 -0.04831991 -0.034942612 0.006020636 -0.014478237 0.0029234462 -0.027945671 0.008783498
0.024835303 -0.047673162 -0.007761357 0.007946499 0.012307935 0.015337302 -0.054987915 -0.010047409
0.019007709 -0.028037472 -0.006677319 -0.0028995406 -0.0214772 -0.0012775698 0.03257613 0.021765582
-0.003329936 0.0010089193 0.0133826975 0.02675294 0.0006977745 -0.004710641 -0.02599069 0.019300418
-0.056060188 -0.040757757 -0.0029564432 -0.013335695 -0.01980672 -0.02513567 0.0028853673 -0.02168806
-0.012128899 0.040228553 0.029310042 0.02129808 0.010464171 0.046272025 -0.05105338 0.025332019
-0.030772697 -0.031236334 0.014032356 0.021659264 -0.009581344 0.00069943705 -0.012691707 -0.008217948
00000000: e639 e7bb 7838 1fbd 4601 0c3c 767c 73bc
00000010: 8783 c8bc 6f50 d23b 48fc 08bd 0a4c 7fbb
00000020: 33a5 b73c 8d0f 0cbd bc57 05bb 442c 99bd
00000030: 44a0 04bd e3f0 06bc 261c 3e3c b891 053d
00000040: 32bb 443d 0319 f8bc 9f39 473c 5515 30bd
00000050: 19e5 d2bc 4b75 fdbb 8e7c 04bd 8b28 43bc
00000060: 6177 82bc 2214 5abd f584 043d bdc1 8f3c
00000070: 8c4e 6cbc 2027 43bd d44e 683c 5c94 813c
00000080: 53e4 113c 5942 503c 755a 45bc 2bee c43a
00000090: f8dc afbd c1de 17b9 56b6 16bb 2696 953c
000000a0: 07c2 623c 662d 8c3c 364b d4bc adc0 02bd
000000b0: c066 02bd 2305 b83c fefc 6eba 0d51 6c3c
000000c0: d155 ba3c 4b24 6fbd 0b2f 1a3d 89bb e6bc
000000d0: f875 82ba d88e d23c c1b8 253c 7094 b9bc
000000e0: 7480 b8bc 346e 33bd 9860 44bd c0d5 c13b
000000f0: 97ff 14bd cbd7 873c d732 7abc 3bd0 123b
00000100: c065 123c 6591 a8bc bed2 d6bc 22fe 45ba
00000110: 6f4d f4bc 8056 b33b 1616 14bd cbb6 c7bc
00000120: 2155 cc3c 19eb 45bd fc1f 0fbd c148 c53b
00000130: 2136 6dbc 4a97 3f3b 52ee e4bc a9e8 0f3c
00000140: 6873 cb3c ef44 43bd fb52 febb 0832 023c
00000150: 39a7 493c 4f49 7b3c 023b 61bd e39d 24bc
00000160: 0eb6 9b3c d7ae e5bc 69cd dabb 3806 3ebb
00000170: f4f0 afbc 2174 a7ba 8c6e 053d bc4d b23c
00000180: 0e3b 5abb b73d 843a 1a43 5b3c fb28 db3c
00000190: dbea 363a b95b 9abb 6dea d4bc e91b 9e3c
000001a0: 5e9f 65bd 9bf1 26bd e3c0 41bb f57d 5abc
000001b0: b441 a2bc 52e9 cdbc 6e18 3d3b 29ab b1bc
000001c0: 4ab8 46bc b2c6 243d 9d1b f03c 5079 ae3c
000001d0: ea71 2b3c bc87 3d3d 591d 51bd 1885 cf3c
000001e0: 0617 fcbc 57e3 ffbc f8e7 653c c56e b13c
000001f0: 12fb 1cbc 6d5a 373a e1f0 4fbc 92a4 06bc

network_body.linear_encoder.seq_layers.2.weight f4 [128, 128]
0.1063029 0.08257152 -0.03699795 -0.14313118 -0.15153213 0.07259063 -0.054396566 0.17271918
0.027085584 -0.012094147 -0.027420174 0.010874994 0.08623946 -0.10113879 -0.08006242 -0.12848368
-0.053714883 0.045926787 0.060990274 -0.0092332605 0.00867435 0.070121974 -0.1961432 -0.20557603
0.032406848 -0.021534516 -0.14867546 -0.041379754 0.073213145 -0.01789535 0.0028874297 0.1508465
-0.009363353 -0.0035781895 0.07660962 0.006470566 -0.02176816 -0.07834107 0.22644068 -0.04946131
-0.13425317 0.049428392 -0.13664354 -0.02612562 0.06369972 0.019813279 -0.016311651 0.052518968
-0.07374881 0.15797698 -0.07789834 -0.051448356 0.0855992 -0.021738144 -0.02042293 0.0039601293
-0.028867086 0.10445336 -0.05581396 0.098854035 0.054059017 0.11249972 -4.2216707e-05 0.03070901
-0.16271876 0.09366498 0.10589603 -0.045336723 0.06657437 -0.21260858 -0.08551491 -0.129296
0.034782935 0.036227383 -0.035102855 -0.22358042 0.065436035 0.012671815 0.1533725 0.004580983
0.21370745 0.1575503 0.01904542 -0.050195 0.07028912 0.07087753 -0.020851037 0.1602741
-0.07243319 -0.249197 -0.00859511 0.020336919 0.014115783 -0.06015903 0.042632025 0.027625486
0.09425333 -0.076037034 -0.06848374 0.030226361 -0.08322285 -0.004932148 -0.116197474 -0.0058379103
0.05202512 -0.11004687 -0.14419915 0.020271447 -0.21269006 -0.081997775 0.05614377 -0.06367518
-0.21988457 0.085438766 -0.08331358 0.018855417 -0.16648625 -0.19664402 -0.052760415 -0.07266466
-0.017156541 0.121226646 -0.07162599 -0.016091248 0.008254849 -0.16722381 -0.1841913 -0.10133078
0.08502794 -0.0046717296 0.009370112 0.15874895 -0.022963125 -0.091750026 -0.025388671 -0.017272804
-0.079422586 -0.14703628 -0.020400511 0.07060254 -0.15621363 0.09078123 0.091276124 -0.0342738
0.058221277 -0.07243546 -0.0018994778 -0.088072136 0.042360704 0.14320108 0.16998397 0.03338199
-0.29339945 0.18637255 0.17885822 0.22602402 0.06417337 0.037941657 -0.027901826 -0.21869068
-0.057954814 -0.10483528 -0.05002438 0.21043 0.07468452 -0.0100117605 -0.24931106 0.06326913
-0.09223163 0.13449867 -0.07816031 -0.0007729248 0.08319533 0.020541858 0.08595968 0.113934316
0.014050518 0.09319399 -0.035258293 0.16426021 -0.045759574 -0.1315616 -0.032488767 -0.16807905
-0.050598808 0.081735544 0.16527548 -0.034831606 0.24229287 0.09268742 -0.09788572 0.0025270297
-0.0066388953 0.10127931 -0.03302333 -0.102414876 -0.049396846 -0.047982305 0.07178385 -0.022487957
0.042111747 -0.15601692 0.05146068 -0.16297975 0.015020903 -0.08416728 0.041444257 0.09887689
0.058026746 0.030729122 -0.2095949 0.13505843 -0.028548641 -0.0429925 0.042714097 0.07207391
-0.017941236 0.109274395 0.063047014 -0.108759575 0.06593232 -0.036455102 -0.15890133 -0.0351571
-0.04833943 0.07037137 0.08384629 -0.01227684 -0.15277208 0.1509385 -0.03657947 -0.059282355
-0.1431135 0.11257429 -0.08817152 -0.14401191 0.041855615 0.05034214 -0.037272148 0.045669794
-0.014518367 -0.07649611 -0.16515273 0.17510979 -0.02895548 0.076867 0.041264087 0.081562765
-0.03458188 -0.1609872 0.096776076 0.02203367 -0.02560195 0.087225534 0.1957233 0.002797801
00000000: 56b5 d93d 421b a93d 2a8b 17bd fb90 12be
00000010: 3d2b 1bbe 65aa 943d efce 5ebd 4cdd 303e
00000020: 96e2 dd3c 8726 46bc 46a0 e0bc 082d 323c
00000030: 509e b03d db21 cfbd c4f7 a3bd 3a91 03be
00000040: 2304 5cbd ba1d 3c3d f0d0 793d 1a47 17bc
00000050: dc1e 0e3c 1c9c 8f3d c3d9 48be 8682 52be
00000060: 0bbd 043d 2769 b0bc 613e 18be d17d 29bd
00000070: c6f0 953d 4599 92bc 083b 3d3b 8177 1a3e
00000080: c068 19bc 0f80 6abb 81e5 9c3d 0b07 d43b
00000090: 2453 b2bc 4871 a0bd 11e0 673e f197 4abd
000000a0: aa79 09be 6d75 4a3d 49ec 0bbe 6505 d6bc
000000b0: 0075 823d 754f a23c 03a0 85bc 211e 573d
000000c0: 9e09 97bd b8c4 213e 2a89 9fbd 83bb 52bd
000000d0: a24e af3d 3114 b2bc fd4d a7bc f9c3 813b
000000e0: ab7a ecbc a5eb d53d 2e9d 64bd fc73 ca3d
000000f0: fd6c 5d3d 4166 e63d d811 31b8 7691 fb3c
00000100: bf9f 26be 6dd3 bf3d 05e0 d83d 00b3 39bd
00000110: 2558 883d 10b6 59be 7122 afbd 2c66 04be
00000120: 8d78 0e3d 2a63 143d 03c8 0fbd 44f2 64be
00000130: 5403 863d 729d 4f3c ae0d 1d3e 121c 963b
00000140: 20d6 5a3e de54 213e 2405 9c3c 4699 4dbd
00000150: bef3 8f3d 3d28 913d cbcf aabc e51e 243e
00000160: da57 94bd 802d 7fbe 81d2 0cbc 9c99 a63c
00000170: e345 673c 5169 76bd eb9e 2e3d d84e e23c
00000180: e407 c13d 4eb9 9bbd 3441 8cbd 469d f73c
00000190: be70 aabd db9d a1bb f1f8 edbd f14b bfbb
000001a0: 4b18 553d 4160 e1bd f1a8 13be 4e10 a63c
000001b0: 6ccb 59be 73ee a7bd 03f7 653d 2268 82bd
000001c0: 6c29 61be 85fa ae3d 4fa0 aabd ad76 9a3c
000001d0: 5f7b 2abe 0d5d 49be 4e1b 58bd 36d1 94bd
000001e0: e08b 8cbc ad45 f83d a6b0 92bd cbd1 83bc
000001f0: 593f 073c b83c 2bbe a59c 3cbe 8386 cfbd
00000200: 2123 ae3d 4f15 99bb 1985 193c 168f 223e
00000210: 2a1d bcbc 70e7 bbbd e7fb cfbc b27f 8dbc
00000220: 4fa8 a2bd ae90 16be f91e a7bc 1198 903d
00000230: 77f6 1fbe 82eb b93d faee ba3d af62 0cbd
00000240: 6f79 6e3d 0b59 94bd e6f7 f8ba 2a5f b4bd
00000250: 6b82 2d3d 4ea3 123e 4710 2e3e 8ebb 083d
00000260: 7438 96be 72d8 3e3e 9c26 373e d772 673e
00000270: 546d 833d b668 1b3d 5f92 e4bc 73f0 5fbe
00000280: 0762 6dbd e1b3 d6bd 5de6 4cbd f67a 573e
00000290: 33f4 983d 5e08 24bc 664b 7fbe 3f93 813d
000002a0: f0e3 bcbd 05ba 093e 8312 a0bd 1b9e 4aba
000002b0: 5062 aa3d 6647 a83c a10b b03d 6556 e93d
000002c0: 2534 663c 7edc be3d 006b 10bd d433 283e
000002d0: 646e 3bbd 16b8 06be f112 05bd ea1c 2cbe
000002e0: b240 4fbd f764 a73d fa3d 293e 96ab 0ebd
000002f0: 9f1b 783e e7d2 bd3d 4f78 c8bd 869c 253b
00000300: 178b d9bb 876b cf3d 7943 07bd e4be d1bd
00000310: 5954 4abd 1889 44bd 6903 933d aa38 b8bc
00000320: 5e7d 2c3d e6c2 1fbe 6fc8 523d 2ae4 26be
00000330: 3c1a 763c e55f acbd 74c1 293d f87f ca3d
00000340: 74ad 6d3d a4bb fb3c 0ca0 56be c24c 0a3e
00000350: d7de e9bc e718 30bd faf4 2e3d 7c9b 933d
00000360: 80f9 92bc 41cb df3d cb1e 813d 57bd debd
00000370: 8607 873d f251 15bd 08b7 22be e400 10bd
00000380: 91ff 45bd dd1e 903d 9bb7 ab3d cd24 49bc
00000390: 4970 1cbe 9f8f 1a3e 5bd4 15bd 0ed2 72bd
000003a0: 588c 12be 598d e63d 4593 b4bd dc77 13be
000003b0: cb70 2b3d 8f33 4e3d aeaa 18bd 4010 3b3d
000003c0: 72de 6dbc fea9 9cbd cc1d 29be fb4f 333e
000003d0: 0b34 edbc 726c 9d3d 8804 293d 610a a73d
000003e0: bba5 0dbd d4d9 24be 8932 c63d f57f b43c
000003f0: 2ebb d1bc 4da3 b23d b06b 483e 505b 373b

network_body.linear_encoder.seq_layers.4.bias f4 [128]
-0.06922778 -0.05816242 -0.048700053 0.024028977 -0.009169794 -0.018690333 -0.0041463547 -0.060933996
-0.007973553 -0.004383836 -0.050259456 0.006521222 -0.008005945 0.043929122 0.05294678 0.0032935936
-0.01566023 -0.038095124 -0.015071862 0.04301511 0.011496985 0.04036963 0.04510537 0.007017305
-0.0036605217 -0.018520687 -0.032853756 -0.05637745 0.018756328 -0.0069604004 -0.0072171036 0.01352912
-0.011224599 0.007858244 -0.057070382 -0.028458238 -0.007940056 0.00538219 -0.012696594 0.014447954
-0.021127254 0.015886238 -0.0014635414 0.0015753176 0.017620955 0.01834531 -0.0071944227 0.027974734
0.014498339 0.006029775 0.027873535 0.038210154 0.026744757 -0.057749074 0.037810765 0.021902557
-0.035100598 -0.031539276 -0.011275437 0.002443989 -0.02441489 -0.004709325 0.031578366 0.04230336
-0.0029878349 -0.011543699 0.024841594 -0.007867377 -0.034668427 0.01592244 0.027785817 0.013398995
-0.041415 -0.040480494 0.068342805 -0.03933787 0.039787307 0.0077055506 0.020547068 -0.0044916747
-0.0009958927 0.013326141 -0.018711919 -0.021389022 -0.03590899 0.017209966 0.02401764 0.01128525
0.040250964 -0.04503916 -0.015566596 0.029148713 0.038312912 -0.04421253 0.0005147608 -0.030273965
0.022517642 0.039653495 0.024225816 -0.08674553 -0.020486366 -0.0188996 -0.002138956 -0.035640586
-0.014053905 0.004287624 0.029469999 0.0036564232 0.028562697 -0.0105687175 -0.004912191 -0.011021819
0.014185277 0.022349421 -0.0017296353 -0.009342923 -0.052855827 -0.021150028 -0.0011901426 0.05121391
0.028161172 -0.018238505 -0.014879423 -0.029723242 -0.002437659 -0.033390895 0.0022747393 -0.014588649
00000000: 4bc7 8dbd b83b 6ebd b579 47bd 6bd8 c43c
00000010: e73c 16bc 781c 99bc 25de 87bb ed95 79bd
00000020: 81a3 02bc 48a6 8fbb dcdc 4dbd faaf d53b
00000030: 5e2b 03bc 06ef 333d b9de 583d 55d9 573b
00000040: e249 80bc a209 1cbd f9ef 76bc 9d30 303d
00000050: da5d 3c3c a05a 253d 69c0 383d 6cf1 e53b
00000060: 5de5 6fbb b2b8 97bc a991 06bd 0aec 66bd
00000070: dfa6 993c 1214 e4bb 747d ecbb 3ea9 5d3c
00000080: 61e7 37bc ddbf 003c a2c2 69bd 4021 e9bc
00000090: 0217 02bc 155d b03b 6005 50bc 1cb7 6c3c
000000a0: 1013 adbc db23 823c 4dd4 bfba e37a ce3a
000000b0: d259 903c e748 963c 31bf ebbb 452b e53c
000000c0: 718a 6d3c 6b95 c53b 0a57 e43c 4082 1c3d
000000d0: d217 db3c 4b8a 6cbd 76df 1a3d fe6c b33c
000000e0: a5c5 0fbd 542f 01bd 9cbc 38bc 552b 203b
000000f0: bc01 c8bc ae50 9abb 5158 013d 4a46 2d3d
00000100: 8dcf 43bb c821 3dbc 9980 cb3c 2ce6 00bc
00000110: 7b00 0ebd c76f 823c 159f e33c 7587 5b3c
00000120: c6a2 29bd e0ce 25bd 50f7 8b3d bf20 21bd
00000130: 04f8 223d d87e fc3b 5352 a83c e62e 93bb
00000140: 9d88 82ba e355 5a3c bd49 99bc 0838 afbc
00000150: 4e15 13bd eafb 8c3c a4c0 c43c c5e5 383c
00000160: 32de 243d fb7a 38bd 090b 7fbc 48c9 ee3c
00000170: 00ee 1c3d 3318 35bd 03f1 063a 1b01 f8bc
00000180: eb76 b83c b46b 223d 3875 c63c a4a7 b1bd
00000190: 06d3 a7bc 55d3 9abc ba2d 0cbb ddfb 11bd
000001a0: 5a42 66bc 327f 8c3b 116b f13c 9aa0 6f3b
000001b0: 51fc e93c 6a28 2dbc 72f6 a0bb dc94 34bc
000001c0: 5d69 683c 2216 b73c eeb4 e2ba 0f13 19bc
000001d0: 5a7f 58bd d342 adbc 8ffe 9bba adc5 513d
000001e0: 42b2 e63c eb68 95bc d3c8 73bc 287e f3bc
000001f0: 22c1 1fbb e4c4 08bd cb13 153b 3b05 6fbc

network_body.linear_encoder.seq_layers.4.weight f4 [128, 128]
-0.124678545 -0.012111177 -0.08414238 0.03975793 0.026201012 -0.0068136277 -0.009272399 -0.22426754
-0.06534409 0.08899667 0.0027680942 -0.13992298 0.002874559 0.099054046 0.007573577 -0.06973551
-0.28263262 -0.13419256 -0.17611448 0.058673453 0.10037402 0.16507345 -0.07100727 -1.4653763e-05
0.014370575 0.10416681 0.031193674 -0.034569908 0.05824604 -0.042203587 0.19699475 -0.080976546
0.110667124 -0.04420346 -0.10664245 0.1093132 0.06615996 0.21131979 0.05973614 -0.04093366
0.085644834 0.09025077 0.0517658 -0.022356631 -0.028320769 -0.11168116 -0.050387625 0.109047584
-0.27265292 -0.09363539 -0.07033009 -0.0650765 -0.14207615 0.094628625 -0.16699386 0.08099394
-0.10365877 0.050624285 -0.037437856 0.17979906 0.06860572 -0.10515469 -0.06729316 0.021403942
0.15885122 0.13917167 0.08623805 -0.1289059 0.03850211 0.017856594 -0.10893066 0.0607746
-0.03523936 -0.009394315 0.060906217 -0.024302999 0.0088051455 0.0077758078 0.05206393 -0.06479966
-0.098014995 0.18280835 -0.08552384 0.017828621 0.064426154 0.034822345 0.09659001 0.05145583
0.09962167 -0.09237288 0.07705303 -0.1682645 0.15504125 -0.07121203 0.0011436718 -0.11706682
0.2538021 -0.028506113 0.09263018 -0.0036141486 -0.15872976 -0.17224051 -0.031904276 0.05423013
0.02858623 -0.09223124 -0.034395155 -0.0029248053 0.022118555 0.021360328 -0.031494644 0.18044806
0.13304792 0.07898567 -0.014675856 0.0071326816 0.059907872 -0.121332824 0.035057336 -0.1008405
-0.04303466 -0.06506111 0.120362855 -0.0054582967 -0.06796615 0.07513592 -0.15452941 0.07239831
0.11585752 -0.034240574 -0.08123047 0.116590634 0.003996357 0.15169428 0.015633741 0.0077122515
0.01974711 -0.11001024 0.03260802 0.037365057 0.12862125 0.06647825 0.024752863 0.0061392207
-0.019055545 -0.087021954 -0.15683568 -0.045693804 -0.14100607 0.1549425 -0.09959003 -0.055134453
0.0811211 0.14116606 -0.035349123 0.1900745 0.20368172 -0.054792542 0.2024826 -0.026780844
0.10483132 -0.04490515 0.02608106 -0.05247716 0.113879964 0.09781058 0.081095055 -0.04393562
0.09358217 0.09614521 0.06029883 -0.3142842 0.032783072 -0.004202803 0.0817634 -0.0196214
-0.07333577 0.007585018 0.10788736 0.026373887 0.05733784 -0.048604693 0.085641816 -0.014421486
-0.010963526 -0.018224886 0.007120913 0.05822941 -0.08297305 0.05860278 0.06326886 -0.050116293
0.0066450597 0.047206163 -0.020729132 0.014338167 0.039976593 -0.0050680665 -0.029965678 -0.1466713
0.1513152 -0.03461859 0.014327449 0.08210013 0.007753863 -0.017551048 0.16254368 0.1449614
0.032330476 0.086552404 -0.10216446 0.024621895 -0.04746408 0.020911636 0.033257946 0.0964585
-0.07418862 0.23859507 -0.01919106 0.09242199 -0.17641929 -0.016315447 0.033369493 0.1819291
-0.044423603 0.07492982 -0.041849304 -0.09963175 0.07694375 -0.19475175 -0.062908694 -0.07681675
0.16644461 -0.04851235 -0.0008667095 0.048826154 -0.05870948 -0.040550344 0.027188495 0.03966337
0.09037999 -0.0031025733 -0.12624696 -0.04114748 -0.09902584 -0.13389686 -0.062851645 -0.02966192
-0.006363488 -0.13756438 -0.06784744 -0.086676024 0.010466205 0.08110198 -0.030645492 0.016155237
00000000: 7757 ffbd f56d 46bc d752 acbd 36d9 223d
00000010: 81a3 d63c da44 dfbb 43eb 17bc 64a6 65be
00000020: 1fd3 85bd e343 b63d ea68 353b f847 0fbe
00000030: 1963 3c3b d9dc ca3d c52b f83b 7ed1 8ebd
00000040: 39b5 90be c669 09be 5b57 34be 9353 703d
00000050: e590 cd3d 0409 293e 426c 91bd 6fd9 75b7
00000060: 8f72 6b3c 6955 d53d e089 ff3c 2d99 0dbd
00000070: 6693 6e3d abdd 2cbd feb8 493e 08d7 a5bd
00000080: 72a5 e23d b00e 35bd 5b67 dabd 99df df3d
00000090: e07e 873d 3764 583e e2ad 743d 0eaa 27bd
000000a0: 8f66 af3d 65d5 b83d 6008 543d 4125 b7bc
000000b0: f500 e8bc 18b9 e4bd 4163 4ebd 5754 df3d
000000c0: 2a99 8bbe e9c3 bfbd 3909 90bd d446 85bd
000000d0: 697c 11be a7cc c13d 7000 2bbe 27e0 a53d
000000e0: 0d4b d4bd 695b 4f3d 7058 19bd 3f1d 383e
000000f0: 2881 8c3d 585b d7bd ffd0 89bd 5257 af3c
00000100: e5a9 223e 0583 0e3e 939d b03d e9ff 03be
00000110: 63b4 1d3d fe47 923c 0a17 dfbd c9ee 783d
00000120: 2657 10bd 9dea 19bc cc78 793d 1517 c7bc
00000130: 7543 103c 34cc fe3b fd40 553d afb5 84bd
00000140: 16bc c8bd 1d32 3b3e 1f27 afbd 540d 923c
00000150: dcf1 833d e0a1 0e3d fcd0 c53d 59c3 523d
00000160: 7206 cc3d fe2d bdbd fbcd 9d3d 874d 2cbe
00000170: 22c3 1e3e 9dd7 91bd 42e7 953a bbc0 efbd
00000180: 59f2 813e a785 e9bc e4b4 bd3d 5adb 6cbb
00000190: 0e8a 22be d15f 30be 0fae 02bd 6a20 5e3d
000001a0: ab2d ea3c bbe3 bcbd efe1 0cbd 17ae 3fbb
000001b0: f931 b53c dbfb ae3c 8700 01bd 60c7 383e
000001c0: b73d 083e 3dc3 a13d 0073 70bc 45b9 e93b
000001d0: f561 753d 587d f8bd 4898 0f3d 7785 cebd
000001e0: 1d45 30bd c23e 85bd cd80 f63d 83db b2bb
000001f0: d631 8bbd dce0 993d f53c 1ebe 9145 943d
00000200: b546 ed3d d83f 0cbd 295c a6bd 12c7 ee3d
00000210: dff3 823b bf55 1b3e 5512 803c 0eb7 fc3b
00000220: b1c4 a13c 0c4d e1bd fd8f 053d 1a0c 193d
00000230: 4ab5 033e c025 883d 84c6 ca3c 842b c93b
00000240: 601a 9cbc 9138 b2bd 8899 20be 6d29 3bbd
00000250: e563 10be 3fa9 1e3e dcf5 cbbd aad4 61bd
00000260: d222 a63d d68d 103e 3eca 10bd e4a2 423e
00000270: f191 503e 256e 60bd 9957 4f3e 8063 dbbc
00000280: ceb1 d63d 76ee 37bd f2a7 d53c 4af2 56bd
00000290: e639 e93d ea50 c83d 2a15 a63d d6f5 33bd
000002a0: 02a8 bf3d c8e7 c43d e8fb 763d dce9 a0be
000002b0: 8b47 063d abb7 89bb 9273 a73d 0fbd a0bc
000002c0: 1031 96bd be8b f83b 0cf4 dc3d 0d0e d83c
000002d0: 15db 6a3d b715 47bd fa64 af3d 1948 6cbc
000002e0: 5ca0 33bc 5b4c 95bc 8c56 e93b f681 6e3d
000002f0: c6ed a9bd 7809 703d 1b93 813d be46 4dbd
00000300: cdbe d93b 405b 413d 24d0 a9bc a2ea 6a3c
00000310: 7fbe 233d 0612 a6bb 957a f5bc 0031 16be
00000320: 5ff2 1a3e 39cc 0dbd adbd 6a3c 1d24 a83d
00000330: 1e14 fe3b 37c7 8fbc da71 263e c370 143e
00000340: f66c 043d 6342 b13d 9a3b d1bd dbb3 c93c
00000350: b269 42bd e14e ab3c 7c39 083d 098c c53d
00000360: 34f0 97bd 4452 743e 9236 9dbc be47 bd3d
00000370: 42a7 34be f9a7 85bc 73ae 083d 9f4b 3a3e
00000380: 86f5 35bd ce74 993d 2d6a 2bbd bb0b ccbd
00000390: af94 9d3d 016d 47be 46d6 80bd 1a52 9dbd
000003a0: 7570 2a3e e3b4 46bd e433 63ba effd 473d
000003b0: 5a79 70bd 1e18 26bd 68ba de3c 0f76 223d
000003c0: 2519 b93d 8b54 4bbb e246 01be 438a 28bd
000003d0: 0fce cabd 421c 09be 5db8 80bd 8efd f2bc
000003e0: ce84 d0bb addd 0cbe 99f3 8abd 3383 b1bd
000003f0: 727a 2b3c cb18 a63d 410c fbbc fd57 843c

network_body.vector_processors.0.normalizer.running_mean f4 [29]
0.98711723 0.99388033 0.9869609 0.99390197 0.9871489 0.9938494 0.98667544 0.9935854
0.98596853 0.9932249 0.98428124 0.99261254 0.9856626 0.9933958 0.98674524 0.9935341
0.98674524 0.9935341 -0.24799652 0.49659756 -0.023194155 0.0 0.0 0.0
0.0 0.0 0.0 0.0 0.0
00000000: b7b3 7c3f f16e 7e3f 78a9 7c3f 5c70 7e3f
00000010: cab5 7c3f ea6c 7e3f c396 7c3f 9d5b 7e3f
00000020: 6f68 7c3f fd43 7e3f dbf9 7b3f db1b 7e3f
00000030: 6254 7c3f 304f 7e3f 569b 7c3f 4058 7e3f
00000040: 569b 7c3f 4058 7e3f cdf2 7dbe 0942 fe3e
00000050: ab01 bebc 0000 0000 0000 0000 0000 0000
00000060: 0000 0000 0000 0000 0000 0000 0000 0000
00000070: 0000 0000
